tools/tflite/cifar10_f.tflite (tflite, 360912 bytes, 8 tensors)

fc1/bias f4 [10]
000000 40 c5 ec 3e cb 0c aa be b0 e9 18 be d0 a2 57 3d
       0.4624424 -0.33212885 -0.14932895 0.052645504
000010 d2 0d 2c 3d 35 b3 7c 3e 29 f3 91 3e 8b e5 ac bd
       0.042005368 0.24677737 0.2850583 -0.08442219
000020 32 92 75 be 75 cb f2 be
       -0.2398155 -0.4742085

fc1/MatMul f4 [10, 1024]
000000 87 d9 75 be 30 d7 63 3e 27 7f 9b ba 55 8e af bd
       -0.24008761 0.22250056 -0.0011863456 -0.085720696
000010 e1 2f 93 be ce 06 8d 3e 0d c1 ef 3d f3 52 61 bd
       -0.28747466 0.27544254 0.117067434 -0.055010747
000020 2d 17 13 3e d7 3e 18 bf 95 41 23 3e 20 c8 c1 be
       0.1436431 -0.59470886 0.15942986 -0.37847996
000030 d8 d1 08 be 34 10 95 be 4f ff c3 3d 06 41 d4 bd
       -0.13361299 -0.29113925 0.095701806 -0.10363965
000040 78 73 06 3c ca 6f aa 3e de d2 44 3e 6f 88 0a 3e
       0.008206241 0.33288413 0.19221064 0.13528608
000050 38 10 1f be 1c ef ae be 36 b6 9a be c8 38 12 be
       -0.1553353 -0.341668 -0.3021714 -0.14279473
000060 15 5b 27 3e f7 ec 16 be 92 92 b5 be 3c 23 13 3e
       0.16343339 -0.14738832 -0.35463387 0.1436891
000070 ca 22 64 3e dd 4b 98 be 95 56 0e be 5a 1c 46 be
       0.22278896 -0.2974538 -0.13900216 -0.19346753
000080 76 1f 02 3d d1 a0 df bd 04 b4 7e be 8d 1e 2b be
       0.031768285 -0.10919345 -0.24873358 -0.16710873
000090 c0 e8 55 bf b0 46 c5 be e1 73 96 bd 4a 87 35 3e
       -0.83558273 -0.38530493 -0.07346321 0.1772739
0000a0 a6 33 26 38 c6 c4 0d bc ef f4 f3 bd 7c 8b 5d 3d
       3.9625585e-05 -0.0086528715 -0.11911952 0.0540881
0000b0 14 78 53 3d e7 47 e3 be 89 1d a9 bd ff 6b 80 bc
       0.051628187 -0.44390795 -0.082575865 -0.015676497
0000c0 e2 a8 ea 3d e1 42 07 bd fa 4e 53 3d 0b e5 20 3e
       0.11457993 -0.033022765 0.05158899 0.15712373
0000d0 6d ce 01 3e ba b0 44 be 78 b0 0d 3d 2a 92 1b 3c
       0.12676401 -0.19208041 0.03459212 0.009495297
0000e0 27 ca aa 3e 02 e7 23 bd ac 2d d6 be f5 15 5d 3e
       0.33357355 -0.040015228 -0.4183172 0.21590407
0000f0 85 5b 22 3d d0 04 99 3e bf d5 c1 3d 06 95 0d bf
       0.03963806 0.29886484 0.09464597 -0.55305517
000100 64 7c 46 be c7 4a 48 be 79 ed 09 3d 86 60 ce be
       -0.19383389 -0.19559775 0.033673737 -0.40308017
000110 4f 51 05 bf 4c 16 ad 3d b7 e2 c3 3d 5d 8c 55 be
       -0.5207719 0.084515184 0.09564727 -0.20854326
000120 f0 ef 57 be 30 ee 4e be 90 14 9f 3d ab eb 91 be
       -0.21087623 -0.20208049 0.07767594 -0.28500113
000130 1f f3 1c bf d5 2a 65 be 95 72 aa 3d 15 76 03 bc
       -0.61308473 -0.2237962 0.08322636 -0.008023758
000140 96 0c 86 3e 7e c8 d6 bd 89 1e e3 3d 7f e3 4f 3d
       0.26181477 -0.104874596 0.110898085 0.050754067
000150 d9 89 81 bb 34 92 7f be d6 2a 11 ba 5b fd 6b 3e
       -0.0039532003 -0.24958116 -0.0005537694 0.23045866
000160 55 4d 43 3d 05 c6 f0 bd 19 9e 0c bf c1 97 79 3e
       0.04768117 -0.11756519 -0.5492874 0.24374296
000170 fd b4 12 3e a3 72 54 be 4f 7c ec be a8 02 45 bd
       0.14326854 -0.20746855 -0.4618859 -0.048098236
000180 55 e4 50 be 2f a1 0a 3e dd 42 2d be da 42 bb be
       -0.20399602 0.13538049 -0.16920038 -0.3657444
000190 76 2d 38 bf b1 c4 2b bd f6 a3 e2 bc a7 26 82 3e
       -0.7194437 -0.041935626 -0.027666073 0.25420114
0001a0 da dd f2 bc 47 45 07 be d8 e1 df be 6d 4d a9 3d
       -0.029646803 -0.13210021 -0.43726993 0.08266721
0001b0 8f 77 2b 3e 9f 68 a9 be 32 7c ef bd cd 6a 9a 3d
       0.16744827 -0.33087632 -0.1169361 0.07539902
0001c0 ca f9 83 be 63 66 57 be 5c 41 9a be db f5 b2 3d
       -0.2577651 -0.21035151 -0.3012799 0.087382995
0001d0 2c e2 70 3e 03 e3 93 be d6 bb 6f 3d 42 bb 83 3d
       0.23523778 -0.28884134 0.058528744 0.06432201
0001e0 16 e6 b9 bc 57 eb d6 bd 13 0a c6 bd af 16 8f bd
       -0.022692721 -0.10494106 -0.0966989 -0.069867484
0001f0 93 34 01 be 23 2f ce bd 25 a5 35 3c 24 f9 f7 be
       -0.12617712 -0.10067584 0.011086737 -0.48432267
000200 9a 2d a7 bd c0 61 a3 be 01 c2 be bd 29 cc ca bd
       -0.08162995 -0.31910515 -0.09314347 -0.09902222
000210 24 dc 9c be a1 b8 84 be 40 d9 10 3e f0 d1 a8 bd
       -0.30636704 -0.2592211 0.14145374 -0.082431674
000220 77 ab 6f 3e c9 46 79 be ec d8 3a 3d c1 0d 69 3d
       0.23405252 -0.24343409 0.04561703 0.056897882
000230 26 dc c7 bb cb ab 61 be 38 f8 0a 3e 0a d3 70 be
       -0.006099242 -0.2203819 0.1357125 -0.23518005
000240 86 c9 59 3e d7 22 16 3d 8d d9 eb 3c 8d 3e 05 be
       0.21268281 0.03665432 0.02879026 -0.13012142
000250 58 3d 8e 3c 8b ec 19 bf ac d7 84 3d 0a 62 db bd
       0.017363235 -0.6012656 0.06486449 -0.10712059
000260 56 1e 84 be 99 9c 83 be dc f2 05 bf 8c f9 ff 3c
       -0.25804394 -0.25705412 -0.523237 0.031246923
000270 f1 19 88 3e 8c eb 05 be f0 86 2b be 8c 3d 26 be
       0.26582292 -0.13078135 -0.16750693 -0.16234416
000280 c7 a5 44 bd 90 02 a3 3b 03 97 02 be b9 9b b4 bc
       -0.04800966 0.0049746707 -0.12752919 -0.02204691
000290 ed 62 38 bf a9 a1 4f be 86 89 ee bb 90 b0 03 be
       -0.7202595 -0.20276512 -0.0072795777 -0.12860322
0002a0 a1 ba 5c 3d 11 c9 d8 bd 26 ef 5f 3a 63 09 ea bb
       0.05388892 -0.105852254 0.0008542411 -0.0071422323
0002b0 a1 69 be 3d 59 34 2e be 3f 5c 26 be 7d c5 a5 bd
       0.09297491 -0.17012157 -0.16246127 -0.080943085
0002c0 2d 79 0d 3e 3a f9 65 be 21 de 79 be 08 92 62 3e
       0.13815756 -0.22458354 -0.24401142 0.22126019
0002d0 57 71 be 3d 5e b8 2f bd c1 ba 11 3e e4 b0 a5 3e
       0.092989616 -0.042900436 0.14231397 0.3236152
0002e0 4c a1 86 bd 3d 4e 4e be 42 45 4d be b9 6e 54 be
       -0.06573734 -0.20147033 -0.20045951 -0.20745362
0002f0 35 78 6a be ea 52 d5 be 75 57 c0 3d 76 4e 3f bf
       -0.22897418 -0.4166482 0.09391681 -0.74729097
000300 84 e8 75 be 6b 74 f1 be 87 ab 57 be f8 ed e5 be
       -0.24014479 -0.47159132 -0.21061526 -0.44908118
000310 3f ef c4 be 55 cc 24 be b5 9b 8f 3d 0b 03 b7 be
       -0.3846378 -0.16093571 0.07012121 -0.3574451
000320 75 88 02 bd 62 c7 6e 3e c7 01 8c 3d 0e 48 d7 be
       -0.031868417 0.23318246 0.068362765 -0.4204716
000330 c8 fb 4e be 98 cb 26 bf f5 ff ff bd 4a 68 95 3e
       -0.20213234 -0.6515441 -0.12499992 0.2918113
000340 c4 cb ab bd 68 a7 60 3c 44 fa 58 3d e7 82 65 bd
       -0.083884746 0.013711788 0.052973047 -0.05603304
000350 56 eb 45 be 44 d6 2c be e0 da 97 3d 70 60 ee b9
       -0.19328055 -0.16878611 0.07414794 -0.0004546675
000360 e2 9a ff be 5c 41 41 be 44 06 1d bf 6e cd 25 3e
       -0.49922854 -0.18872589 -0.61337686 0.16191646
000370 27 d9 10 ba a7 52 a2 be 33 f9 8e 3d 6e 9f 5a be
       -0.0005525522 -0.31703684 0.06981125 -0.2134988
000380 ae 93 72 3e ce 25 25 be 3d ff 1a 3d 7e a8 c5 3c
       0.23689148 -0.16127703 0.03784107 0.024128195
000390 8e 50 f7 be 3d 23 5e 3e 18 6f 60 be c4 30 ca be
       -0.48303646 0.2169313 -0.21917379 -0.3949033
0003a0 31 65 1f be 99 71 9a bd 66 37 92 be 5e 5a 59 3e
       -0.15565945 -0.07541198 -0.2855789 0.21225879
0003b0 8a 7a 91 3d cc 77 75 3e c2 b4 95 be 0a 16 aa be
       0.071034506 0.2397148 -0.2923947 -0.3321994
0003c0 6f ad 6c 3e f4 25 1e be 94 68 4b be f5 c1 47 bd
       0.23113035 -0.15444165 -0.19864112 -0.048768956
0003d0 8b 27 f9 bd 64 10 2d 3e be c2 dc bb 84 90 17 3e
       -0.12165745 0.16900784 -0.0067370823 0.14801222
0003e0 35 76 a3 bd a2 9f 0f be 49 95 ec be ef dd 9b be
       -0.079815306 -0.14025739 -0.46207646 -0.3044276
0003f0 a8 f3 00 3e 55 d3 f7 bd 80 4a 4d be 62 78 d1 bd
       0.12592947 -0.12100855 -0.2004795 -0.10228039

relu0/Relu;FusedBatchNormV3;ftr0/bias;ftr0/BiasAdd;ftr1/Conv2D;ftr0/Conv2D f4 [32]
000000 11 5e 68 be c2 27 a2 3d 94 ae 32 bf ea 41 88 be
       -0.22692133 0.079177395 -0.69797635 -0.26612788
000010 e6 29 82 be 0b 93 0e 3d 24 7c f2 3e b2 85 90 bf
       -0.2542259 0.0348082 0.47360337 -1.12908
000020 28 f9 3e be 53 37 25 be f9 5b 20 3f d2 31 55 3e
       -0.18649733 -0.16134386 0.6264034 0.20819786
000030 cb 55 cd bf 33 36 20 be de 76 9b be cf a8 46 be
       -1.6041807 -0.15645675 -0.30364126 -0.19400333
000040 3b 7a 31 bf 04 a8 ad bd 2e 66 5b 3f 9e e8 e4 3e
       -0.69327134 -0.08479312 0.8570279 0.44708723
000050 4e ae fe 3e 78 93 e2 bd 8e 8b fc bd f1 cd 04 3e
       0.4974236 -0.11063284 -0.123313054 0.12969185
000060 c4 ee 46 be 14 0c 9b be 0f 15 35 be 73 66 23 be
       -0.1942702 -0.30282652 -0.17683814 -0.1595705
000070 ce a2 7a be e0 2c 90 be c0 7a d1 bc 20 cd 7f 3e
       -0.24476168 -0.28159237 -0.025571227 0.24980593

relu1/Relu;FusedBatchNormV3;ftr1/bias;ftr1/BiasAdd;ftr1/Conv2D f4 [32]
000000 1c fc 4d 3e 09 cc d1 bd b8 3f 19 be dd 7e d5 3d
       0.20115703 -0.10243995 -0.14965713 0.10424588
000010 81 2a a9 3e 52 bd 92 be c4 f0 9f be 8d 76 30 3f
       0.3304024 -0.28660065 -0.31238377 0.68930894
000020 96 77 58 be b3 ca f5 3e ef fd 46 3e c6 26 54 3f
       -0.21139368 0.4800621 0.19432805 0.82871664
000030 00 10 f6 bc bc f2 09 3f a9 23 a6 3e fe a9 c2 be
       -0.030036926 0.5388601 0.32449082 -0.3802032
000040 fb 46 b1 3c dd 0a 14 3f 07 99 d9 bd a8 f5 de 3d
       0.021640291 0.57829076 -0.10624891 0.10886699
000050 e0 6d 8d be eb dc bd 3e d5 c6 c6 be c6 b1 e2 3b
       -0.2762289 0.3708261 -0.38823572 0.006918165
000060 7d 4b be 3d 08 74 98 bd 9c 6b e9 3e 58 d3 76 bf
       0.09291742 -0.07444006 0.45589912 -0.96416235
000070 34 c1 57 3e 9b cd 04 3f 8b d1 81 3e 49 35 e7 3d
       0.21069795 0.5187623 0.2535518 0.1128946

activation/Relu;FusedBatchNormV3;ftr2/bias;ftr2/BiasAdd;ftr2/Conv2D f4 [64]
000000 de 62 d2 3e 87 0e 58 3e d4 5c 30 3e 24 d8 45 bd
       0.41091055 0.21099292 0.17222911 -0.04830183
000010 a3 42 0c 3f d6 c2 b7 3d 5c bb d2 3e 39 9e a5 3e
       0.5478918 0.08972709 0.4115857 0.32347277
000020 75 bd b8 be 28 cd 62 3e 5e 4e 91 be 91 e6 4e 3e
       -0.36082044 0.22148573 -0.28380102 0.20205142
000030 2a 0b f8 bd ee 54 61 3e 68 44 f8 bd 17 a8 87 3e
       -0.121115044 0.22005054 -0.121224225 0.2649543
000040 95 ba 83 bd 95 81 8a 3e b0 bd bd bc 35 24 5f 3e
       -0.06432072 0.27051988 -0.02316174 0.21791156
000050 c5 50 a5 3e e7 70 23 3f d1 3c 35 be 42 c9 0f 3e
       0.32288185 0.6384415 -0.17698981 0.14041618
000060 bd c7 0d 3f 73 53 02 3f 6d aa bf 3e 5f c3 3f be
       0.553829 0.50908583 0.37434712 -0.18726872
000070 4d 08 46 be 9f e4 c5 3b f1 6d f0 3d 43 f9 7e 3e
       -0.19339104 0.0060392166 0.1173972 0.24899773
000080 f1 30 d0 3c 0d 0c 79 bc fe 4e 8e 3e 87 7e 08 3f
       0.025413962 -0.015200627 0.2779464 0.53318065
000090 e7 00 cd 3e 14 e1 fd bd 43 00 2d 3e c2 de 98 3d
       0.4003975 -0.12396446 0.16894631 0.07464363
0000a0 49 10 c9 3e cd db 99 3e fd f8 2a 3e df e1 eb 3d
       0.39270237 0.30050507 0.16696544 0.11517691
0000b0 66 ee e3 3e 30 28 8c 3c 77 34 17 3e 9a 37 f2 3d
       0.4451782 0.017109007 0.14766107 0.118270114
0000c0 52 c1 99 3e 3f f8 18 3e cb 7f e0 3d 66 5a 08 3f
       0.30030304 0.14938448 0.109618746 0.5326294
0000d0 a5 e3 fa 3e a2 1f b0 bd b2 da 8c 3d 61 94 80 be
       0.49001804 -0.085997835 0.0687765 -0.25113204
0000e0 d6 be 78 be db 9f 3a 3e 5a 60 51 3f e8 f4 e2 3e
       -0.24291548 0.18225043 0.81787646 0.44327474
0000f0 a6 77 07 bd c5 fe 89 3c cd db 26 3e 9b e4 02 3f
       -0.03307309 0.016845116 0.16294785 0.51130074

ftr0/Conv2D f4 [32, 5, 5, 3]
000000 6b 0f f6 3c 46 3b 0c bb 6b 50 b4 bd 7e fa f3 3e
       0.030036649 -0.0021397634 -0.08804401 0.47652048
000010 99 c0 d6 3e e0 bb 30 3f c4 1e ef 3d bc c7 db 3e
       0.41943815 0.69036674 0.1167579 0.42925823
000020 62 4a d9 3d e0 ef dc be 49 2a 17 bf 37 c2 25 bf
       0.106098905 -0.4315176 -0.590489 -0.64749473
000030 d7 d8 ab be ec 0e 21 be c0 55 8b be f4 49 06 3f
       -0.33563873 -0.15728348 -0.2721386 0.52456594
000040 6f e8 8a 3e d0 55 c5 3e e7 3a 2f 3e a3 e9 af 3e
       0.27130458 0.38542032 0.17112313 0.34357938
000050 2e 1d fc bd a3 ad 7a bf 8e 85 41 bf b5 dd 84 bf
       -0.12310253 -0.979212 -0.75594413 -1.038016
000060 9a 18 bb be 10 30 4b bf 50 93 50 bf ee 3d 0d 3f
       -0.36542207 -0.7937021 -0.8147478 0.5517262
000070 10 0e a5 3e ce cc 41 3e 35 4f e3 3b 6b 8c 73 3e
       0.3223729 0.18925783 0.0069369324 0.23784034
000080 69 60 bf bd c3 78 54 bf 3a 43 48 bf 30 d3 5f bf
       -0.09344561 -0.8299677 -0.7822758 -0.8743162
000090 20 a0 06 bf 4f ad 45 bf 4d 59 4c bf b6 1e 4c 3f
       -0.5258808 -0.7721757 -0.7982376 0.7973436
0000a0 f0 ef 67 3f 8d 55 3a 3f 6f 49 16 3f e4 d1 f9 3e
       0.9060049 0.7278679 0.587058 0.48792946
0000b0 b1 ca cb 3e 86 d0 0e bf d2 28 20 bf 4b 4c 12 bf
       0.3980308 -0.5578693 -0.62562287 -0.57147664
0000c0 bf f6 a3 be 6f f5 04 bf 2f fe f3 be c1 bb 82 3f
       -0.3202419 -0.51937 -0.47654864 1.0213548
0000d0 c6 c9 68 3f 0e 1b 54 3f 7c 2d 5a 3f a8 24 02 3f
       0.9093288 0.8285378 0.85225654 0.50837183
0000e0 72 54 3b 3f 75 f1 d5 be 16 d4 b9 be 84 b4 9b bd
       0.7317573 -0.4178578 -0.3629462 -0.0760279
0000f0 d5 17 2f 3d ba 03 aa 3d 0a 11 09 3e 0b b3 5d 3f
       0.042747337 0.08301492 0.13385406 0.8660132
000100 34 4c 21 3f 21 7d 2b 3f 8d 45 97 3e 4e 02 3b 3e
       0.630069 0.66987807 0.2954525 0.18262598
000110 4f 25 e9 3e 1d 43 1e bf cb 1e cb be 4e c4 8f be
       0.45536277 -0.61821157 -0.3967193 -0.28079456
000120 04 00 d7 be 9b 73 ad bc 4c 12 b6 3e 63 39 11 3e
       -0.419922 -0.021173289 0.35560834 0.14182048
000130 22 f1 23 3d 7e 8f a9 3d fa df 89 3e 08 ca 6b 3e
       0.040024884 0.08279322 0.26928693 0.23026288
000140 d2 a9 df 3d 45 64 77 3e 5a a4 01 3e e4 c2 d5 3d
       0.109210625 0.24159344 0.12660351 0.10437563
000150 1d 95 c2 3d 89 63 ac 3d db 80 ab 3d 7b 3c b0 3d
       0.09501097 0.08417422 0.083741866 0.08605286
000160 c2 2b 82 3d f2 5f bc 3c 46 3d 09 3e f3 fd 01 3e
       0.063560024 0.022994969 0.1340228 0.1269453
000170 13 a3 ef 3d 50 31 86 3e f4 3d 49 3e 1a e7 09 3e
       0.11701026 0.26209497 0.1965254 0.13467064
000180 e9 91 4e 3e c1 e4 b9 3d 10 70 e0 3d a7 56 53 3d
       0.20172848 0.090768345 0.10958874 0.05159631
000190 93 e8 8b 3d c2 a7 b9 3d db 21 a2 3d b3 52 21 3c
       0.068314694 0.090652004 0.07916614 0.009846377
0001a0 ca 17 64 3d c5 8f 8f bc 0e 51 e2 bd f8 8f ce bc
       0.05568675 -0.01752461 -0.11050616 -0.025215134
0001b0 3c fe 05 3d 5f 66 76 bb 01 88 94 bd 00 bb 91 bd
       0.03271316 -0.003759764 -0.07252503 -0.071157455
0001c0 15 8f c1 bd 8d d1 e1 bd e5 ed b8 bd 0e 99 77 bd
       -0.09451119 -0.11026297 -0.0902975 -0.0604487
0001d0 a6 c5 fd bc 98 c8 ef bd 6a 6d 71 bb 56 b9 b3 3b
       -0.030978035 -0.11708182 -0.0036838898 0.0054847402
0001e0 5e 8d 9e bd 23 f4 4d bd 69 ca 1b bd 23 3e b2 3b
       -0.077418074 -0.050281655 -0.03803483 0.005439536
0001f0 04 fe d4 bc b3 93 86 3d d3 df c6 bd bd 79 03 be
       -0.02600003 0.0657114 -0.0971066 -0.12839408
000200 26 4a 63 bc fc a7 c8 bd 60 c7 5d bd 0d 22 8e bc
       -0.013872659 -0.097976655 -0.054145217 -0.017350221
000210 af c9 77 bd c5 8d 38 bd 0f f4 eb 3d f1 ad 4a be
       -0.060495075 -0.045057077 0.1152116 -0.19792916
000220 71 87 48 be 88 3d 29 be f0 ca 47 be 8e fb f5 bd
       -0.19582917 -0.16527379 -0.19511008 -0.12010871
000230 f6 18 1c be 19 4c 8a be c3 71 7c be 4e 5f 56 be
       -0.15243897 -0.27011183 -0.24652772 -0.20934793
000240 c8 ba 63 be fd be 14 be d9 fd b0 bd 61 63 1d be
       -0.2223922 -0.14525981 -0.086421676 -0.15369941
000250 7e 31 00 be 0b 7d ab 3c 06 a8 8f 3d 2d b1 0f 3e
       -0.1251888 0.020933649 0.0701447 0.14032431
000260 09 d9 88 3d 11 70 e1 3b 4c 6d eb 3d 37 c0 4f 3d
       0.06682021 0.0068798144 0.11495456 0.05072042
000270 2b ad 27 be 1b 94 a6 bd de 64 21 bd 5f c7 ae be
       -0.16374652 -0.081337176 -0.039402835 -0.34136483
000280 06 2c eb bd 14 51 d7 bd d3 30 21 be 7f d4 b5 bd
       -0.11483006 -0.10513511 -0.15741281 -0.08878421
000290 b4 1b 4d bd fc 53 7f be 1c 57 39 be d3 18 d3 3c
       -0.050075248 -0.24934381 -0.18099636 0.025768673
0002a0 03 55 89 be e2 6b 1f be b4 bc c3 3d 1d 6f cf be
       -0.2682267 -0.15568498 0.09557477 -0.4051446
0002b0 05 15 8e be 7f 78 46 3d c9 8a d1 be 20 43 7e be
       -0.27750412 0.048454758 -0.40926197 -0.24830294
0002c0 2a 64 65 bd 68 9f 84 be ef 26 58 be 07 f1 77 bd
       -0.056003727 -0.25902867 -0.21108602 -0.060532596
0002d0 3d 61 17 be b0 3c 36 be a6 57 e5 bd 38 18 a3 bd
       -0.14783187 -0.17796588 -0.11198358 -0.07963604
0002e0 b7 31 c0 bd f0 1a 5d 3e b1 21 3c bd be df ca bc
       -0.09384482 0.21592307 -0.045930568 -0.024764892
0002f0 f1 75 44 3e 6d 2f aa ba cc 9c c2 3c aa 17 04 3e
       0.19185616 -0.0012984105 0.023756407 0.12899652
000300 24 e3 d4 bb 9a e8 05 bd 32 34 48 3d 0c 2e dc 3c
       -0.006496804 -0.03269253 0.048877902 0.026877426
000310 69 94 52 be 2c 7b c3 bd 0c 93 84 3e 8f 98 dc 3c
       -0.20564426 -0.095449775 0.25893438 0.026928214
000320 b3 fd 8f 3d 20 ab 91 3e e1 d0 cd 3d fc 6e 80 3e
       0.07030811 0.2845087 0.10049606 0.25084674
000330 c5 9d ba 3e 77 27 58 3e f9 b4 5d 3e 76 5a ca 3e
       0.36448494 0.21108805 0.21651067 0.3952214
000340 1e 50 19 3e 59 0e 13 3e 0d 13 fd 3d a4 69 43 be
       0.14971969 0.14360942 0.12357149 -0.19083267
000350 33 f9 11 be b5 03 9d 3e 97 42 9b bd e3 15 f3 bc
       -0.14255218 0.3066689 -0.075810604 -0.029673522
000360 c8 e4 d2 3e 7c 87 d8 3d 0d 8e c3 3c 4d a0 fd 3e
       0.4119017 0.105727166 0.023871446 0.49536362
000370 79 7c 22 3d 3a 4c 1c 3c 01 e7 d9 3e 1d 53 e2 3d
       0.039669488 0.009539658 0.42559054 0.11051009
000380 e5 1d 1d be 02 ca ae 3e 71 8b f0 3d a6 c8 7c 3e
       -0.15343435 0.34138495 0.11745346 0.24685916
000390 bd 0f 55 3f c7 bb 68 3f 93 f5 3a 3f af 91 c4 3e
       0.8322714 0.90911525 0.73030967 0.38392398
0003a0 2f 9c d4 3e 9d e5 ad 3e 3d 23 f2 3d ce ec 1c 3e
       0.4152541 0.33964244 0.118231274 0.15324709
0003b0 87 f7 f5 3c 3a 70 d7 39 75 b8 81 bd b8 26 05 be
       0.030025257 0.0004109161 -0.063340105 -0.13003051
0003c0 49 f4 08 bf e5 51 08 be e7 a8 af be b4 2b b8 be
       -0.5349775 -0.1331249 -0.3430855 -0.35970843
0003d0 3f 32 80 be a1 b1 4e be 2c f1 75 bd 87 f2 c7 3d
       -0.25038335 -0.20184948 -0.060044453 0.09763055
0003e0 37 bf 92 3e 83 15 b5 3b 8a 85 84 3e 9e bc 0a 3e
       0.2866151 0.005526246 0.25883132 0.13548514
0003f0 75 b2 ea 3c 5b 8a 59 bd e9 52 a6 bc 24 ad 40 bf
       0.028649548 -0.05311046 -0.020303207 -0.7526419

ftr1/Conv2D f4 [32, 5, 5, 32]
000000 5d aa e5 3d 45 37 9d bc b3 83 ac bc 88 cf c5 3a
       0.11214135 -0.019191394 -0.021058893 0.0015091756
000010 20 93 c5 3c 85 9a 66 bd 6a d8 b0 bc 4f 2f 28 3d
       0.024118006 -0.056299705 -0.02158757 0.041060742
000020 ca a0 e9 bc 2c 47 68 3b a9 f0 22 3c 18 e0 ff 3c
       -0.028519053 0.0035442812 0.009945073 0.031234786
000030 94 a1 ed 3c 73 59 3c 3c 6e 5f 0a 3d e2 81 3e bc
       0.02900771 0.011495936 0.033782415 -0.011627646
000040 9a 2a 9f 3b 9e 7b dd 3c 01 c0 9e 3d 30 0f 37 3c
       0.0048573734 0.027036484 0.077514656 0.011173055
000050 96 4b aa bd e7 89 74 3b 34 11 97 3d 4d b0 b6 3d
       -0.08315198 0.0037313642 0.07376328 0.089203455
000060 2e 2e d6 bb 69 be 17 3c 00 c6 4e 3d 59 92 12 3d
       -0.0065362668 0.009261706 0.050481796 0.0357841
000070 e1 ac f3 bc c0 e7 00 bd 4d 68 03 3d 2e 26 3c 3d
       -0.029745521 -0.031471014 0.03208189 0.04593485
000080 02 7c d6 3c f5 b8 da bb a8 d5 49 bd 4d ef 68 bc
       0.026182178 -0.0066748806 -0.049276024 -0.01421721
000090 f5 5e ab bb f3 bd 9f bc 95 33 1f bd f6 a4 9d 3d
       -0.0052298256 -0.019499755 -0.03886755 0.076974794
0000a0 e6 f2 28 bc 9d 2f e7 bc cb 66 29 3d b8 f9 20 3d
       -0.010311818 -0.028220946 0.041357797 0.03930065
0000b0 88 00 a1 bc b4 f6 a9 3c 82 75 8e 3d c5 16 9b bc
       -0.019653574 0.02074752 0.069560066 -0.018931756
0000c0 4b e5 c0 3a 91 79 15 bc 08 71 4e 3d 85 b6 ff 3c
       0.0014716772 -0.009123222 0.050400764 0.031214962
0000d0 04 17 1b bd d8 e3 ab bc 8f c2 c2 3c a7 19 6f 3d
       -0.037863746 -0.020982668 0.023774413 0.058374073
0000e0 70 a8 ad 3c 7e 8f 2a bc 92 c9 40 3c 6b f1 91 bb
       0.021198481 -0.010410188 0.011766808 -0.004453828
0000f0 e6 c8 0a bd 22 6c ac bd c7 a3 8e 3b 06 4a 6b 3d
       -0.033882998 -0.08419062 0.00435302 0.05744364
000100 ab ac 78 3d a2 16 c0 3c cd 26 b0 bc 30 ac d5 bc
       0.060711544 0.023448292 -0.021502877 -0.026083082
000110 05 3e 94 bc 8b 13 7e bc f7 58 17 bc d6 a5 19 3d
       -0.01809598 -0.015507589 -0.009237519 0.03751167
000120 49 2e a9 bc 52 4d 60 3c 66 e9 5e 3c 47 34 75 3d
       -0.020651953 0.01369031 0.013605451 0.05986431
000130 46 ac e4 bc 2a 12 fe bc 0f 05 df 3c 20 d4 8a 3c
       -0.027914178 -0.03101452 0.027224092 0.016946852
000140 2e 7c 6a bb 7b d0 15 bd a8 9c 9d bc 65 26 03 3c
       -0.0035779583 -0.036575776 -0.019239739 0.008004759
000150 c3 94 00 bd f7 b7 1f bd 76 a9 ff bc 6c 05 c5 3c
       -0.03139187 -0.038993802 -0.031208735 0.024050437
000160 54 89 79 bc ee 73 28 bd 96 6d 29 3d d6 db 8c 3b
       -0.0152304955 -0.041126184 0.041364275 0.0042986674
000170 22 31 ec bc de 89 4f bd 05 2b 5d 3d 7e 5c 52 bc
       -0.028832022 -0.05066859 0.053996105 -0.012839435
000180 5f 28 1d 3d fc e4 17 3b f7 68 0c 3c 3e 9a 5a 3c
       0.03836858 0.0023177257 0.008569947 0.013342438
000190 a2 0b b9 3b 6e 98 9d ba 51 33 1a bd bf 14 c4 bc
       0.0056471387 -0.0012023577 -0.037646595 -0.023935674
0001a0 71 b0 75 3b a9 3b fb 3a 75 5b 5f bc 04 c3 84 bc
       0.00374892 0.001916756 -0.013632645 -0.016206272
0001b0 0e 1d 80 bc bf 76 98 3c 18 9d ce bc 6b d0 a1 3c
       -0.015638854 0.01861131 -0.025221393 0.019752702
0001c0 13 e3 8a 3c 6d f3 58 3c c3 cc 08 bd 61 01 18 bc
       0.01695398 0.013241631 -0.0333984 -0.0092776725
0001d0 f3 fd 95 bc e5 e9 02 3d 4f 79 f6 3c b5 93 9d 3c
       -0.018309569 0.03196134 0.030087141 0.019235471
0001e0 21 a6 f0 bc ac a5 0b bd c8 d0 25 3d 20 e3 11 bc
       -0.029376091 -0.034093544 0.040482312 -0.0089042485
0001f0 3f ef a1 bc 37 de 59 bd 18 d6 60 bc 14 db 83 bd
       -0.019767402 -0.053190436 -0.013722919 -0.0643827
000200 77 c5 a0 bc f2 9e 63 bd 16 ac 26 bd 4f cf 8d bc
       -0.019625409 -0.055571504 -0.040691458 -0.017310767
000210 59 a6 84 3d 2d 1b 89 3c f6 9f a6 39 7b e3 aa bd
       0.06477041 0.016736591 0.00031781167 -0.0834417
000220 3c 75 26 3c e0 8c 36 bd 4b c2 65 3d fa 16 87 bd
       0.010159787 -0.044567943 0.056093495 -0.06596179
000230 c3 c9 a9 3c fb 7d 1a 3d 29 0d 11 bc 6d 18 3a 3c
       0.02072609 0.0377178 -0.008853235 0.011358363
000240 cb da 9c 3b 44 45 44 3c f6 52 06 3c 65 97 1b bc
       0.0047868243 0.011979405 0.00819849 -0.0094965445
000250 5a 7e b5 bc ef ba 8c 3c 4f 1c 36 bc 43 d3 23 3d
       -0.022154976 0.01717898 -0.011115148 0.039996397
000260 12 32 29 bc d4 4c 22 bd 10 ab 11 3d a4 03 96 3b
       -0.010326879 -0.03962405 0.03556353 0.0045780707
000270 c7 ed 79 3d e8 be 7e bd 92 27 db bc 1c 01 bc b9
       0.061017778 -0.06219378 -0.026752267 -0.0003585898
000280 6c 5d 80 3d 71 e0 0f bd 57 da 8f 3a 86 3d 32 bb
       0.06267819 -0.035126153 0.0010975105 -0.0027197315
000290 01 8d 47 bd 8a 2c e0 bc 10 b1 e3 bc 10 77 92 3c
       -0.048718456 -0.027364988 -0.02779439 0.017879039
0002a0 9a 39 5e bd db 43 ff bc d7 49 20 3c b1 8c 3a 3d
       -0.054254152 -0.031160286 0.00978323 0.04554433
0002b0 cb 73 c3 bb e6 66 0a bd e0 08 7b 3d a3 44 07 3d
       -0.0059647313 -0.033789538 0.06128776 0.03302444
0002c0 5b 96 38 3c e0 32 11 3c 6c 7c c7 3b 78 c5 7e 3c
       0.011266316 0.008862227 0.0060878303 0.01555001
0002d0 71 90 a2 bd ab 62 d2 bc ca 33 03 3b d0 3f 46 3d
       -0.07937706 -0.025681814 0.0020019882 0.0484007
0002e0 b6 3d a5 3c 7b d8 fa bb 4a 77 c1 3c c9 64 bc 3c
       0.020171028 -0.007655201 0.023616452 0.022997277
0002f0 40 9d 05 bd 02 3d 85 bd 53 07 80 3c af 9f 88 ba
       -0.03262067 -0.06505777 0.015628492 -0.0010423566
000300 da 6d bb 3d 3f aa 92 3c 70 b2 13 bd de b7 d4 bc
       0.09151812 0.017903445 -0.036058843 -0.025966581
000310 10 02 0c bd 03 da 14 3c 20 2c 17 bd ab 33 1e bb
       -0.034181654 0.009085181 -0.036907315 -0.0024139683
000320 28 d7 80 bc 6b e0 db 3b 67 9d 46 3d 10 56 5a 3d
       -0.015727594 0.0067101023 0.048489954 0.05330473
000330 28 96 9e bd 42 a5 32 bd 6f b0 d5 3d 88 3f 3b 3c
       -0.07743484 -0.043614633 0.10434043 0.011428721
000340 29 65 48 bd 55 ab 36 3c 1f 93 4c bc ab c6 a4 bc
       -0.0489246 0.011149247 -0.012486248 -0.020114264
000350 6b 4d 14 bd ea 00 ed bb 7c 71 12 bc 5e 78 27 3d
       -0.036206644 -0.007232775 -0.00893819 0.040886275
000360 50 72 60 bd 5b 2f 37 bc a4 3b 20 3d eb fd 53 3d
       -0.054796517 -0.011180724 0.039119378 0.051755827
000370 6a 19 05 3d 78 41 00 be 37 23 69 3c e0 6a 17 3c
       0.03249494 -0.12524974 0.014229587 0.00924179
000380 7f c3 a1 3c 13 11 fd 3c f8 6e 41 bd fc 6a 10 bd
       0.01974654 0.03089193 -0.04722497 -0.03525828
000390 b5 6a 82 bd 99 3a d3 3c 74 de 32 3d 53 4c 4c bd
       -0.06368009 0.025784777 0.04366918 -0.049877476
0003a0 e1 f7 68 bd d2 34 93 3b fa 3a 16 3d ba 88 6e 3d
       -0.05687702 0.0044923807 0.03667734 0.05823586
0003b0 68 a3 da bc 3f c7 fe bc 8b 61 62 3d c3 b3 11 bc
       -0.026689246 -0.031100867 0.055268805 -0.008892956
0003c0 5e 97 2b 3b 35 cd 4a bd 8f 06 1b bd 6e 4f b1 bc
       0.0026182751 -0.049512107 -0.03784805 -0.02164432
0003d0 93 37 5e 3a 51 9e 77 3c b1 2f 38 bd 47 36 6e bc
       0.0008476909 0.015113429 -0.044967357 -0.014539308
0003e0 59 89 9f bd e0 93 35 bd 92 45 5d 3c 48 40 b3 3c
       -0.07789869 -0.044330478 0.013505356 0.021881238
0003f0 eb ab 96 3b 86 f1 d5 bd 85 fe c5 3c cb 4b 0d bd
       0.004598131 -0.104464576 0.024169216 -0.03449611

ftr2/Conv2D f4 [64, 5, 5, 32]
000000 71 df a2 36 97 1e c3 3c d5 ba 4b bd 0e fe dc 3c
       4.8539882e-06 0.023818297 -0.049738724 0.026976611
000010 76 6d 34 3d 4d f3 2a bc c7 93 cc 3b 38 53 7b bd
       0.044049703 -0.010433984 0.0062432024 -0.06135866
000020 4e a4 49 bd 16 66 3c 3d 9c 7f ee ba fa c2 9c 3d
       -0.04922896 0.045995794 -0.001819599 0.07654376
000030 8b 71 90 bd 4e 4f 18 3d b8 3a 3a 3d 8e 5e 53 3b
       -0.070529066 0.037185006 0.045466155 0.0032252404
000040 9b 12 cf 3c 1e 2e a1 3d 7e ad 41 3d 2c e8 9c 3d
       0.025277426 0.07870124 0.047284596 0.07661471
000050 f6 fb e3 b8 b3 dc cf bd 9c 38 18 bd b2 8c d7 3b
       -0.00010871135 -0.10149517 -0.037163362 0.0065780515
000060 f7 8d 3c 3d f0 66 29 bd 06 c7 9a bd 78 c2 a3 bd
       0.046033826 -0.041357934 -0.07557492 -0.07996076
000070 74 c7 ba 3b 77 f2 82 3d 28 e7 31 bd 8d 52 e6 3c
       0.005700046 0.06393903 -0.04343334 0.028115535
000080 ab 65 54 bd 96 30 cd bc 42 5c 85 bd bb 66 c1 3c
       -0.05185477 -0.025047582 -0.065117374 0.023608556
000090 31 31 06 3d d9 0d ed 3c 88 b1 9a 3c f1 46 af bd
       0.032761756 0.028937267 0.018883482 -0.08558453
0000a0 2f 06 d5 bc f9 6c 88 bd 64 36 1e 3c 05 5d 14 3a
       -0.026003925 -0.0666141 0.009656522 0.0005659613
0000b0 10 f8 62 bd 93 d0 dc bc 3e 3c 9d 3c d8 66 af bc
       -0.055412352 -0.026954925 0.019193765 -0.021411344
0000c0 72 e0 8f bc 2c 06 1d 3d de 7e 25 3d f8 ad ca bc
       -0.017563079 0.038335964 0.040404193 -0.024741158
0000d0 3a a1 ea 3c d1 bc 55 bd 14 1b 85 bd 9f 1f 03 bd
       0.028641332 -0.052182022 -0.06499305 -0.032012578
0000e0 5a b3 0c 3c 3b b2 53 bc 65 fa 07 bd cd bc d2 bb
       0.008587683 -0.012920911 -0.03319778 -0.006431198
0000f0 16 b2 c8 bc 42 07 82 3d 3b 55 47 bd b9 73 3d bd
       -0.02449898 0.063490406 -0.048665266 -0.04625294
000100 14 02 4a bc 87 85 d8 3c ea cb 4d bd 7a 3e 85 bd
       -0.012329597 0.026430858 -0.050243296 -0.06506057
000110 5f 67 00 bd 34 d8 fc 3c 37 f1 1b 3d 19 84 5f bc
       -0.031348582 0.030864812 0.038071837 -0.013642334
000120 79 d9 08 bd 13 db 1d bd d7 1d 04 3d 40 6a d4 3c
       -0.033410523 -0.038539004 0.03225502 0.02592957
000130 16 3c de 3b 9a d9 0c bc fd 15 c7 3c 49 6d db bc
       0.006782065 -0.008596802 0.024302477 -0.02678551
000140 88 17 13 bd 61 1c d7 bb 62 c4 60 bc 3e 07 c1 3c
       -0.035911113 -0.0065646623 -0.013718696 0.023563024
000150 9d 26 b6 bc d5 8e 06 bd 5a 09 0d bd a6 d9 f8 bb
       -0.02223521 -0.03285106 -0.034432746 -0.007594305
000160 96 9c 51 bb 13 3c b9 bc 5b 7e 10 bd a0 4c 8e 3c
       -0.0031984202 -0.022611653 -0.035276752 0.017370522
000170 ae aa 24 bc dc 4a a4 3d c2 38 87 bc ea 88 ef 3a
       -0.010050459 0.08022091 -0.016506556 0.0018275056
000180 05 eb 05 3d 1e f0 57 bc 83 a9 ef bc bb bf 06 3d
       0.032694835 -0.013179807 -0.029255634 0.032897692
000190 07 12 87 3b 5d 58 4d 3c 5c d2 3f bd 36 89 d6 3c
       0.004122022 0.0125332745 -0.046831474 0.026188474
0001a0 8d bf fd bb 99 b0 89 bd 53 20 94 ba 71 e2 39 bc
       -0.007743782 -0.067231365 -0.0011301137 -0.011345492
0001b0 d1 a0 43 bd cc 84 bf bb e2 9c 7f 3d ae d8 e8 bc
       -0.04776079 -0.005844688 0.062405474 -0.028423633
0001c0 0c 15 5f bd d9 ca 38 bd ed f6 87 3c b0 c9 82 ba
       -0.05446343 -0.045115326 0.016597236 -0.000997832
0001d0 94 f2 5f bc c7 a0 f5 bc 72 43 53 bc 98 c7 4a bc
       -0.013668675 -0.029983891 -0.012894498 -0.012376688
0001e0 89 c3 d2 bd df ca cb bc 98 fc e1 bc 50 72 36 3b
       -0.102912016 -0.02487701 -0.027586266 0.0027839132
0001f0 da 7a 83 bc e5 51 a6 3d 2e 9f 0e ba 36 41 59 3d
       -0.016049791 0.08121089 -0.000544059 0.053040706
000200 ef 67 8c 3b ae 6b 2e 3a 43 8d a6 bc ae ae a6 38
       0.004284851 0.0006653619 -0.02033103 7.9480335e-05
000210 4d 2c 1b bc 6b f6 af bc 83 d1 00 bd 69 e9 81 bd
       -0.009471011 -0.021479806 -0.031449806 -0.063433476
000220 07 9d 39 bd 16 01 4c bd b3 14 d9 bc 60 89 a5 bd
       -0.04531577 -0.049805723 -0.026499128 -0.08082843
000230 e7 62 a4 3a d4 af fb bd bb ec c3 bd c6 15 5a bd
       0.0012541682 -0.12289396 -0.09566637 -0.05324342
000240 60 74 b1 bc fe 3f 4e bd 86 18 7e bd 5c 64 2d bd
       -0.021661937 -0.050353996 -0.062035106 -0.04233204
000250 78 ca 85 bc 1b 2c bc 3b 10 5a 90 bc 81 e3 1f 3d
       -0.016331896 0.0057425625 -0.01762107 0.039035324
000260 f3 c8 01 bd 6e ff c4 bb 42 7d 8b bd 4e 63 7b ba
       -0.03168578 -0.006011895 -0.068110004 -0.00095896877
000270 75 92 00 bd 45 0f aa 3b 26 dc c0 bc 7f 16 81 3d
       -0.031389672 0.0051898086 -0.023542475 0.06303119
000280 f0 7b 80 bd e8 15 07 3d 5c 3b b1 3d 5f 4a 82 3c
       -0.06273639 0.032979876 0.086539 0.015904604
000290 f1 f2 b5 bc 69 32 d9 3c 2c 8c 8b 3d 72 43 64 bd
       -0.02221057 0.026513295 0.06813845 -0.055728383
0002a0 a8 6c 96 bc fc 69 57 3c 8f 04 6a 3c 61 f8 70 ba
       -0.018362358 0.013147827 0.014283313 -0.0009192285
0002b0 72 f5 53 3d b0 07 57 bd cc 8c b2 3b bb d5 fe bc
       0.051747747 -0.052497566 0.005448913 -0.031107774
0002c0 ad c3 a1 bd a3 7e 70 bc d9 57 a7 3d a4 85 6a bd
       -0.0789865 -0.01467863 0.081710525 -0.057256356
0002d0 d5 82 35 bc 21 e8 05 bb 61 8a 3c bd f3 7d 51 bd
       -0.011078556 -0.002043255 -0.046030406 -0.051145505
0002e0 df 40 0c 3d 64 d3 17 3c 7f 17 0b 3c f9 d9 bc bc
       0.034241553 0.009266708 0.008489489 -0.023053156
0002f0 b4 5d 12 3d 01 3d d7 bc 7d c6 09 bd d1 3e a6 3d
       0.035733894 -0.026274206 -0.03363656 0.0811745
000300 37 78 7a 3c 13 25 31 bc e3 f4 5b 3d 1e d4 09 3d
       0.0152874505 -0.010812062 0.05370034 0.033649556
000310 9f 03 22 3c 29 7f c1 3c ab 1b 71 3d c7 dd 6d bd
       0.009888559 0.023620205 0.058864277 -0.05807283
000320 ed 6f 87 bd 2f 44 73 bd 45 4f 8d bb 64 68 9f 39
       -0.06613145 -0.059391197 -0.004312428 0.0003040462
000330 2a c8 81 3d 56 0d 11 bd 7d f7 93 bb 0b eb 9e 39
       0.063370064 -0.03541311 -0.004515587 0.0003031123
000340 ae cc c2 bd 47 ea d8 ba bd f8 24 3d e9 d9 4b bd
       -0.09511696 -0.0016549312 0.040276278 -0.049768362
000350 a0 d2 0f 3c 81 7b 37 bd 0b b2 96 3c a0 12 74 3d
       0.008778244 -0.044795517 0.018395444 0.059588075
000360 c1 d9 33 3c 9f e3 a5 3c cd b8 ff 3c cb 24 a2 ba
       0.01097721 0.02025014 0.03121605 -0.0012370584
000370 7b 83 ed 3c 1f 94 ee bc 16 25 1e bc b8 2d 93 3d
       0.028993359 -0.029123364 -0.009652397 0.071864545
000380 e1 8c 92 bb 0c 77 13 38 11 e6 2a bc 56 00 10 3c
       -0.0044723605 3.5158402e-05 -0.010430829 0.008789143
000390 4a 0f 79 3c 10 f4 52 3d 8c 49 a3 bc f2 ec a3 bd
       0.015201399 0.051502287 -0.01993253 -0.08004178
0003a0 2d c2 7d bb db 6d 00 bd 10 c7 e5 3c 9e 7c 1c 3b
       -0.0038720474 -0.031354766 0.028049022 0.0023877989
0003b0 f0 9f 2e 3d 7b 89 f6 bc db b7 c5 bc c4 a4 9b bd
       0.042632997 -0.030094853 -0.02413552 -0.07599786
0003c0 6c 61 5a bd bc 15 3c bc 42 9b 06 3d 0e 0e 2f bd
       -0.053315565 -0.011479791 0.03286291 -0.042738013
0003d0 8d 1c be 3c 19 9e d8 bb 95 07 3d bd de 5e 44 3c
       0.023206973 -0.0066106436 -0.04614981 0.011985509
0003e0 31 3e 2b 3d 13 31 ab bb 3f 96 a3 3c db 48 06 bd
       0.041807357 -0.005224356 0.019969104 -0.032784324
0003f0 77 1d 71 3c d0 6b 62 bd f6 f5 4b bd 8c ac 90 3d
       0.014716498 -0.0552786 -0.049795114 0.07064161
