tools/tflite/cifar10_q.tflite (tflite, 96848 bytes, 4 tensors)

sequential/ftr0/Conv2D i1 [32, 5, 5, 3]
4 0 -11 58 51 84 14 53
13 -53 -72 -79 -41 -19 -33 64
33 47 21 42 -15 -120 -92 -127
-45 -97 -100 68 39 23 1 29
-11 -102 -96 -107 -64 -94 -98 98
111 89 72 60 49 -68 -77 -70
-39 -64 -58 125 111 101 104 62
90 -51 -44 -9 5 10 16 106
77 82 36 22 56 -76 -49 -34
-51 -3 44 67 19 39 127 108
51 114 60 49 45 40 39 40
30 11 63 60 55 123 92 63
95 43 52 24 32 43 37 5
26 -8 -52 -12 15 -2 -34 -33
-44 -52 -42 -28 -15 -55 -2 3
-36 -24 -18 3 -12 31 -46 -60
-7 -46 -25 -8 -28 -21 54 -93
-92 -78 -92 -56 -72 -127 -116 -98
-105 -68 -41 -72 -59 10 18 36
17 2 29 13 -42 -21 -10 -88
-29 -27 -40 -23 -13 -64 -46 7
-69 -40 25 -104 -71 12 -105 -64
-14 -66 -54 -16 -38 -46 -29 -20
-24 55 -12 -6 49 0 6 33
-2 -8 13 7 -53 -24 66 7
18 73 26 64 93 54 56 101
38 37 32 -49 -37 79 -19 -8
106 27 6 127 10 2 109 28
-39 37 13 27 90 98 79 41
45 37 13 17 3 0 -7 -14
-58 -14 -37 -39 -27 -22 -6 11
31 1 28 15 3 -6 -2 -81
00000000: 0400 f53a 3354 0e35 0dcb b8b1 d7ed df40
00000010: 212f 152a f188 a481 d39f 9c44 2717 011d
00000020: f59a a095 c0a2 9e62 6f59 483c 31bc b3ba
00000030: d9c0 c67d 6f65 683e 5acd d4f7 050a 106a
00000040: 4d52 2416 38b4 cfde cdfd 2c43 1327 7f6c
00000050: 3372 3c31 2d28 2728 1e0b 3f3c 377b 5c3f
00000060: 5f2b 3418 202b 2505 1af8 ccf4 0ffe dedf
00000070: d4cc d6e4 f1c9 fe03 dce8 ee03 f41f d2c4
00000080: f9d2 e7f8 e4eb 36a3 a4b2 a4c8 b881 8c9e
00000090: 97bc d7b8 c50a 1224 1102 1d0d d6eb f6a8
000000a0: e3e5 d8e9 f3c0 d207 bbd8 1998 b90c 97c0
000000b0: f2be caf0 dad2 e3ec e837 f4fa 3100 0621
000000c0: fef8 0d07 cbe8 4207 1249 1a40 5d36 3865
000000d0: 2625 20cf db4f edf8 6a1b 067f 0a02 6d1c
000000e0: d925 0d1b 5a62 4f29 2d25 0d11 0300 f9f2
000000f0: c6f2 dbd9 e5ea fa0b 1f01 1c0f 03fa feaf

sequential/ftr1/Conv2D i1 [32, 5, 5, 32]
109 -19 -20 1 23 -55 -21 40
-28 3 10 30 28 11 33 -11
5 26 75 11 -81 4 71 86
-6 9 49 35 -29 -31 31 45
25 -6 -48 -14 -5 -19 -38 75
-10 -27 40 38 -19 20 67 -18
1 -9 49 30 -37 -20 23 57
21 -10 11 -4 -33 -82 4 56
59 23 -21 -25 -18 -15 -9 36
-20 13 13 58 -27 -30 26 16
-3 -35 -19 8 -30 -38 -30 23
-15 -40 40 4 -28 -49 52 -12
37 2 8 13 5 -1 -36 -23
4 2 -13 -16 -15 18 -24 19
16 13 -32 -9 -18 31 29 19
-28 -33 39 -9 -19 -52 -13 -62
-19 -54 -39 -17 63 16 0 -81
10 -43 54 -64 20 37 -9 11
5 12 8 -9 -21 17 -11 39
-10 -38 34 4 59 -60 -26 0
61 -34 1 -3 -47 -27 -27 17
-53 -30 9 44 -6 -33 59 32
11 9 6 15 -77 -25 2 47
20 -7 23 22 -32 -63 15 -1
89 17 -35 -25 -33 9 -36 -2
-15 7 47 52 -75 -42 101 11
-47 11 -12 -19 -35 -7 -9 40
-53 -11 38 50 31 -121 14 9
19 30 -46 -34 -62 25 42 -48
-55 4 36 56 -26 -30 54 -9
3 -48 -37 -21 1 15 -44 -14
-76 -43 13 21 4 -101 23 -33
00000000: 6ded ec01 17c9 eb28 e403 0a1e 1c0b 21f5
00000010: 051a 4b0b af04 4756 fa09 3123 e3e1 1f2d
00000020: 19fa d0f2 fbed da4b f6e5 2826 ed14 43ee
00000030: 01f7 311e dbec 1739 15f6 0bfc dfae 0438
00000040: 3b17 ebe7 eef1 f724 ec0d 0d3a e5e2 1a10
00000050: fddd ed08 e2da e217 f1d8 2804 e4cf 34f4
00000060: 2502 080d 05ff dce9 0402 f3f0 f112 e813
00000070: 100d e0f7 ee1f 1d13 e4df 27f7 edcc f3c2
00000080: edca d9ef 3f10 00af 0ad5 36c0 1425 f70b
00000090: 050c 08f7 eb11 f527 f6da 2204 3bc4 e600
000000a0: 3dde 01fd d1e5 e511 cbe2 092c fadf 3b20
000000b0: 0b09 060f b3e7 022f 14f9 1716 e0c1 0fff
000000c0: 5911 dde7 df09 dcfe f107 2f34 b5d6 650b
000000d0: d10b f4ed ddf9 f728 cbf5 2632 1f87 0e09
000000e0: 131e d2de c219 2ad0 c904 2438 e6e2 36f7
000000f0: 03d0 dbeb 010f d4f2 b4d5 0d15 049b 17df

sequential/ftr2/Conv2D i1 [64, 5, 5, 32]
0 21 -44 24 39 -9 6 -54
-43 41 -2 68 -62 33 40 3
22 69 42 68 0 -90 -33 6
41 -36 -67 -71 5 56 -38 25
-46 -22 -57 21 29 26 17 -75
-23 -59 9 0 -49 -24 17 -19
-15 34 36 -22 25 -46 -57 -28
8 -11 -29 -6 -22 56 -43 -41
-11 23 -44 -57 -28 27 34 -12
-29 -34 28 23 6 -8 21 -24
-32 -6 -12 21 -20 -29 -30 -7
-3 -20 -31 15 -9 71 -15 2
29 -12 -26 29 4 11 -41 23
-7 -59 -1 -10 -42 -5 55 -25
-48 -40 15 -1 -12 -26 -11 -11
-91 -22 -24 2 -14 72 0 47
4 1 -18 0 -8 -19 -28 -56
-40 -44 -23 -71 1 -108 -84 -47
-19 -44 -55 -37 -14 5 -16 34
-28 -5 -60 -1 -28 5 -21 56
-55 29 76 14 -20 23 60 -49
-16 12 13 -1 46 -46 5 -27
-70 -13 72 -51 -10 -2 -41 -45
30 8 7 -20 32 -23 -30 72
13 -10 47 30 9 21 52 -51
-58 -52 -4 0 56 -31 -4 0
-84 -1 36 -44 8 -40 16 53
10 18 28 -1 26 -26 -9 63
-4 0 -9 8 13 45 -18 -71
-3 -28 25 2 38 -27 -21 -67
-47 -10 29 -38 20 -6 -41 11
37 -5 18 -29 13 -49 -44 62
00000000: 0015 d418 27f7 06ca d529 fe44 c221 2803
00000010: 1645 2a44 00a6 df06 29dc bdb9 0538 da19
00000020: d2ea c715 1d1a 11b5 e9c5 0900 cfe8 11ed
00000030: f122 24ea 19d2 c7e4 08f5 e3fa ea38 d5d7
00000040: f517 d4c7 e41b 22f4 e3de 1c17 06f8 15e8
00000050: e0fa f415 ece3 e2f9 fdec e10f f747 f102
00000060: 1df4 e61d 040b d717 f9c5 fff6 d6fb 37e7
00000070: d0d8 0fff f4e6 f5f5 a5ea e802 f248 002f
00000080: 0401 ee00 f8ed e4c8 d8d4 e9b9 0194 acd1
00000090: edd4 c9db f205 f022 e4fb c4ff e405 eb38
000000a0: c91d 4c0e ec17 3ccf f00c 0dff 2ed2 05e5
000000b0: baf3 48cd f6fe d7d3 1e08 07ec 20e9 e248
000000c0: 0df6 2f1e 0915 34cd c6cc fc00 38e1 fc00
000000d0: acff 24d4 08d8 1035 0a12 1cff 1ae6 f73f
000000e0: fc00 f708 0d2d eeb9 fde4 1902 26e5 ebbd
000000f0: d1f6 1dda 14fa d70b 25fb 12e3 0dcf d43e

sequential/fc1/MatMul i1 [10, 1024] scale=0.008147511 zero_point=0
-0.2362778 0.21998279 0.0 -0.08962262 -0.28516287 0.27701536 0.11406515 -0.057032574
0.14665519 -0.5947683 0.16295022 -0.37478548 -0.13036017 -0.29331037 0.097770125 -0.10591764
0.008147511 0.33404794 0.19554025 0.13850768 -0.15480271 -0.34219545 -0.30145788 -0.14665519
0.16295022 -0.14665519 -0.35849047 0.14665519 0.21998279 -0.30145788 -0.13850768 -0.19554025
0.032590043 -0.10591764 -0.25257283 -0.17109773 -0.8391936 -0.382933 -0.07332759 0.17924523
0.0 -0.008147511 -0.12221266 0.057032574 0.048885062 -0.43996558 -0.08147511 -0.016295021
0.11406515 -0.032590043 0.048885062 0.15480271 0.13036017 -0.19554025 0.032590043 0.008147511
0.33404794 -0.040737554 -0.41552305 0.21183528 0.040737554 0.30145788 0.097770125 -0.5540307
-0.19554025 -0.19554025 0.032590043 -0.39922804 -0.5214407 0.08147511 0.097770125 -0.21183528
-0.21183528 -0.20368777 0.08147511 -0.28516287 -0.6110633 -0.21998279 0.08147511 -0.008147511
0.26072034 -0.10591764 0.11406515 0.048885062 0.0 -0.25257283 0.0 0.2281303
0.048885062 -0.11406515 -0.54588324 0.24442533 0.14665519 -0.20368777 -0.4644081 -0.048885062
-0.20368777 0.13850768 -0.17109773 -0.36663797 -0.71698093 -0.040737554 -0.024442531 0.25257283
-0.032590043 -0.13036017 -0.43996558 0.08147511 0.17109773 -0.33404794 -0.11406515 0.07332759
-0.26072034 -0.21183528 -0.30145788 0.08962262 0.2362778 -0.28516287 0.057032574 0.065180086
-0.024442531 -0.10591764 -0.097770125 -0.07332759 -0.12221266 -0.097770125 0.008147511 -0.48070315
-0.08147511 -0.31775293 -0.08962262 -0.097770125 -0.30960542 -0.26072034 0.13850768 -0.08147511
0.2362778 -0.24442533 0.048885062 0.057032574 -0.008147511 -0.21998279 0.13850768 -0.2362778
0.21183528 0.032590043 0.032590043 -0.13036017 0.016295021 -0.60291576 0.065180086 -0.10591764
-0.26072034 -0.26072034 -0.5214407 0.032590043 0.26886785 -0.13036017 -0.17109773 -0.16295022
-0.048885062 0.008147511 -0.13036017 -0.024442531 -0.71698093 -0.20368777 -0.008147511 -0.13036017
0.057032574 -0.10591764 0.0 -0.008147511 0.08962262 -0.17109773 -0.16295022 -0.08147511
0.13850768 -0.2281303 -0.24442533 0.21998279 0.08962262 -0.040737554 0.13850768 0.32590044
-0.065180086 -0.20368777 -0.20368777 -0.20368777 -0.2281303 -0.41552305 0.097770125 -0.74957097
-0.2362778 -0.4725556 -0.21183528 -0.44811308 -0.382933 -0.16295022 0.07332759 -0.35849047
-0.032590043 0.2362778 0.065180086 -0.42367056 -0.20368777 -0.6518009 -0.12221266 0.29331037
-0.08147511 0.016295021 0.057032574 -0.057032574 -0.19554025 -0.17109773 0.07332759 0.0
-0.49699816 -0.18739274 -0.6110633 0.16295022 0.0 -0.31775293 0.07332759 -0.21183528
0.2362778 -0.16295022 0.040737554 0.024442531 -0.48070315 0.21998279 -0.21998279 -0.3910805
-0.15480271 -0.07332759 -0.28516287 0.21183528 0.07332759 0.2362778 -0.29331037 -0.33404794
0.2281303 -0.15480271 -0.19554025 -0.048885062 -0.12221266 0.17109773 -0.008147511 0.14665519
-0.08147511 -0.13850768 -0.4644081 -0.30145788 0.12221266 -0.12221266 -0.20368777 -0.10591764
00000000: e31b 00f5 dd22 0ef9 12b7 14d2 f0dc 0cf3
00000010: 0129 1811 edd6 dbee 14ee d412 1bdb efe8
00000020: 04f3 e1eb 99d1 f716 00ff f107 06ca f6fe
00000030: 0efc 0613 10e8 0401 29fb cd1a 0525 0cbc
00000040: e8e8 04cf c00a 0ce6 e6e7 0add b5e5 0aff
00000050: 20f3 0e06 00e1 001c 06f2 bd1e 12e7 c7fa
00000060: e711 ebd3 a8fb fd1f fcf0 ca0a 15d7 f209
00000070: e0e6 db0b 1ddd 0708 fdf3 f4f7 f1f4 01c5
00000080: f6d9 f5f4 dae0 11f6 1de2 0607 ffe5 11e3
00000090: 1a04 04f0 02b6 08f3 e0e0 c004 21f0 ebec
000000a0: fa01 f0fd a8e7 fff0 07f3 00ff 0beb ecf6
000000b0: 11e4 e21b 0bfb 1128 f8e7 e7e7 e4cd 0ca4
000000c0: e3c6 e6c9 d1ec 09d4 fc1d 08cc e7b0 f124
000000d0: f602 07f9 e8eb 0900 c3e9 b514 00d9 09e6
000000e0: 1dec 0503 c51b e5d0 edf7 dd1a 091d dcd7
000000f0: 1ced e8fa f115 ff12 f6ef c7db 0ff1 e7f3
