tools/tflite/mbnet96_0.25_q.tflite (tflite, 588736 bytes, 28 tensors)

model/conv2d/Conv2D i1 [8, 3, 3, 3]
0	0xed	-19
1	0x03	3
2	0xff	-1
3	0xef	-17
4	0xe1	-31
5	0xf4	-12
6	0xe6	-26
7	0xf2	-14
8	0xfc	-4
9	0x11	17
10	0xfb	-5
11	0x00	0
12	0x0d	13
13	0xed	-19
14	0x04	4
15	0xc0	-64
16	0xb7	-73
17	0xff	-1
18	0x11	17
19	0x22	34
20	0x16	22
21	0x64	100
22	0x7f	127
23	0x17	23
24	0x23	35
25	0x12	18
26	0x01	1
27	0x09	9
28	0x0d	13
29	0x01	1
30	0xef	-17
31	0xef	-17
32	0x06	6
33	0x0a	10
34	0x0b	11
35	0x03	3
36	0xd8	-40
37	0xb1	-79
38	0xf7	-9
39	0x31	49
40	0x7f	127
41	0x14	20
42	0xe2	-30
43	0xc2	-62
44	0xf6	-10
45	0x03	3
46	0x13	19
47	0x06	6
48	0xfd	-3
49	0xea	-22
50	0xf6	-10
51	0x05	5
52	0x0e	14
53	0x07	7
54	0x15	21
55	0xf6	-10
56	0xf8	-8
57	0x4e	78
58	0xe6	-26
59	0xcc	-52
60	0x19	25
61	0xeb	-21
62	0xf6	-10
63	0x37	55
64	0xf3	-13
65	0xd4	-44
66	0x7f	127
67	0xe4	-28
68	0x94	-108
69	0x34	52
70	0xf9	-7
71	0xd2	-46
72	0x2c	44
73	0xf7	-9
74	0xd5	-43
75	0x42	66
76	0xf6	-10
77	0xc2	-62
78	0x12	18
79	0x04	4
80	0xec	-20
81	0xea	-22
82	0xee	-18
83	0x4e	78
84	0xbe	-66
85	0x06	6
86	0x30	48
87	0xe0	-32
88	0x26	38
89	0x69	105
90	0xce	-50
91	0x0c	12
92	0x40	64
93	0xc2	-62
94	0xfb	-5
95	0x55	85
96	0xfa	-6
97	0x27	39
98	0x67	103
99	0xef	-17
100	0xfd	-3
101	0x62	98
102	0xf0	-16
103	0x08	8
104	0x60	96
105	0xf9	-7
106	0x13	19
107	0x7f	127
108	0x20	32
109	0x48	72
110	0x0c	12
111	0x0e	14
112	0x0d	13
113	0xfd	-3
114	0xc8	-56
115	0x9f	-97
116	0xfc	-4
117	0x4b	75
118	0x63	99
119	0x15	21
120	0xeb	-21
121	0xe5	-27
122	0xf5	-11
123	0xa6	-90
124	0x81	-127
125	0xe2	-30
126	0x23	35
127	0x27	39
128	0x0c	12
129	0xf1	-15
130	0xe6	-26
131	0xf5	-11
132	0xda	-38
133	0xe3	-29
134	0xf1	-15
135	0x04	4
136	0xed	-19
137	0x0f	15
138	0x20	32
139	0xd1	-47
140	0x0e	14
141	0x01	1
142	0x0a	10
143	0xf4	-12
144	0x40	64
145	0xa6	-90
146	0x1b	27
147	0x49	73
148	0x81	-127
149	0x37	55
150	0x06	6
151	0xe3	-29
152	0x15	21
153	0x1f	31
154	0xbe	-66
155	0x23	35
156	0x26	38
157	0xad	-83
158	0x2f	47
159	0x17	23
160	0xde	-34
161	0x0a	10
162	0x6c	108
163	0x65	101
164	0x14	20
165	0x3b	59
166	0x39	57
167	0x01	1
168	0x37	55
169	0x3f	63
170	0xf6	-10
171	0x58	88
172	0x7f	127
173	0x21	33
174	0x58	88
175	0x64	100
176	0x0d	13
177	0x32	50
178	0x3c	60
179	0x01	1
180	0x42	66
181	0x58	88
182	0x12	18
183	0x3b	59
184	0x4d	77
185	0xf6	-10
186	0x29	41
187	0x3c	60
188	0xf9	-7
189	0x08	8
190	0xeb	-21
191	0xfa	-6
192	0xf3	-13
193	0xd5	-43
194	0x01	1
195	0xd2	-46
196	0xb6	-74
197	0xfc	-4
198	0x07	7
199	0x31	49
200	0x16	22
201	0x44	68
202	0x7f	127
203	0x0e	14
204	0x21	33
205	0x37	55
206	0x04	4
207	0xf2	-14
208	0xd9	-39
209	0xfb	-5
210	0xfa	-6
211	0xe2	-30
212	0xfd	-3
213	0xee	-18
214	0xe2	-30
215	0x01	1

model/batch_normalization_1/FusedBatchNormV3;model/depthwise_conv2d/depthwise i1 [1, 3, 3, 8]
0	0xbc	-68
1	0x7f	127
2	0xb3	-77
3	0x39	57
4	0x03	3
5	0xb0	-80
6	0x0d	13
7	0x25	37
8	0x7f	127
9	0x88	-120
10	0x7f	127
11	0x4c	76
12	0xde	-34
13	0x7f	127
14	0x91	-111
15	0xd7	-41
16	0xf0	-16
17	0xf8	-8
18	0xd6	-42
19	0x67	103
20	0x10	16
21	0xf5	-11
22	0x14	20
23	0x0b	11
24	0xf0	-16
25	0x83	-125
26	0xbd	-67
27	0x5e	94
28	0xd4	-44
29	0x09	9
30	0x4b	75
31	0x29	41
32	0xf9	-7
33	0x73	115
34	0x70	112
35	0x7f	127
36	0x81	-127
37	0xfc	-4
38	0x2d	45
39	0x81	-127
40	0x12	18
41	0x0d	13
42	0x23	35
43	0x52	82
44	0x48	72
45	0xfa	-6
46	0x37	55
47	0xe8	-24
48	0x10	16
49	0xfe	-2
50	0x2c	44
51	0xb4	-76
52	0x18	24
53	0x07	7
54	0x15	21
55	0x0f	15
56	0xdf	-33
57	0x06	6
58	0xa2	-94
59	0xe9	-23
60	0x0f	15
61	0xe7	-25
62	0x7f	127
63	0x3d	61
64	0xf7	-9
65	0xfc	-4
66	0xf4	-12
67	0x23	35
68	0x00	0
69	0x07	7
70	0x35	53
71	0x11	17

model/conv2d_1/Conv2D i1 [16, 1, 1, 8]
0	0x04	4
1	0x7f	127
2	0xff	-1
3	0xfe	-2
4	0x00	0
5	0xfe	-2
6	0x04	4
7	0x00	0
8	0xf5	-11
9	0x00	0
10	0x7f	127
11	0xf9	-7
12	0xf3	-13
13	0x0a	10
14	0x01	1
15	0x06	6
16	0x7f	127
17	0x03	3
18	0xec	-20
19	0x0c	12
20	0x48	72
21	0xfb	-5
22	0x02	2
23	0xc9	-55
24	0x81	-127
25	0x6c	108
26	0xfe	-2
27	0xff	-1
28	0xf1	-15
29	0xfd	-3
30	0x08	8
31	0xe9	-23
32	0x1f	31
33	0xf7	-9
34	0xfe	-2
35	0x0a	10
36	0x81	-127
37	0xfc	-4
38	0xfa	-6
39	0xea	-22
40	0x9b	-101
41	0xe7	-25
42	0x09	9
43	0x00	0
44	0x81	-127
45	0x0a	10
46	0x05	5
47	0x51	81
48	0xf9	-7
49	0x03	3
50	0x81	-127
51	0x01	1
52	0xfa	-6
53	0x08	8
54	0xff	-1
55	0x02	2
56	0xff	-1
57	0x01	1
58	0x0e	14
59	0xfb	-5
60	0x01	1
61	0x7f	127
62	0xf9	-7
63	0x01	1
64	0x02	2
65	0x03	3
66	0x7f	127
67	0xfb	-5
68	0xff	-1
69	0xf0	-16
70	0xfc	-4
71	0x01	1
72	0xe7	-25
73	0x06	6
74	0xff	-1
75	0xfe	-2
76	0x7f	127
77	0x01	1
78	0xfc	-4
79	0x2d	45
80	0x8c	-116
81	0xd2	-46
82	0xfe	-2
83	0xf3	-13
84	0x1e	30
85	0x05	5
86	0xfc	-4
87	0x7f	127
88	0xf8	-8
89	0xf9	-7
90	0x51	81
91	0x02	2
92	0x03	3
93	0x7f	127
94	0x12	18
95	0x04	4
96	0x56	86
97	0xfc	-4
98	0xfe	-2
99	0x00	0
100	0xf9	-7
101	0x03	3
102	0x04	4
103	0x7f	127
104	0x7d	125
105	0x0d	13
106	0x1b	27
107	0x02	2
108	0x7f	127
109	0xe3	-29
110	0x13	19
111	0xd7	-41
112	0xfe	-2
113	0x01	1
114	0x1a	26
115	0xfd	-3
116	0xfb	-5
117	0x81	-127
118	0x00	0
119	0x00	0
120	0x0a	10
121	0xfc	-4
122	0x7f	127
123	0xf8	-8
124	0x0b	11
125	0xd6	-42
126	0xf7	-9
127	0xf6	-10

model/batch_normalization_3/FusedBatchNormV3;model/depthwise_conv2d_1/depthwise i1 [1, 3, 3, 16]
0	0xe4	-28
1	0xf3	-13
2	0xdc	-36
3	0xdf	-33
4	0xc7	-57
5	0xee	-18
6	0x26	38
7	0x03	3
8	0x25	37
9	0xd1	-47
10	0xd5	-43
11	0xd2	-46
12	0x2e	46
13	0xe7	-25
14	0xfa	-6
15	0xfc	-4
16	0xc3	-61
17	0x81	-127
18	0xb7	-73
19	0xb8	-72
20	0x89	-119
21	0xa2	-94
22	0x45	69
23	0x2e	46
24	0x48	72
25	0x9c	-100
26	0xbb	-69
27	0xf5	-11
28	0x5b	91
29	0x4b	75
30	0x13	19
31	0xbb	-69
32	0xd3	-45
33	0x0c	12
34	0xcb	-53
35	0xca	-54
36	0xc5	-59
37	0xac	-84
38	0x2f	47
39	0x2e	46
40	0x2d	45
41	0xc4	-60
42	0xd4	-44
43	0x1c	28
44	0x39	57
45	0x68	104
46	0x13	19
47	0xc4	-60
48	0xc7	-57
49	0x90	-112
50	0xac	-84
51	0xb8	-72
52	0xa0	-96
53	0xca	-54
54	0x45	69
55	0x2e	46
56	0x34	52
57	0xad	-83
58	0xb0	-80
59	0xad	-83
60	0x4e	78
61	0x8d	-115
62	0x39	57
63	0xb9	-71
64	0x81	-127
65	0xfe	-2
66	0x81	-127
67	0x81	-127
68	0x81	-127
69	0x81	-127
70	0x7f	127
71	0x7f	127
72	0x7f	127
73	0x81	-127
74	0x81	-127
75	0xc9	-55
76	0x7f	127
77	0xe2	-30
78	0x7a	122
79	0x81	-127
80	0xa6	-90
81	0x7f	127
82	0xc9	-55
83	0xaf	-81
84	0xcc	-52
85	0xb0	-80
86	0x4e	78
87	0x65	101
88	0x53	83
89	0xc2	-62
90	0xc9	-55
91	0xda	-38
92	0x42	66
93	0x3b	59
94	0x53	83
95	0xc4	-60
96	0xdc	-36
97	0xe5	-27
98	0xbc	-68
99	0xd3	-45
100	0xd5	-43
101	0xe7	-25
102	0x2a	42
103	0x07	7
104	0x21	33
105	0xdd	-35
106	0xda	-38
107	0x81	-127
108	0x19	25
109	0x81	-127
110	0x48	72
111	0xbd	-67
112	0xb0	-80
113	0x75	117
114	0xbd	-67
115	0xb8	-72
116	0xcf	-49
117	0xd5	-43
118	0x4d	77
119	0x5d	93
120	0x40	64
121	0xda	-38
122	0xc7	-57
123	0x91	-111
124	0x2b	43
125	0xb1	-79
126	0x7f	127
127	0xc0	-64
128	0xc8	-56
129	0x04	4
130	0xfa	-6
131	0xda	-38
132	0xf6	-10
133	0xee	-18
134	0x2a	42
135	0x69	105
136	0x26	38
137	0xfd	-3
138	0xf2	-14
139	0xc6	-58
140	0x0f	15
141	0x15	21
142	0x35	53
143	0x0a	10

model/conv2d_2/Conv2D i1 [32, 1, 1, 16]
0	0x11	17
1	0xfd	-3
2	0x7f	127
3	0x55	85
4	0x34	52
5	0x0d	13
6	0x01	1
7	0xd7	-41
8	0xd9	-39
9	0x0f	15
10	0x31	49
11	0x06	6
12	0xd3	-45
13	0xdb	-37
14	0xc9	-55
15	0x29	41
16	0x12	18
17	0xf5	-11
18	0xfd	-3
19	0x3f	63
20	0xe5	-27
21	0x32	50
22	0xf2	-14
23	0xfe	-2
24	0x09	9
25	0xcb	-53
26	0x1a	26
27	0x13	19
28	0xe5	-27
29	0x81	-127
30	0xf7	-9
31	0xf3	-13
32	0xef	-17
33	0x05	5
34	0x01	1
35	0x08	8
36	0xfd	-3
37	0x24	36
38	0x7f	127
39	0xd1	-47
40	0x97	-105
41	0x13	19
42	0xfa	-6
43	0x32	50
44	0x11	17
45	0xff	-1
46	0x15	21
47	0xee	-18
48	0xb3	-77
49	0xfc	-4
50	0x25	37
51	0x81	-127
52	0xdb	-37
53	0x7f	127
54	0x4c	76
55	0x21	33
56	0x02	2
57	0x14	20
58	0x0a	10
59	0xc7	-57
60	0x6d	109
61	0xce	-50
62	0x0f	15
63	0xe2	-30
64	0x1d	29
65	0x0a	10
66	0xa4	-92
67	0x1b	27
68	0xa1	-95
69	0x81	-127
70	0xd9	-39
71	0xf0	-16
72	0xff	-1
73	0xc3	-61
74	0xc9	-55
75	0x0f	15
76	0x9b	-101
77	0x1e	30
78	0x06	6
79	0x07	7
80	0xe7	-25
81	0x1c	28
82	0x07	7
83	0xe6	-26
84	0xf0	-16
85	0x81	-127
86	0x65	101
87	0x37	55
88	0x3d	61
89	0x84	-124
90	0xe3	-29
91	0xd4	-44
92	0xb0	-80
93	0x0e	14
94	0xf1	-15
95	0xde	-34
96	0x03	3
97	0x0b	11
98	0xf2	-14
99	0x00	0
100	0xf2	-14
101	0xc7	-57
102	0xfa	-6
103	0x36	54
104	0x7f	127
105	0x00	0
106	0x17	23
107	0xd9	-39
108	0xf6	-10
109	0x04	4
110	0xa9	-87
111	0x0a	10
112	0x0b	11
113	0x07	7
114	0x39	57
115	0x21	33
116	0x4c	76
117	0xa5	-91
118	0x0c	12
119	0xfb	-5
120	0xfe	-2
121	0x8a	-118
122	0xec	-20
123	0x00	0
124	0x7f	127
125	0x00	0
126	0x0b	11
127	0x03	3
128	0x04	4
129	0x01	1
130	0x40	64
131	0xea	-22
132	0x21	33
133	0x81	-127
134	0xd0	-48
135	0xcb	-53
136	0x19	25
137	0x30	48
138	0xf3	-13
139	0x17	23
140	0xea	-22
141	0x10	16
142	0x02	2
143	0x00	0
144	0x04	4
145	0x0d	13
146	0x0c	12
147	0xf3	-13
148	0xf3	-13
149	0x83	-125
150	0xb0	-80
151	0xff	-1
152	0x7f	127
153	0x24	36
154	0xea	-22
155	0xfc	-4
156	0xeb	-21
157	0xf9	-7
158	0xfa	-6
159	0xef	-17
160	0xdb	-37
161	0x0a	10
162	0xe0	-32
163	0xcd	-51
164	0xe5	-27
165	0xe4	-28
166	0xc2	-62
167	0xc0	-64
168	0xff	-1
169	0x16	22
170	0xef	-17
171	0xcd	-51
172	0x0d	13
173	0x09	9
174	0x81	-127
175	0x32	50
176	0xf8	-8
177	0x05	5
178	0x04	4
179	0x17	23
180	0x2c	44
181	0x28	40
182	0x0c	12
183	0xf6	-10
184	0xfd	-3
185	0x81	-127
186	0x0a	10
187	0xf2	-14
188	0xe8	-24
189	0x0e	14
190	0x01	1
191	0x05	5
192	0xfc	-4
193	0xfb	-5
194	0x01	1
195	0xff	-1
196	0x04	4
197	0xf7	-9
198	0xeb	-21
199	0xa7	-89
200	0x0e	14
201	0xf9	-7
202	0x00	0
203	0x17	23
204	0xfe	-2
205	0x03	3
206	0x7f	127
207	0xe8	-24
208	0xfb	-5
209	0x01	1
210	0xf6	-10
211	0x13	19
212	0x0d	13
213	0x53	83
214	0xb7	-73
215	0xf5	-11
216	0x7f	127
217	0xf2	-14
218	0x0a	10
219	0xfe	-2
220	0x19	25
221	0xf9	-7
222	0x17	23
223	0xf0	-16
224	0xe0	-32
225	0xf2	-14
226	0x74	116
227	0xc2	-62
228	0xa7	-89
229	0x81	-127
230	0xfa	-6
231	0x13	19
232	0x73	115
233	0x3c	60
234	0x10	16
235	0xe9	-23
236	0xed	-19
237	0x21	33
238	0xf0	-16
239	0xf0	-16
240	0x0c	12
241	0xfa	-6
242	0x7f	127
243	0x0c	12
244	0xd9	-39
245	0x13	19
246	0x11	17
247	0x07	7
248	0xec	-20
249	0x01	1
250	0x09	9
251	0x00	0
252	0xf3	-13
253	0x2e	46
254	0x05	5
255	0x0f	15

model/batch_normalization_5/FusedBatchNormV3;model/depthwise_conv2d_2/depthwise;model/depthwise_conv2d_3/depthwise i1 [1, 3, 3, 32]
0	0xf9	-7
1	0xcf	-49
2	0x17	23
3	0xee	-18
4	0x02	2
5	0xed	-19
6	0x25	37
7	0xfa	-6
8	0x12	18
9	0x04	4
10	0xe7	-25
11	0x06	6
12	0xf0	-16
13	0x2a	42
14	0xe4	-28
15	0xef	-17
16	0x01	1
17	0x0c	12
18	0xee	-18
19	0x03	3
20	0x28	40
21	0xef	-17
22	0xfb	-5
23	0xfe	-2
24	0xcf	-49
25	0xe2	-30
26	0xf3	-13
27	0xf4	-12
28	0xee	-18
29	0xf2	-14
30	0x0f	15
31	0xee	-18
32	0xf9	-7
33	0xa0	-96
34	0xdf	-33
35	0xfe	-2
36	0xb5	-75
37	0x2b	43
38	0xfe	-2
39	0x57	87
40	0xcb	-53
41	0xfb	-5
42	0x01	1
43	0x29	41
44	0xd0	-48
45	0x66	102
46	0x0e	14
47	0x9c	-100
48	0xeb	-21
49	0x81	-127
50	0xd5	-43
51	0xca	-54
52	0xc9	-55
53	0xe9	-23
54	0xbe	-66
55	0x3b	59
56	0xcc	-52
57	0x7d	125
58	0x27	39
59	0xc1	-63
60	0xca	-54
61	0xd5	-43
62	0xb1	-79
63	0xfc	-4
64	0xf2	-14
65	0x77	119
66	0xc0	-64
67	0x03	3
68	0x13	19
69	0xf2	-14
70	0x31	49
71	0x49	73
72	0x1e	30
73	0x00	0
74	0xec	-20
75	0x2a	42
76	0x07	7
77	0x06	6
78	0x07	7
79	0x6d	109
80	0x0c	12
81	0x37	55
82	0xea	-22
83	0xf1	-15
84	0x05	5
85	0xfe	-2
86	0x0a	10
87	0xd0	-48
88	0xf6	-10
89	0xbf	-65
90	0x3e	62
91	0xec	-20
92	0x0c	12
93	0x0b	11
94	0x03	3
95	0x0b	11
96	0xdc	-36
97	0x23	35
98	0x1e	30
99	0xec	-20
100	0x04	4
101	0xe2	-30
102	0x81	-127
103	0x51	81
104	0x34	52
105	0x7f	127
106	0x0b	11
107	0x96	-106
108	0x1e	30
109	0xcc	-52
110	0x33	51
111	0x09	9
112	0x13	19
113	0xa8	-88
114	0x39	57
115	0xf1	-15
116	0xde	-34
117	0x30	48
118	0xc6	-58
119	0xfe	-2
120	0x34	52
121	0xaa	-86
122	0x16	22
123	0xf4	-12
124	0x22	34
125	0x1f	31
126	0x81	-127
127	0xf2	-14
128	0x7f	127
129	0xd2	-46
130	0x7f	127
131	0x7f	127
132	0x81	-127
133	0x7f	127
134	0xb1	-79
135	0x78	120
136	0x81	-127
137	0x99	-103
138	0x7f	127
139	0x81	-127
140	0x7f	127
141	0x81	-127
142	0x7f	127
143	0xde	-34
144	0x7f	127
145	0xcf	-49
146	0x7f	127
147	0x81	-127
148	0x81	-127
149	0x7f	127
150	0x81	-127
151	0x7f	127
152	0x7f	127
153	0xe7	-25
154	0x7f	127
155	0x81	-127
156	0x7f	127
157	0x7f	127
158	0xd6	-42
159	0x7f	127
160	0xf9	-7
161	0x81	-127
162	0xed	-19
163	0x05	5
164	0xfc	-4
165	0xd9	-39
166	0x98	-104
167	0x28	40
168	0x50	80
169	0xdb	-37
170	0x32	50
171	0x92	-110
172	0xeb	-21
173	0x07	7
174	0xf4	-12
175	0x81	-127
176	0x11	17
177	0x82	-126
178	0xf3	-13
179	0xd9	-39
180	0xf0	-16
181	0x04	4
182	0xf0	-16
183	0x86	-122
184	0xc6	-58
185	0x7f	127
186	0xf9	-7
187	0xee	-18
188	0xdd	-35
189	0xc8	-56
190	0xeb	-21
191	0x06	6
192	0x05	5
193	0xf0	-16
194	0xc5	-59
195	0xfd	-3
196	0xfb	-5
197	0xe9	-23
198	0x01	1
199	0xa9	-87
200	0xfa	-6
201	0x8a	-118
202	0xf6	-10
203	0x24	36
204	0xf9	-7
205	0x04	4
206	0x03	3
207	0xfb	-5
208	0xe0	-32
209	0x38	56
210	0xea	-22
211	0xfc	-4
212	0xfb	-5
213	0xfa	-6
214	0x17	23
215	0x07	7
216	0x32	50
217	0x31	49
218	0x0f	15
219	0x03	3
220	0x27	39
221	0xfa	-6
222	0xe4	-28
223	0x00	0
224	0xda	-38
225	0x30	48
226	0x08	8
227	0xf7	-9
228	0xea	-22
229	0x1e	30
230	0x12	18
231	0x7f	127
232	0xe6	-26
233	0x6e	110
234	0xe6	-26
235	0x20	32
236	0xd6	-42
237	0x1a	26
238	0xf7	-9
239	0x22	34
240	0xb1	-79
241	0xc3	-61
242	0xe9	-23
243	0xcf	-49
244	0x08	8
245	0xbe	-66
246	0x0b	11
247	0x3a	58
248	0x16	22
249	0x83	-125
250	0x14	20
251	0xea	-22
252	0x06	6
253	0xee	-18
254	0xd0	-48
255	0x04	4

model/conv2d_3/Conv2D i1 [32, 1, 1, 32]
0	0x07	7
1	0x28	40
2	0xfe	-2
3	0x0c	12
4	0xf9	-7
5	0xfe	-2
6	0xfe	-2
7	0x0b	11
8	0xff	-1
9	0x02	2
10	0x0e	14
11	0x01	1
12	0xe8	-24
13	0x1f	31
14	0x19	25
15	0x0e	14
16	0x0b	11
17	0x19	25
18	0x41	65
19	0xf2	-14
20	0xfa	-6
21	0xed	-19
22	0xf6	-10
23	0xf9	-7
24	0xf7	-9
25	0xf7	-9
26	0x01	1
27	0xef	-17
28	0x81	-127
29	0xf7	-9
30	0xe1	-31
31	0xda	-38
32	0x03	3
33	0x31	49
34	0xc4	-60
35	0x7f	127
36	0xce	-50
37	0xd2	-46
38	0x4a	74
39	0x0a	10
40	0xe8	-24
41	0x3c	60
42	0x49	73
43	0x0f	15
44	0x30	48
45	0x04	4
46	0xc4	-60
47	0x18	24
48	0xc2	-62
49	0x31	49
50	0xdc	-36
51	0x3c	60
52	0x77	119
53	0xac	-84
54	0xe5	-27
55	0xf5	-11
56	0xaf	-81
57	0x0c	12
58	0x1a	26
59	0xc0	-64
60	0xf6	-10
61	0xfa	-6
62	0xd0	-48
63	0xe3	-29
64	0xd7	-41
65	0xe8	-24
66	0x02	2
67	0x14	20
68	0xc6	-58
69	0x7f	127
70	0xf4	-12
71	0x07	7
72	0x1b	27
73	0xf0	-16
74	0x00	0
75	0xeb	-21
76	0xe3	-29
77	0xf5	-11
78	0xfb	-5
79	0xec	-20
80	0x16	22
81	0x05	5
82	0xe8	-24
83	0xfc	-4
84	0xf8	-8
85	0x04	4
86	0xca	-54
87	0x32	50
88	0xef	-17
89	0x09	9
90	0xe8	-24
91	0xf2	-14
92	0xf3	-13
93	0x01	1
94	0xf0	-16
95	0xf3	-13
96	0x37	55
97	0x16	22
98	0xff	-1
99	0xed	-19
100	0xfb	-5
101	0x06	6
102	0x1a	26
103	0x0f	15
104	0xd5	-43
105	0x38	56
106	0xc5	-59
107	0x28	40
108	0x66	102
109	0xe8	-24
110	0x26	38
111	0xf3	-13
112	0xa4	-92
113	0xf3	-13
114	0xf3	-13
115	0xfc	-4
116	0x17	23
117	0x7f	127
118	0x1d	29
119	0xf2	-14
120	0x79	121
121	0xb4	-76
122	0x16	22
123	0xe1	-31
124	0x86	-122
125	0xa9	-87
126	0x1c	28
127	0x11	17
128	0x7f	127
129	0xf6	-10
130	0x1a	26
131	0xe5	-27
132	0x68	104
133	0x81	-127
134	0xfe	-2
135	0x0b	11
136	0x98	-104
137	0x05	5
138	0x14	20
139	0x3a	58
140	0x27	39
141	0x1e	30
142	0xfe	-2
143	0xef	-17
144	0xe6	-26
145	0xd7	-41
146	0x14	20
147	0x1e	30
148	0x07	7
149	0xf1	-15
150	0x50	80
151	0xd4	-44
152	0x0f	15
153	0x2f	47
154	0x22	34
155	0xd5	-43
156	0x33	51
157	0xf7	-9
158	0x17	23
159	0x0a	10
160	0x15	21
161	0x07	7
162	0x05	5
163	0x40	64
164	0xe1	-31
165	0x0e	14
166	0x11	17
167	0xfb	-5
168	0x0c	12
169	0x10	16
170	0x0a	10
171	0xf0	-16
172	0xed	-19
173	0x06	6
174	0xd3	-45
175	0x12	18
176	0x1d	29
177	0x11	17
178	0x11	17
179	0xed	-19
180	0xe0	-32
181	0x1c	28
182	0x11	17
183	0x06	6
184	0x1e	30
185	0xfb	-5
186	0xf6	-10
187	0x0e	14
188	0x81	-127
189	0xed	-19
190	0x09	9
191	0xf6	-10
192	0x32	50
193	0x31	49
194	0xf9	-7
195	0x01	1
196	0xca	-54
197	0x1c	28
198	0xec	-20
199	0x0c	12
200	0xf1	-15
201	0x3b	59
202	0x0e	14
203	0x3d	61
204	0x0c	12
205	0x16	22
206	0xf6	-10
207	0xc3	-61
208	0x81	-127
209	0xf9	-7
210	0xdd	-35
211	0x07	7
212	0x07	7
213	0x51	81
214	0x14	20
215	0x01	1
216	0x65	101
217	0x15	21
218	0x27	39
219	0xf7	-9
220	0x75	117
221	0x03	3
222	0x17	23
223	0x01	1
224	0x85	-123
225	0xec	-20
226	0x15	21
227	0x7f	127
228	0x19	25
229	0xc5	-59
230	0x0f	15
231	0x00	0
232	0xf1	-15
233	0x23	35
234	0x1c	28
235	0x17	23
236	0xe0	-32
237	0x09	9
238	0x0d	13
239	0xcd	-51
240	0xc0	-64
241	0xfb	-5
242	0x15	21
243	0xfe	-2
244	0x06	6
245	0x1d	29
246	0xe3	-29
247	0xe3	-29
248	0xf3	-13
249	0x0f	15
250	0x99	-103
251	0xda	-38
252	0x02	2
253	0xe3	-29
254	0x49	73
255	0xca	-54

model/batch_normalization_7/FusedBatchNormV3;model/depthwise_conv2d_3/depthwise i1 [1, 3, 3, 32]
0	0x22	34
1	0x36	54
2	0xd8	-40
3	0x54	84
4	0xe6	-26
5	0xb9	-71
6	0x35	53
7	0xd3	-45
8	0x26	38
9	0xd3	-45
10	0xb6	-74
11	0xcf	-49
12	0x5d	93
13	0xc0	-64
14	0x1f	31
15	0xd0	-48
16	0xca	-54
17	0x2c	44
18	0x31	49
19	0xc7	-57
20	0xcd	-51
21	0x1d	29
22	0x1b	27
23	0x2f	47
24	0x29	41
25	0x42	66
26	0x36	54
27	0x33	51
28	0x4c	76
29	0xc3	-61
30	0xcf	-49
31	0x03	3
32	0x98	-104
33	0x57	87
34	0xb1	-79
35	0x73	115
36	0xb1	-79
37	0x8e	-114
38	0xb5	-75
39	0xb7	-73
40	0x3e	62
41	0xa9	-87
42	0x81	-127
43	0xb6	-74
44	0x7f	127
45	0xbb	-69
46	0x52	82
47	0x9b	-101
48	0xab	-85
49	0x4e	78
50	0x5b	91
51	0xac	-84
52	0xac	-84
53	0x7f	127
54	0x41	65
55	0x4f	79
56	0x48	72
57	0x5b	91
58	0x6d	109
59	0x5e	94
60	0x62	98
61	0xb3	-77
62	0xa9	-87
63	0x44	68
64	0xc8	-56
65	0x2a	42
66	0xd1	-47
67	0x40	64
68	0xc2	-62
69	0xbb	-69
70	0xb9	-71
71	0xdd	-35
72	0x20	32
73	0xd1	-47
74	0xb4	-76
75	0xdc	-36
76	0x47	71
77	0xf0	-16
78	0x42	66
79	0xcd	-51
80	0xcc	-52
81	0x2d	45
82	0x32	50
83	0xdd	-35
84	0xd7	-41
85	0x2b	43
86	0x2d	45
87	0x27	39
88	0x2a	42
89	0x27	39
90	0x37	55
91	0x30	48
92	0x28	40
93	0xe5	-27
94	0xbe	-66
95	0x4c	76
96	0x7f	127
97	0x52	82
98	0xb2	-78
99	0x52	82
100	0xbd	-67
101	0xaa	-86
102	0x7f	127
103	0xb2	-78
104	0x57	87
105	0xbb	-69
106	0x9b	-101
107	0xa9	-87
108	0xe4	-28
109	0xb7	-73
110	0x45	69
111	0xba	-70
112	0xac	-84
113	0x59	89
114	0x48	72
115	0xb6	-74
116	0xa8	-88
117	0x8a	-118
118	0x57	87
119	0x4a	74
120	0x46	70
121	0x5d	93
122	0x53	83
123	0x56	86
124	0x5a	90
125	0xba	-70
126	0xa7	-89
127	0x4e	78
128	0xfd	-3
129	0x7f	127
130	0x81	-127
131	0x7f	127
132	0x81	-127
133	0x81	-127
134	0x15	21
135	0x81	-127
136	0x7f	127
137	0x81	-127
138	0x84	-124
139	0x81	-127
140	0xde	-34
141	0x81	-127
142	0x7f	127
143	0x81	-127
144	0x81	-127
145	0x7f	127
146	0x7f	127
147	0x81	-127
148	0x81	-127
149	0x31	49
150	0x7f	127
151	0x7f	127
152	0x7f	127
153	0x7f	127
154	0x7f	127
155	0x7f	127
156	0x7f	127
157	0x81	-127
158	0x81	-127
159	0x7f	127
160	0x8d	-115
161	0x49	73
162	0xc4	-60
163	0x51	81
164	0xbd	-67
165	0xbf	-65
166	0xa9	-87
167	0xbc	-68
168	0x3f	63
169	0xb9	-71
170	0xd7	-41
171	0xbe	-66
172	0xc5	-59
173	0xbc	-68
174	0x48	72
175	0xbf	-65
176	0xb3	-77
177	0x44	68
178	0x4c	76
179	0xbc	-68
180	0xc7	-57
181	0x65	101
182	0x4d	77
183	0x4d	77
184	0x49	73
185	0x3a	58
186	0x40	64
187	0x37	55
188	0x3d	61
189	0xb7	-73
190	0xb2	-78
191	0x5c	92
192	0x4e	78
193	0x26	38
194	0xda	-38
195	0x12	18
196	0xdb	-37
197	0xd9	-39
198	0x44	68
199	0xdd	-35
200	0x39	57
201	0xe2	-30
202	0xcb	-53
203	0xd9	-39
204	0xbb	-69
205	0xef	-17
206	0x2e	46
207	0xe0	-32
208	0xcc	-52
209	0x40	64
210	0x26	38
211	0xea	-22
212	0xd7	-41
213	0xa0	-96
214	0x3e	62
215	0x21	33
216	0x25	37
217	0x2f	47
218	0x26	38
219	0x2b	43
220	0x1c	28
221	0xf3	-13
222	0xcd	-51
223	0x50	80
224	0x4a	74
225	0x44	68
226	0xd1	-47
227	0x28	40
228	0xc5	-59
229	0xd4	-44
230	0x39	57
231	0xc2	-62
232	0x4f	79
233	0xc8	-56
234	0xd9	-39
235	0xbc	-68
236	0xa3	-93
237	0xb6	-74
238	0x3f	63
239	0xe1	-31
240	0xb4	-76
241	0x48	72
242	0x35	53
243	0xd2	-46
244	0xc4	-60
245	0xbd	-67
246	0x43	67
247	0x42	66
248	0x42	66
249	0x3e	62
250	0x29	41
251	0x2f	47
252	0x2b	43
253	0xc2	-62
254	0xbd	-67
255	0x56	86

model/conv2d_4/Conv2D i1 [64, 1, 1, 32]
0	0xe1	-31
1	0x0d	13
2	0x65	101
3	0x6c	108
4	0xe8	-24
5	0x10	16
6	0xeb	-21
7	0xf5	-11
8	0xca	-54
9	0x36	54
10	0xd6	-42
11	0x41	65
12	0x0c	12
13	0x36	54
14	0x3a	58
15	0x7f	127
16	0x01	1
17	0x1c	28
18	0xbe	-66
19	0x18	24
20	0xf0	-16
21	0xeb	-21
22	0x09	9
23	0x7b	123
24	0xf3	-13
25	0x07	7
26	0xfc	-4
27	0x37	55
28	0xec	-20
29	0xf7	-9
30	0x0c	12
31	0xdf	-33
32	0x15	21
33	0x15	21
34	0x5b	91
35	0xdd	-35
36	0x56	86
37	0x02	2
38	0x1e	30
39	0xac	-84
40	0xf1	-15
41	0x03	3
42	0x0a	10
43	0xf3	-13
44	0xda	-38
45	0x31	49
46	0x7c	124
47	0xe5	-27
48	0xb4	-76
49	0xfa	-6
50	0x25	37
51	0x81	-127
52	0x27	39
53	0x54	84
54	0xdf	-33
55	0x16	22
56	0xf3	-13
57	0xf0	-16
58	0xe2	-30
59	0x5b	91
60	0x90	-112
61	0xed	-19
62	0xf0	-16
63	0x39	57
64	0x2c	44
65	0x0c	12
66	0x0b	11
67	0xbc	-68
68	0x10	16
69	0xfa	-6
70	0x7f	127
71	0x2f	47
72	0xfb	-5
73	0x28	40
74	0xfa	-6
75	0x03	3
76	0xde	-34
77	0xe9	-23
78	0xfc	-4
79	0x0d	13
80	0x20	32
81	0xf1	-15
82	0xe9	-23
83	0x03	3
84	0xcb	-53
85	0x49	73
86	0xf0	-16
87	0xe7	-25
88	0x31	49
89	0xf7	-9
90	0x0a	10
91	0xe9	-23
92	0xe6	-26
93	0xe4	-28
94	0x03	3
95	0x06	6
96	0xf3	-13
97	0x16	22
98	0xff	-1
99	0xef	-17
100	0xf4	-12
101	0x14	20
102	0xfd	-3
103	0x08	8
104	0xee	-18
105	0x02	2
106	0x04	4
107	0xf5	-11
108	0x01	1
109	0x16	22
110	0xfa	-6
111	0xfc	-4
112	0x1e	30
113	0x10	16
114	0x07	7
115	0xed	-19
116	0x00	0
117	0x00	0
118	0xde	-34
119	0x01	1
120	0x06	6
121	0xf3	-13
122	0xff	-1
123	0x0c	12
124	0xfe	-2
125	0x0c	12
126	0x7f	127
127	0xeb	-21
128	0x06	6
129	0xa5	-91
130	0x36	54
131	0x42	66
132	0x0f	15
133	0xea	-22
134	0x07	7
135	0x7f	127
136	0xf9	-7
137	0x07	7
138	0xf0	-16
139	0xee	-18
140	0x08	8
141	0xea	-22
142	0x0e	14
143	0xe1	-31
144	0xee	-18
145	0x13	19
146	0xfe	-2
147	0x30	48
148	0x7f	127
149	0x04	4
150	0x05	5
151	0x03	3
152	0x35	53
153	0x47	71
154	0x2d	45
155	0x66	102
156	0xe1	-31
157	0xe3	-29
158	0xf5	-11
159	0x08	8
160	0x03	3
161	0x12	18
162	0xfb	-5
163	0x0c	12
164	0xf7	-9
165	0x0b	11
166	0x06	6
167	0xfb	-5
168	0xc6	-58
169	0x00	0
170	0xfe	-2
171	0xbf	-65
172	0xf3	-13
173	0xf3	-13
174	0xe9	-23
175	0x06	6
176	0x0a	10
177	0xfd	-3
178	0xdf	-33
179	0x0c	12
180	0xbd	-67
181	0x02	2
182	0xce	-50
183	0xf5	-11
184	0x16	22
185	0x04	4
186	0x10	16
187	0x40	64
188	0x00	0
189	0x0e	14
190	0x8b	-117
191	0x7f	127
192	0xf1	-15
193	0xbf	-65
194	0xc8	-56
195	0x16	22
196	0x33	51
197	0x0c	12
198	0x02	2
199	0xe3	-29
200	0xc2	-62
201	0xc5	-59
202	0xb1	-79
203	0xe1	-31
204	0x1a	26
205	0x03	3
206	0xff	-1
207	0x95	-107
208	0xe6	-26
209	0x23	35
210	0x7f	127
211	0x02	2
212	0x41	65
213	0x03	3
214	0xd1	-47
215	0x0b	11
216	0xff	-1
217	0xf0	-16
218	0x1c	28
219	0x7d	125
220	0xe5	-27
221	0x29	41
222	0xee	-18
223	0x08	8
224	0x14	20
225	0xf2	-14
226	0xc1	-63
227	0xf7	-9
228	0xcd	-51
229	0xff	-1
230	0x0e	14
231	0xdb	-37
232	0x13	19
233	0xf2	-14
234	0xdf	-33
235	0xf3	-13
236	0x11	17
237	0x10	16
238	0xa7	-89
239	0xc9	-55
240	0x00	0
241	0xf0	-16
242	0x7f	127
243	0xf2	-14
244	0xbd	-67
245	0x11	17
246	0xfc	-4
247	0xd4	-44
248	0xd6	-42
249	0xf8	-8
250	0xf4	-12
251	0xba	-70
252	0x0a	10
253	0x1c	28
254	0x0c	12
255	0xf6	-10

model/batch_normalization_9/FusedBatchNormV3;model/depthwise_conv2d_4/depthwise;model/depthwise_conv2d_5/depthwise i1 [1, 3, 3, 64]
0	0xf8	-8
1	0xdd	-35
2	0xf1	-15
3	0xea	-22
4	0x14	20
5	0x0c	12
6	0xff	-1
7	0x13	19
8	0xff	-1
9	0xf1	-15
10	0xef	-17
11	0xf9	-7
12	0x04	4
13	0xb8	-72
14	0xff	-1
15	0x2c	44
16	0x1f	31
17	0x33	51
18	0xee	-18
19	0xc5	-59
20	0xf0	-16
21	0xe4	-28
22	0xfb	-5
23	0x0f	15
24	0xf4	-12
25	0xed	-19
26	0x1c	28
27	0x73	115
28	0xf6	-10
29	0x24	36
30	0xfa	-6
31	0x00	0
32	0x24	36
33	0xee	-18
34	0x01	1
35	0xe8	-24
36	0x1f	31
37	0xf8	-8
38	0xe9	-23
39	0xf1	-15
40	0xe6	-26
41	0xed	-19
42	0xdd	-35
43	0xf7	-9
44	0xc0	-64
45	0x04	4
46	0xb9	-71
47	0xe4	-28
48	0xe3	-29
49	0xc0	-64
50	0x0c	12
51	0x0c	12
52	0x87	-121
53	0xfb	-5
54	0xee	-18
55	0x25	37
56	0xda	-38
57	0xed	-19
58	0x1a	26
59	0xef	-17
60	0xf7	-9
61	0xee	-18
62	0x01	1
63	0x43	67
64	0x46	70
65	0xcc	-52
66	0x81	-127
67	0xe3	-29
68	0x5c	92
69	0xdd	-35
70	0x26	38
71	0xab	-85
72	0x7f	127
73	0x0c	12
74	0x52	82
75	0xe4	-28
76	0x31	49
77	0x97	-105
78	0x95	-107
79	0x61	97
80	0x43	67
81	0x81	-127
82	0x2f	47
83	0x81	-127
84	0x13	19
85	0x89	-119
86	0x20	32
87	0x38	56
88	0xd4	-44
89	0x0f	15
90	0x74	116
91	0x0b	11
92	0xff	-1
93	0xa5	-91
94	0x0b	11
95	0xb7	-73
96	0x75	117
97	0xfe	-2
98	0x1e	30
99	0x9e	-98
100	0x67	103
101	0x1a	26
102	0x27	39
103	0x0a	10
104	0xd7	-41
105	0x94	-108
106	0xe7	-25
107	0xf5	-11
108	0x81	-127
109	0xa9	-87
110	0xd1	-47
111	0x92	-110
112	0xc8	-56
113	0x17	23
114	0x3d	61
115	0xe8	-24
116	0x7f	127
117	0x33	51
118	0xf2	-14
119	0xd5	-43
120	0x81	-127
121	0x21	33
122	0x1d	29
123	0x7f	127
124	0xc2	-62
125	0x81	-127
126	0x6c	108
127	0xd1	-47
128	0xf2	-14
129	0xef	-17
130	0xec	-20
131	0xe6	-26
132	0xec	-20
133	0x10	16
134	0xe4	-28
135	0x09	9
136	0x85	-123
137	0xf4	-12
138	0xe3	-29
139	0x22	34
140	0xe1	-31
141	0x36	54
142	0x16	22
143	0x05	5
144	0xe4	-28
145	0x0b	11
146	0xf2	-14
147	0x0c	12
148	0xf2	-14
149	0x0f	15
150	0xf2	-14
151	0xb2	-78
152	0x06	6
153	0xe6	-26
154	0x90	-112
155	0xdb	-37
156	0xe9	-23
157	0x1f	31
158	0xf7	-9
159	0x12	18
160	0xcc	-52
161	0x02	2
162	0xf5	-11
163	0xf3	-13
164	0xd8	-40
165	0xf9	-7
166	0x2c	44
167	0xef	-17
168	0x01	1
169	0x1a	26
170	0x18	24
171	0x03	3
172	0x0b	11
173	0x07	7
174	0xd5	-43
175	0x32	50
176	0x4f	79
177	0x27	39
178	0xcb	-53
179	0x0f	15
180	0x2f	47
181	0xe5	-27
182	0x1d	29
183	0x06	6
184	0xd2	-46
185	0x00	0
186	0xf3	-13
187	0xd6	-42
188	0x11	17
189	0xef	-17
190	0xf8	-8
191	0xea	-22
192	0x3a	58
193	0xd2	-46
194	0xeb	-21
195	0xc2	-62
196	0x06	6
197	0x0e	14
198	0x2a	42
199	0xce	-50
200	0x53	83
201	0x2b	43
202	0xf1	-15
203	0xf9	-7
204	0x7f	127
205	0x1c	28
206	0xe2	-30
207	0xc9	-55
208	0xa2	-94
209	0x83	-125
210	0x13	19
211	0xe0	-32
212	0xea	-22
213	0xc2	-62
214	0xfc	-4
215	0x1b	27
216	0xdb	-37
217	0x0f	15
218	0x64	100
219	0x16	22
220	0x1e	30
221	0xc0	-64
222	0x23	35
223	0xe8	-24
224	0x5d	93
225	0xd3	-45
226	0x2b	43
227	0x33	51
228	0x2a	42
229	0x0c	12
230	0xe3	-29
231	0x00	0
232	0xf6	-10
233	0xc3	-61
234	0x2e	46
235	0x27	39
236	0x21	33
237	0xf2	-14
238	0xea	-22
239	0xaa	-86
240	0xe9	-23
241	0x81	-127
242	0xa3	-93
243	0xf3	-13
244	0x73	115
245	0xf7	-9
246	0xfd	-3
247	0x7e	126
248	0x96	-106
249	0x29	41
250	0x1c	28
251	0x7f	127
252	0x90	-112
253	0xba	-70
254	0x3f	63
255	0x7f	127

model/conv2d_5/Conv2D i1 [64, 1, 1, 64]
0	0xe4	-28
1	0xd9	-39
2	0x03	3
3	0xe8	-24
4	0xff	-1
5	0x12	18
6	0xf2	-14
7	0x02	2
8	0x0b	11
9	0x07	7
10	0xf6	-10
11	0xfc	-4
12	0xed	-19
13	0xe0	-32
14	0xf1	-15
15	0xf7	-9
16	0xfa	-6
17	0xfb	-5
18	0xbd	-67
19	0xf6	-10
20	0x23	35
21	0x2c	44
22	0x0c	12
23	0xfe	-2
24	0xfc	-4
25	0xfe	-2
26	0x08	8
27	0xf3	-13
28	0xff	-1
29	0xee	-18
30	0x1b	27
31	0xff	-1
32	0xf4	-12
33	0xf1	-15
34	0x0a	10
35	0xfa	-6
36	0x08	8
37	0x07	7
38	0x06	6
39	0xb5	-75
40	0xff	-1
41	0x0b	11
42	0xe8	-24
43	0x07	7
44	0xf8	-8
45	0xfa	-6
46	0xf6	-10
47	0x07	7
48	0xf8	-8
49	0xf7	-9
50	0xfb	-5
51	0xfa	-6
52	0xf2	-14
53	0x7f	127
54	0xeb	-21
55	0xf9	-7
56	0xf1	-15
57	0xf4	-12
58	0xf6	-10
59	0xfa	-6
60	0xf2	-14
61	0xed	-19
62	0x06	6
63	0x04	4
64	0xfc	-4
65	0xe4	-28
66	0xf2	-14
67	0x07	7
68	0xed	-19
69	0x0f	15
70	0xe8	-24
71	0x12	18
72	0x37	55
73	0xf8	-8
74	0x1c	28
75	0xd3	-45
76	0xde	-34
77	0xf5	-11
78	0xeb	-21
79	0x2e	46
80	0xc1	-63
81	0xf8	-8
82	0xc9	-55
83	0x27	39
84	0xfd	-3
85	0x07	7
86	0xdd	-35
87	0x08	8
88	0xf0	-16
89	0xd8	-40
90	0xfd	-3
91	0xda	-38
92	0x17	23
93	0x13	19
94	0xfe	-2
95	0x02	2
96	0xf2	-14
97	0x03	3
98	0xf5	-11
99	0x04	4
100	0xfe	-2
101	0x23	35
102	0xe2	-30
103	0xe2	-30
104	0xdd	-35
105	0x12	18
106	0xf4	-12
107	0xe0	-32
108	0xd4	-44
109	0xdb	-37
110	0xfb	-5
111	0xdf	-33
112	0x29	41
113	0xc5	-59
114	0x7f	127
115	0xfb	-5
116	0x36	54
117	0xdb	-37
118	0x6d	109
119	0x1a	26
120	0xc4	-60
121	0x1b	27
122	0xd4	-44
123	0x03	3
124	0xfb	-5
125	0x01	1
126	0xc8	-56
127	0x1d	29
128	0x0e	14
129	0xf8	-8
130	0x19	25
131	0x04	4
132	0xf5	-11
133	0x19	25
134	0xf7	-9
135	0xeb	-21
136	0x38	56
137	0x9e	-98
138	0xe4	-28
139	0x16	22
140	0x02	2
141	0x0f	15
142	0xfa	-6
143	0xe6	-26
144	0x17	23
145	0xf6	-10
146	0x04	4
147	0xee	-18
148	0x26	38
149	0x37	55
150	0xe3	-29
151	0x02	2
152	0x07	7
153	0xfe	-2
154	0xf4	-12
155	0xcd	-51
156	0xde	-34
157	0xfc	-4
158	0x41	65
159	0x01	1
160	0xe7	-25
161	0x13	19
162	0xa3	-93
163	0xfc	-4
164	0xe0	-32
165	0x11	17
166	0x0e	14
167	0xc3	-61
168	0xf9	-7
169	0x03	3
170	0x0d	13
171	0x0f	15
172	0x00	0
173	0xbb	-69
174	0x0d	13
175	0x06	6
176	0x0e	14
177	0xfd	-3
178	0x04	4
179	0xfa	-6
180	0xdd	-35
181	0x7f	127
182	0xee	-18
183	0xee	-18
184	0x0f	15
185	0x38	56
186	0xf4	-12
187	0x0c	12
188	0xf6	-10
189	0xeb	-21
190	0xbe	-66
191	0xf0	-16
192	0x09	9
193	0x09	9
194	0xc8	-56
195	0xf1	-15
196	0x31	49
197	0x06	6
198	0x0f	15
199	0x05	5
200	0x1f	31
201	0xfc	-4
202	0xf5	-11
203	0x23	35
204	0xd2	-46
205	0x04	4
206	0xd3	-45
207	0x1e	30
208	0x25	37
209	0x00	0
210	0x00	0
211	0xda	-38
212	0xa8	-88
213	0xe1	-31
214	0xf8	-8
215	0xd2	-46
216	0x9c	-100
217	0x23	35
218	0x20	32
219	0xd7	-41
220	0x22	34
221	0x2c	44
222	0x81	-127
223	0x01	1
224	0x43	67
225	0x23	35
226	0x07	7
227	0x3e	62
228	0x03	3
229	0x01	1
230	0x2c	44
231	0x01	1
232	0x40	64
233	0xec	-20
234	0x06	6
235	0x37	55
236	0x2e	46
237	0xfa	-6
238	0x0a	10
239	0x1d	29
240	0x3b	59
241	0x0d	13
242	0x24	36
243	0xee	-18
244	0xd0	-48
245	0xf7	-9
246	0x1f	31
247	0xdd	-35
248	0xe8	-24
249	0x14	20
250	0xf6	-10
251	0x3e	62
252	0xc7	-57
253	0x07	7
254	0x39	57
255	0xfc	-4

model/batch_normalization_11/FusedBatchNormV3;model/depthwise_conv2d_5/depthwise i1 [1, 3, 3, 64]
0	0x46	70
1	0x49	73
2	0xbc	-68
3	0xc0	-64
4	0x64	100
5	0xba	-70
6	0xc2	-62
7	0xba	-70
8	0x5e	94
9	0x9e	-98
10	0x1b	27
11	0xe6	-26
12	0x3c	60
13	0x06	6
14	0xd4	-44
15	0xd5	-43
16	0xb9	-71
17	0x45	69
18	0xa7	-89
19	0x8b	-117
20	0x5d	93
21	0xb8	-72
22	0xd5	-43
23	0x52	82
24	0x4b	75
25	0xd0	-48
26	0xd0	-48
27	0x17	23
28	0x55	85
29	0x07	7
30	0x26	38
31	0x30	48
32	0x6f	111
33	0x97	-105
34	0x59	89
35	0xc7	-57
36	0x39	57
37	0x3f	63
38	0x43	67
39	0x69	105
40	0x3d	61
41	0x4a	74
42	0x2b	43
43	0x92	-110
44	0x28	40
45	0x41	65
46	0xc5	-59
47	0x47	71
48	0xe0	-32
49	0xc5	-59
50	0xba	-70
51	0x33	51
52	0x34	52
53	0x30	48
54	0xc3	-61
55	0x32	50
56	0xb4	-76
57	0xb4	-76
58	0x38	56
59	0x5c	92
60	0x3a	58
61	0xe5	-27
62	0x8b	-117
63	0xc7	-57
64	0x59	89
65	0x6e	110
66	0xaa	-86
67	0x96	-106
68	0x7f	127
69	0x9f	-97
70	0x96	-106
71	0xa5	-91
72	0xf1	-15
73	0x81	-127
74	0x3f	63
75	0xca	-54
76	0x6f	111
77	0xbb	-69
78	0xa1	-95
79	0xa5	-91
80	0x99	-103
81	0x5b	91
82	0x8a	-118
83	0x9b	-101
84	0x72	114
85	0xaa	-86
86	0xb9	-71
87	0x63	99
88	0x6b	107
89	0xb5	-75
90	0xab	-85
91	0x39	57
92	0x56	86
93	0x0b	11
94	0x3c	60
95	0x55	85
96	0x7f	127
97	0xa4	-92
98	0x64	100
99	0xaf	-81
100	0x54	84
101	0x5e	94
102	0x5a	90
103	0x75	117
104	0x59	89
105	0x69	105
106	0x42	66
107	0x8d	-115
108	0x32	50
109	0x64	100
110	0x64	100
111	0x73	115
112	0x8f	-113
113	0xa4	-92
114	0x99	-103
115	0x5e	94
116	0x59	89
117	0x41	65
118	0x9a	-102
119	0x58	88
120	0x81	-127
121	0x94	-108
122	0x52	82
123	0xfa	-6
124	0x69	105
125	0xba	-70
126	0x81	-127
127	0xaf	-81
128	0x29	41
129	0x32	50
130	0xc2	-62
131	0xd5	-43
132	0x29	41
133	0xb9	-71
134	0xce	-50
135	0xda	-38
136	0xbb	-69
137	0xb4	-76
138	0x2b	43
139	0xdc	-36
140	0x37	55
141	0xbc	-68
142	0xd1	-47
143	0xd0	-48
144	0xcf	-49
145	0x41	65
146	0xd6	-42
147	0xe7	-25
148	0x24	36
149	0xca	-54
150	0xdd	-35
151	0x22	34
152	0x3b	59
153	0xd6	-42
154	0xdf	-33
155	0x2d	45
156	0x1f	31
157	0x08	8
158	0x1d	29
159	0x26	38
160	0x33	51
161	0xdb	-37
162	0x30	48
163	0xd7	-41
164	0x2b	43
165	0x2a	42
166	0x27	39
167	0x1f	31
168	0x37	55
169	0x43	67
170	0x28	40
171	0xce	-50
172	0x13	19
173	0x37	55
174	0xdb	-37
175	0x50	80
176	0x8f	-113
177	0xda	-38
178	0xd2	-46
179	0x33	51
180	0x32	50
181	0x20	32
182	0xd3	-45
183	0x31	49
184	0xc1	-63
185	0xc6	-58
186	0x28	40
187	0xa8	-88
188	0x3b	59
189	0xce	-50
190	0xda	-38
191	0xd4	-44
192	0x67	103
193	0x59	89
194	0xad	-83
195	0x8a	-118
196	0x61	97
197	0xa8	-88
198	0xad	-83
199	0x9a	-102
200	0x7f	127
201	0x95	-107
202	0x4c	76
203	0xa3	-93
204	0x34	52
205	0xd1	-47
206	0xd0	-48
207	0xca	-54
208	0xb1	-79
209	0x5f	95
210	0x95	-107
211	0x81	-127
212	0x68	104
213	0xab	-85
214	0xc8	-56
215	0x59	89
216	0x62	98
217	0xa7	-89
218	0xd4	-44
219	0x36	54
220	0x50	80
221	0xa8	-88
222	0x41	65
223	0x50	80
224	0x7d	125
225	0x88	-120
226	0x5e	94
227	0xab	-85
228	0x49	73
229	0x45	69
230	0x5a	90
231	0x6e	110
232	0x42	66
233	0x58	88
234	0x45	69
235	0x8b	-117
236	0x50	80
237	0x41	65
238	0x8e	-114
239	0xf0	-16
240	0x82	-126
241	0xa9	-87
242	0xc1	-63
243	0x5d	93
244	0x4b	75
245	0x48	72
246	0xa1	-95
247	0x40	64
248	0x09	9
249	0xb3	-77
250	0x46	70
251	0x6a	106
252	0x4b	75
253	0xcd	-51
254	0x88	-120
255	0xb7	-73

model/conv2d_6/Conv2D i1 [128, 1, 1, 64]
0	0xfe	-2
1	0xfb	-5
2	0x07	7
3	0xe1	-31
4	0x13	19
5	0xfe	-2
6	0xff	-1
7	0x08	8
8	0x07	7
9	0xf4	-12
10	0xff	-1
11	0xf8	-8
12	0xf9	-7
13	0x28	40
14	0x09	9
15	0xd4	-44
16	0xf3	-13
17	0xf0	-16
18	0xf5	-11
19	0xdf	-33
20	0xf4	-12
21	0x02	2
22	0x12	18
23	0xf3	-13
24	0x08	8
25	0x18	24
26	0x0f	15
27	0xf2	-14
28	0xfd	-3
29	0x01	1
30	0xca	-54
31	0x08	8
32	0xe4	-28
33	0x02	2
34	0xf7	-9
35	0x04	4
36	0xfe	-2
37	0x7f	127
38	0xd2	-46
39	0x17	23
40	0xfd	-3
41	0x0d	13
42	0xf6	-10
43	0xf3	-13
44	0x26	38
45	0x08	8
46	0x1b	27
47	0x0d	13
48	0x06	6
49	0xe6	-26
50	0x00	0
51	0xf7	-9
52	0xf6	-10
53	0xef	-17
54	0xf2	-14
55	0x0a	10
56	0x27	39
57	0x0d	13
58	0xf6	-10
59	0xf5	-11
60	0x0e	14
61	0x0c	12
62	0x35	53
63	0xee	-18
64	0xec	-20
65	0x13	19
66	0x1b	27
67	0x09	9
68	0x16	22
69	0x0d	13
70	0x3a	58
71	0xec	-20
72	0xf5	-11
73	0xf0	-16
74	0x30	48
75	0x00	0
76	0x10	16
77	0x08	8
78	0xde	-34
79	0xfd	-3
80	0xa4	-92
81	0x56	86
82	0x1f	31
83	0xfb	-5
84	0x06	6
85	0x7f	127
86	0x0a	10
87	0x0e	14
88	0x05	5
89	0x3b	59
90	0xee	-18
91	0x76	118
92	0x18	24
93	0x15	21
94	0x35	53
95	0xf3	-13
96	0xee	-18
97	0x08	8
98	0x0e	14
99	0x26	38
100	0xd4	-44
101	0x3d	61
102	0x0c	12
103	0xf0	-16
104	0x41	65
105	0xf0	-16
106	0x57	87
107	0x0d	13
108	0xfb	-5
109	0xa8	-88
110	0x12	18
111	0x1d	29
112	0x04	4
113	0xce	-50
114	0xf5	-11
115	0x2b	43
116	0x0b	11
117	0x2f	47
118	0x51	81
119	0xcf	-49
120	0xe8	-24
121	0x03	3
122	0xef	-17
123	0x07	7
124	0xd8	-40
125	0xf5	-11
126	0x0d	13
127	0x20	32
128	0xfe	-2
129	0x03	3
130	0x08	8
131	0xb4	-76
132	0x38	56
133	0xeb	-21
134	0xee	-18
135	0x01	1
136	0xfb	-5
137	0x18	24
138	0x08	8
139	0x28	40
140	0xe1	-31
141	0xf4	-12
142	0xff	-1
143	0x19	25
144	0x54	84
145	0x1f	31
146	0x15	21
147	0x02	2
148	0xf8	-8
149	0xc4	-60
150	0x09	9
151	0xf2	-14
152	0x07	7
153	0x1a	26
154	0x09	9
155	0xfd	-3
156	0xfb	-5
157	0x09	9
158	0xd9	-39
159	0xea	-22
160	0x28	40
161	0xf8	-8
162	0xf4	-12
163	0x04	4
164	0x67	103
165	0x6b	107
166	0x01	1
167	0x32	50
168	0x06	6
169	0x05	5
170	0xe1	-31
171	0x02	2
172	0xfa	-6
173	0x44	68
174	0x0e	14
175	0xff	-1
176	0xf3	-13
177	0xb8	-72
178	0x11	17
179	0x10	16
180	0x03	3
181	0xfa	-6
182	0x0a	10
183	0x7f	127
184	0xe5	-27
185	0x34	52
186	0x08	8
187	0xfb	-5
188	0xef	-17
189	0x03	3
190	0xf0	-16
191	0x68	104
192	0xfb	-5
193	0xfc	-4
194	0xf8	-8
195	0xfc	-4
196	0x0a	10
197	0xea	-22
198	0x0d	13
199	0xd6	-42
200	0x00	0
201	0xe6	-26
202	0x0e	14
203	0x10	16
204	0x09	9
205	0xf1	-15
206	0xdd	-35
207	0x14	20
208	0x3f	63
209	0xfe	-2
210	0x17	23
211	0xf0	-16
212	0x19	25
213	0x0c	12
214	0x08	8
215	0xe1	-31
216	0xdd	-35
217	0xfd	-3
218	0xfa	-6
219	0x0a	10
220	0x27	39
221	0x0e	14
222	0x14	20
223	0xdc	-36
224	0xe9	-23
225	0xd4	-44
226	0x29	41
227	0x18	24
228	0xfe	-2
229	0x2b	43
230	0x45	69
231	0xfe	-2
232	0xd4	-44
233	0x28	40
234	0x40	64
235	0xf3	-13
236	0x17	23
237	0xf7	-9
238	0x01	1
239	0x12	18
240	0xf7	-9
241	0x0c	12
242	0x23	35
243	0x7f	127
244	0xff	-1
245	0x07	7
246	0x27	39
247	0x00	0
248	0x13	19
249	0xed	-19
250	0xf4	-12
251	0x0c	12
252	0xfe	-2
253	0xf5	-11
254	0x09	9
255	0xf2	-14

model/batch_normalization_13/FusedBatchNormV3;model/depthwise_conv2d_6/depthwise;model/depthwise_conv2d_11/depthwise i1 [1, 3, 3, 128]
0	0xfe	-2
1	0xeb	-21
2	0xf1	-15
3	0xfc	-4
4	0xf3	-13
5	0xf3	-13
6	0x08	8
7	0xf0	-16
8	0x2b	43
9	0xf3	-13
10	0x09	9
11	0x02	2
12	0x0c	12
13	0xf3	-13
14	0xe0	-32
15	0xef	-17
16	0xfe	-2
17	0xf5	-11
18	0x37	55
19	0x2d	45
20	0x09	9
21	0x0b	11
22	0xef	-17
23	0xfc	-4
24	0x05	5
25	0xb0	-80
26	0xfc	-4
27	0xf9	-7
28	0x00	0
29	0xd8	-40
30	0x13	19
31	0xfc	-4
32	0xe0	-32
33	0xe0	-32
34	0xfc	-4
35	0x0c	12
36	0xf8	-8
37	0xf4	-12
38	0x13	19
39	0xd0	-48
40	0x3b	59
41	0xfe	-2
42	0xfc	-4
43	0x03	3
44	0x02	2
45	0x0c	12
46	0xec	-20
47	0x17	23
48	0xff	-1
49	0x06	6
50	0x11	17
51	0xff	-1
52	0x08	8
53	0xfc	-4
54	0x01	1
55	0xe8	-24
56	0xf3	-13
57	0x27	39
58	0x00	0
59	0x04	4
60	0x04	4
61	0xf8	-8
62	0x14	20
63	0xfc	-4
64	0xe9	-23
65	0x00	0
66	0x06	6
67	0xf2	-14
68	0x0c	12
69	0x00	0
70	0xf5	-11
71	0x09	9
72	0xe4	-28
73	0x03	3
74	0xc1	-63
75	0x4e	78
76	0xf3	-13
77	0xed	-19
78	0xfd	-3
79	0xfd	-3
80	0x05	5
81	0x14	20
82	0xff	-1
83	0xf0	-16
84	0x01	1
85	0x05	5
86	0xfd	-3
87	0xfb	-5
88	0x06	6
89	0x0b	11
90	0x00	0
91	0x02	2
92	0xf2	-14
93	0x04	4
94	0xf7	-9
95	0x0d	13
96	0xf8	-8
97	0x05	5
98	0x79	121
99	0xf2	-14
100	0x0b	11
101	0xeb	-21
102	0x01	1
103	0xfe	-2
104	0x12	18
105	0x05	5
106	0x09	9
107	0x00	0
108	0x01	1
109	0xf8	-8
110	0xf6	-10
111	0xe1	-31
112	0x03	3
113	0xf8	-8
114	0xfb	-5
115	0xe6	-26
116	0xde	-34
117	0xfe	-2
118	0xe2	-30
119	0xc7	-57
120	0x0c	12
121	0xfe	-2
122	0x06	6
123	0x10	16
124	0x0a	10
125	0x0d	13
126	0xfd	-3
127	0xfd	-3
128	0xec	-20
129	0x7f	127
130	0xff	-1
131	0xeb	-21
132	0xe3	-29
133	0x28	40
134	0x11	17
135	0x04	4
136	0x71	113
137	0x33	51
138	0xe2	-30
139	0xbd	-67
140	0x81	-127
141	0xe4	-28
142	0xa9	-87
143	0xd1	-47
144	0xfe	-2
145	0x18	24
146	0x57	87
147	0x8e	-114
148	0xf9	-7
149	0xd9	-39
150	0xd1	-47
151	0x15	21
152	0xe6	-26
153	0x71	113
154	0x04	4
155	0x02	2
156	0xf3	-13
157	0xf7	-9
158	0x15	21
159	0x17	23
160	0x2c	44
161	0x2e	46
162	0xdc	-36
163	0xe9	-23
164	0xda	-38
165	0x02	2
166	0xec	-20
167	0x2b	43
168	0xed	-19
169	0x2e	46
170	0xfc	-4
171	0x00	0
172	0xea	-22
173	0xf9	-7
174	0x81	-127
175	0xd2	-46
176	0xd5	-43
177	0xc5	-59
178	0xb1	-79
179	0x85	-123
180	0xf9	-7
181	0x0c	12
182	0xe1	-31
183	0xb1	-79
184	0x04	4
185	0x16	22
186	0x03	3
187	0x46	70
188	0xec	-20
189	0xe2	-30
190	0xed	-19
191	0x72	114
192	0x18	24
193	0xb5	-75
194	0xf4	-12
195	0x02	2
196	0x15	21
197	0xe6	-26
198	0x1a	26
199	0xb7	-73
200	0x2c	44
201	0xf4	-12
202	0x7f	127
203	0xe5	-27
204	0xed	-19
205	0xbd	-67
206	0xf5	-11
207	0xef	-17
208	0xe2	-30
209	0x81	-127
210	0xc9	-55
211	0xc1	-63
212	0x01	1
213	0xf2	-14
214	0xca	-54
215	0xfe	-2
216	0xd8	-40
217	0x01	1
218	0x0e	14
219	0xf7	-9
220	0xfd	-3
221	0x31	49
222	0x00	0
223	0x7f	127
224	0x0c	12
225	0xa7	-89
226	0x44	68
227	0x81	-127
228	0xf8	-8
229	0xc0	-64
230	0xe7	-25
231	0xf7	-9
232	0x44	68
233	0xf1	-15
234	0xd9	-39
235	0xf2	-14
236	0xe5	-27
237	0xe9	-23
238	0xed	-19
239	0xd0	-48
240	0x81	-127
241	0x09	9
242	0x14	20
243	0x71	113
244	0x36	54
245	0xf5	-11
246	0x26	38
247	0xd3	-45
248	0xd9	-39
249	0x0f	15
250	0xf1	-15
251	0xda	-38
252	0x0e	14
253	0xd6	-42
254	0xb1	-79
255	0x2c	44

model/conv2d_7/Conv2D i1 [128, 1, 1, 128]
0	0xd5	-43
1	0xf6	-10
2	0xdf	-33
3	0x39	57
4	0xe6	-26
5	0x24	36
6	0xef	-17
7	0x14	20
8	0xce	-50
9	0xb5	-75
10	0x29	41
11	0xba	-70
12	0x04	4
13	0xf6	-10
14	0xe1	-31
15	0x16	22
16	0xd3	-45
17	0x9e	-98
18	0x0f	15
19	0xee	-18
20	0xf3	-13
21	0xf1	-15
22	0xf2	-14
23	0x3d	61
24	0x10	16
25	0x0f	15
26	0xe1	-31
27	0x21	33
28	0x7f	127
29	0x17	23
30	0x53	83
31	0x1c	28
32	0x1e	30
33	0xbc	-68
34	0xde	-34
35	0x0a	10
36	0x03	3
37	0x02	2
38	0xf9	-7
39	0x0f	15
40	0xf9	-7
41	0x2d	45
42	0x31	49
43	0x0e	14
44	0xf5	-11
45	0x29	41
46	0xe8	-24
47	0x00	0
48	0xca	-54
49	0x1b	27
50	0x14	20
51	0x2c	44
52	0xe8	-24
53	0xfc	-4
54	0x0e	14
55	0x0b	11
56	0xa5	-91
57	0xe1	-31
58	0xd0	-48
59	0xdf	-33
60	0xdf	-33
61	0x02	2
62	0xe1	-31
63	0xf1	-15
64	0x27	39
65	0xf2	-14
66	0xdb	-37
67	0xfd	-3
68	0x23	35
69	0x2c	44
70	0xb9	-71
71	0xc2	-62
72	0xe4	-28
73	0x1d	29
74	0x0c	12
75	0xf2	-14
76	0x04	4
77	0x14	20
78	0xbe	-66
79	0xc3	-61
80	0x14	20
81	0xc5	-59
82	0xf4	-12
83	0xe8	-24
84	0xf3	-13
85	0xf6	-10
86	0x23	35
87	0x63	99
88	0x01	1
89	0xf9	-7
90	0xff	-1
91	0xab	-85
92	0xe5	-27
93	0xbe	-66
94	0xd4	-44
95	0xe8	-24
96	0xf2	-14
97	0xe6	-26
98	0xe1	-31
99	0xfe	-2
100	0xe9	-23
101	0x0d	13
102	0xf1	-15
103	0x45	69
104	0xff	-1
105	0x67	103
106	0x53	83
107	0xee	-18
108	0x0e	14
109	0x20	32
110	0xfa	-6
111	0x01	1
112	0x1e	30
113	0x1c	28
114	0x01	1
115	0xc0	-64
116	0x00	0
117	0xeb	-21
118	0xe2	-30
119	0x03	3
120	0x4c	76
121	0xfb	-5
122	0x10	16
123	0xde	-34
124	0xfa	-6
125	0xd2	-46
126	0x09	9
127	0x49	73
128	0xb4	-76
129	0xfb	-5
130	0x3d	61
131	0x99	-103
132	0x0b	11
133	0xd9	-39
134	0xf0	-16
135	0xa9	-87
136	0x15	21
137	0xd3	-45
138	0x22	34
139	0xd8	-40
140	0x11	17
141	0xeb	-21
142	0xd8	-40
143	0x09	9
144	0x2c	44
145	0x03	3
146	0x01	1
147	0x09	9
148	0x3a	58
149	0xeb	-21
150	0xf6	-10
151	0x41	65
152	0x05	5
153	0x0b	11
154	0x3d	61
155	0xf2	-14
156	0x30	48
157	0x04	4
158	0xe3	-29
159	0xd8	-40
160	0x1e	30
161	0x43	67
162	0x01	1
163	0x36	54
164	0x10	16
165	0x1c	28
166	0x10	16
167	0xdb	-37
168	0x14	20
169	0xd4	-44
170	0xf9	-7
171	0x42	66
172	0xdf	-33
173	0x09	9
174	0xe4	-28
175	0x01	1
176	0xc1	-63
177	0xea	-22
178	0x0f	15
179	0xe1	-31
180	0x22	34
181	0x3f	63
182	0xdd	-35
183	0x3d	61
184	0x18	24
185	0xf9	-7
186	0xd3	-45
187	0xf9	-7
188	0xf0	-16
189	0x1b	27
190	0x13	19
191	0x0d	13
192	0x18	24
193	0xf2	-14
194	0x30	48
195	0x15	21
196	0xf3	-13
197	0x27	39
198	0x00	0
199	0xe5	-27
200	0x29	41
201	0x4b	75
202	0xbf	-65
203	0x03	3
204	0x02	2
205	0xc8	-56
206	0x0b	11
207	0x2a	42
208	0xe3	-29
209	0xdd	-35
210	0x00	0
211	0xea	-22
212	0xd2	-46
213	0xe9	-23
214	0x04	4
215	0x0d	13
216	0xfc	-4
217	0x00	0
218	0x13	19
219	0x04	4
220	0x26	38
221	0xd6	-42
222	0xf7	-9
223	0x81	-127
224	0x10	16
225	0x35	53
226	0x1c	28
227	0x32	50
228	0x22	34
229	0x24	36
230	0x1c	28
231	0x46	70
232	0x0a	10
233	0x40	64
234	0x22	34
235	0x30	48
236	0xe6	-26
237	0xf7	-9
238	0x97	-105
239	0xe5	-27
240	0xf8	-8
241	0xeb	-21
242	0x58	88
243	0xfb	-5
244	0x2d	45
245	0x3c	60
246	0xeb	-21
247	0x49	73
248	0xa4	-92
249	0x44	68
250	0x03	3
251	0x2f	47
252	0x0f	15
253	0x12	18
254	0x13	19
255	0xf3	-13

model/batch_normalization_15/FusedBatchNormV3;model/depthwise_conv2d_7/depthwise;model/depthwise_conv2d_11/depthwise i1 [1, 3, 3, 128]
0	0x00	0
1	0xf3	-13
2	0xfe	-2
3	0xfe	-2
4	0x20	32
5	0xf8	-8
6	0xf3	-13
7	0x0a	10
8	0x24	36
9	0xeb	-21
10	0xaf	-81
11	0xfb	-5
12	0x2c	44
13	0x05	5
14	0xf0	-16
15	0x02	2
16	0xf5	-11
17	0xfc	-4
18	0x02	2
19	0xfb	-5
20	0x0e	14
21	0x0d	13
22	0x09	9
23	0xd8	-40
24	0x18	24
25	0x17	23
26	0x18	24
27	0xf6	-10
28	0xee	-18
29	0xfc	-4
30	0xfd	-3
31	0x1b	27
32	0xfe	-2
33	0xf3	-13
34	0x1b	27
35	0xdf	-33
36	0x3a	58
37	0xf9	-7
38	0xf4	-12
39	0xf9	-7
40	0x19	25
41	0x1e	30
42	0xde	-34
43	0x03	3
44	0x02	2
45	0xe0	-32
46	0xe2	-30
47	0xd6	-42
48	0xf2	-14
49	0x03	3
50	0xbf	-65
51	0xa9	-87
52	0xf5	-11
53	0xb5	-75
54	0xfb	-5
55	0xfe	-2
56	0xe9	-23
57	0xff	-1
58	0xff	-1
59	0xe1	-31
60	0x09	9
61	0xfc	-4
62	0xfc	-4
63	0xf2	-14
64	0xf0	-16
65	0xef	-17
66	0xf8	-8
67	0xf1	-15
68	0xe3	-29
69	0x0e	14
70	0xfc	-4
71	0x01	1
72	0x08	8
73	0x00	0
74	0xbd	-67
75	0xde	-34
76	0x06	6
77	0x0c	12
78	0xe3	-29
79	0xf7	-9
80	0xc5	-59
81	0x0f	15
82	0xec	-20
83	0xf6	-10
84	0x09	9
85	0xf2	-14
86	0xb6	-74
87	0x05	5
88	0x07	7
89	0x1b	27
90	0x11	17
91	0xfe	-2
92	0xba	-70
93	0x04	4
94	0xf5	-11
95	0xfa	-6
96	0xf1	-15
97	0x01	1
98	0x03	3
99	0xd4	-44
100	0x25	37
101	0xec	-20
102	0xee	-18
103	0xfe	-2
104	0xf7	-9
105	0xd8	-40
106	0xc7	-57
107	0x90	-112
108	0xed	-19
109	0xdf	-33
110	0xe6	-26
111	0x0d	13
112	0xf9	-7
113	0xf7	-9
114	0x0e	14
115	0xfe	-2
116	0xe5	-27
117	0x1a	26
118	0xf2	-14
119	0x01	1
120	0xfc	-4
121	0x02	2
122	0xf5	-11
123	0xb4	-76
124	0xfd	-3
125	0x00	0
126	0x06	6
127	0x06	6
128	0x8d	-115
129	0xd2	-46
130	0x26	38
131	0xf3	-13
132	0x7c	124
133	0x3d	61
134	0xe0	-32
135	0xf1	-15
136	0x00	0
137	0xb6	-74
138	0x97	-105
139	0x24	36
140	0x39	57
141	0xf3	-13
142	0x7f	127
143	0x2e	46
144	0xb9	-71
145	0x1b	27
146	0x08	8
147	0xd0	-48
148	0x13	19
149	0xd0	-48
150	0x72	114
151	0xbe	-66
152	0x9e	-98
153	0xbd	-67
154	0xf3	-13
155	0xf2	-14
156	0xf0	-16
157	0x7f	127
158	0x03	3
159	0xd6	-42
160	0xd6	-42
161	0x0f	15
162	0xe2	-30
163	0x3f	63
164	0x7f	127
165	0x07	7
166	0x7f	127
167	0x16	22
168	0x3e	62
169	0xe5	-27
170	0xeb	-21
171	0x81	-127
172	0xb0	-80
173	0x8e	-114
174	0xfd	-3
175	0xf3	-13
176	0xd3	-45
177	0xd8	-40
178	0xce	-50
179	0xe0	-32
180	0x03	3
181	0x0d	13
182	0x51	81
183	0xcf	-49
184	0x03	3
185	0xfe	-2
186	0x2f	47
187	0x81	-127
188	0x20	32
189	0xf0	-16
190	0xd3	-45
191	0x83	-125
192	0x7f	127
193	0xfa	-6
194	0xd7	-41
195	0x0d	13
196	0x17	23
197	0x09	9
198	0xef	-17
199	0x7f	127
200	0x0a	10
201	0x81	-127
202	0x13	19
203	0x39	57
204	0x7f	127
205	0x7f	127
206	0x7f	127
207	0x04	4
208	0x32	50
209	0x30	48
210	0xc3	-61
211	0xa1	-95
212	0xc8	-56
213	0xdc	-36
214	0xe4	-28
215	0x0d	13
216	0xd1	-47
217	0x7f	127
218	0xde	-34
219	0x18	24
220	0x7f	127
221	0x9b	-101
222	0x11	17
223	0xf5	-11
224	0xb4	-76
225	0x09	9
226	0xf2	-14
227	0x90	-112
228	0x7f	127
229	0x61	97
230	0xfd	-3
231	0x66	102
232	0xad	-83
233	0x27	39
234	0x2b	43
235	0xe7	-25
236	0x81	-127
237	0x7f	127
238	0x03	3
239	0x0d	13
240	0xe3	-29
241	0xf4	-12
242	0xe1	-31
243	0xf9	-7
244	0x44	68
245	0xf2	-14
246	0x13	19
247	0x0d	13
248	0x01	1
249	0xeb	-21
250	0xe5	-27
251	0x8f	-113
252	0xf9	-7
253	0xef	-17
254	0xcc	-52
255	0x14	20

model/conv2d_8/Conv2D i1 [128, 1, 1, 128]
0	0xba	-70
1	0xe7	-25
2	0xbf	-65
3	0x20	32
4	0x04	4
5	0xbf	-65
6	0xfa	-6
7	0x27	39
8	0x09	9
9	0x1b	27
10	0x19	25
11	0xd7	-41
12	0x0e	14
13	0x92	-110
14	0x0d	13
15	0x06	6
16	0xa3	-93
17	0xd7	-41
18	0xd9	-39
19	0xd4	-44
20	0x50	80
21	0xcb	-53
22	0xee	-18
23	0xd7	-41
24	0xfa	-6
25	0x12	18
26	0x40	64
27	0x68	104
28	0x05	5
29	0xf6	-10
30	0x17	23
31	0x81	-127
32	0x2c	44
33	0xe3	-29
34	0xe6	-26
35	0xc1	-63
36	0xfb	-5
37	0xf8	-8
38	0x05	5
39	0xf9	-7
40	0x01	1
41	0x4d	77
42	0xc6	-58
43	0xf1	-15
44	0xf3	-13
45	0xf5	-11
46	0x0d	13
47	0xc2	-62
48	0x39	57
49	0x71	113
50	0x00	0
51	0xf6	-10
52	0x09	9
53	0x2b	43
54	0xba	-70
55	0xfd	-3
56	0x19	25
57	0x0b	11
58	0x1f	31
59	0xcc	-52
60	0x75	117
61	0x0f	15
62	0xe3	-29
63	0xeb	-21
64	0xf9	-7
65	0xe2	-30
66	0xc8	-56
67	0x49	73
68	0x59	89
69	0x0a	10
70	0x23	35
71	0x4a	74
72	0x06	6
73	0xe4	-28
74	0xe7	-25
75	0x15	21
76	0x29	41
77	0xf8	-8
78	0x05	5
79	0xf9	-7
80	0x0c	12
81	0x34	52
82	0xfe	-2
83	0xf9	-7
84	0xf9	-7
85	0xb8	-72
86	0x00	0
87	0xd9	-39
88	0x43	67
89	0x06	6
90	0x43	67
91	0x00	0
92	0xed	-19
93	0x1f	31
94	0xf9	-7
95	0xed	-19
96	0x1a	26
97	0xcf	-49
98	0xe6	-26
99	0x32	50
100	0xdb	-37
101	0x0d	13
102	0xe4	-28
103	0xed	-19
104	0xec	-20
105	0xfa	-6
106	0xf1	-15
107	0x32	50
108	0xed	-19
109	0xba	-70
110	0x48	72
111	0x10	16
112	0x20	32
113	0xcb	-53
114	0xf4	-12
115	0xbf	-65
116	0x19	25
117	0xc6	-58
118	0x33	51
119	0x1d	29
120	0x09	9
121	0xd8	-40
122	0x2e	46
123	0xf1	-15
124	0xf7	-9
125	0xb5	-75
126	0xe3	-29
127	0xd7	-41
128	0x02	2
129	0x01	1
130	0xeb	-21
131	0x08	8
132	0x11	17
133	0xfc	-4
134	0x29	41
135	0xf0	-16
136	0x1e	30
137	0xf5	-11
138	0xf6	-10
139	0xfa	-6
140	0xec	-20
141	0x12	18
142	0x00	0
143	0x08	8
144	0xd2	-46
145	0x27	39
146	0xce	-50
147	0x08	8
148	0x07	7
149	0x05	5
150	0x0a	10
151	0x17	23
152	0xf4	-12
153	0x06	6
154	0x13	19
155	0xfd	-3
156	0x0c	12
157	0xbd	-67
158	0x0a	10
159	0x04	4
160	0xea	-22
161	0x08	8
162	0xef	-17
163	0xda	-38
164	0xf1	-15
165	0x04	4
166	0xcc	-52
167	0x22	34
168	0x0a	10
169	0x25	37
170	0x1b	27
171	0x0d	13
172	0xf4	-12
173	0x16	22
174	0xd6	-42
175	0xe4	-28
176	0x1a	26
177	0xd3	-45
178	0x06	6
179	0xfc	-4
180	0x27	39
181	0xdc	-36
182	0xe6	-26
183	0x0d	13
184	0xfb	-5
185	0x13	19
186	0x10	16
187	0xf4	-12
188	0xd9	-39
189	0x1e	30
190	0x02	2
191	0x2a	42
192	0xfc	-4
193	0xf7	-9
194	0x3a	58
195	0xf4	-12
196	0x4c	76
197	0x10	16
198	0x08	8
199	0x07	7
200	0x0f	15
201	0xf9	-7
202	0x1d	29
203	0x27	39
204	0x05	5
205	0x03	3
206	0x05	5
207	0x0b	11
208	0x02	2
209	0x1b	27
210	0x11	17
211	0xff	-1
212	0xe6	-26
213	0x21	33
214	0xe6	-26
215	0x09	9
216	0xf5	-11
217	0x30	48
218	0xfd	-3
219	0x10	16
220	0x08	8
221	0x17	23
222	0x0a	10
223	0xec	-20
224	0x14	20
225	0xd9	-39
226	0x30	48
227	0xfb	-5
228	0x10	16
229	0xeb	-21
230	0x02	2
231	0xfc	-4
232	0x16	22
233	0xfc	-4
234	0x02	2
235	0x02	2
236	0x2a	42
237	0xe2	-30
238	0x00	0
239	0xf7	-9
240	0x81	-127
241	0x02	2
242	0xeb	-21
243	0x23	35
244	0xf7	-9
245	0x22	34
246	0xfc	-4
247	0x35	53
248	0x07	7
249	0xd0	-48
250	0x1c	28
251	0xe9	-23
252	0xed	-19
253	0xf7	-9
254	0xef	-17
255	0xee	-18

model/batch_normalization_17/FusedBatchNormV3;model/depthwise_conv2d_8/depthwise;model/depthwise_conv2d_11/depthwise i1 [1, 3, 3, 128]
0	0xfc	-4
1	0x1b	27
2	0x31	49
3	0xe9	-23
4	0xec	-20
5	0x16	22
6	0x4a	74
7	0x48	72
8	0xf2	-14
9	0xd8	-40
10	0xfc	-4
11	0x14	20
12	0x11	17
13	0x82	-126
14	0xe6	-26
15	0xed	-19
16	0xf9	-7
17	0xee	-18
18	0xe7	-25
19	0xc7	-57
20	0x2b	43
21	0x1b	27
22	0x2c	44
23	0xe8	-24
24	0x44	68
25	0x06	6
26	0xfb	-5
27	0xe4	-28
28	0xb9	-71
29	0xf3	-13
30	0xf6	-10
31	0xfb	-5
32	0x0e	14
33	0x0b	11
34	0xe0	-32
35	0x7f	127
36	0xf4	-12
37	0x01	1
38	0x14	20
39	0xdb	-37
40	0x12	18
41	0xe1	-31
42	0xee	-18
43	0x0b	11
44	0x14	20
45	0x19	25
46	0xd3	-45
47	0xec	-20
48	0xe6	-26
49	0xfa	-6
50	0x81	-127
51	0xf8	-8
52	0xe6	-26
53	0xdc	-36
54	0xeb	-21
55	0x4f	79
56	0x03	3
57	0xe0	-32
58	0xf4	-12
59	0xab	-85
60	0xe2	-30
61	0xf6	-10
62	0x0b	11
63	0x1b	27
64	0x18	24
65	0xe9	-23
66	0xe7	-25
67	0xfd	-3
68	0xf3	-13
69	0x05	5
70	0xa9	-87
71	0xd4	-44
72	0xcd	-51
73	0xea	-22
74	0xec	-20
75	0x1d	29
76	0xfc	-4
77	0x1d	29
78	0xf5	-11
79	0xa4	-92
80	0x0e	14
81	0x15	21
82	0xdf	-33
83	0xd5	-43
84	0xff	-1
85	0xcd	-51
86	0x08	8
87	0x0d	13
88	0xfe	-2
89	0xfd	-3
90	0xeb	-21
91	0x51	81
92	0xfd	-3
93	0xf8	-8
94	0x03	3
95	0xea	-22
96	0xaf	-81
97	0xe0	-32
98	0xe9	-23
99	0xfd	-3
100	0xe8	-24
101	0x28	40
102	0xe8	-24
103	0xc0	-64
104	0x07	7
105	0xd2	-46
106	0xe8	-24
107	0xf3	-13
108	0x4b	75
109	0x81	-127
110	0xfc	-4
111	0xcf	-49
112	0x14	20
113	0xf5	-11
114	0xd2	-46
115	0xe1	-31
116	0xf0	-16
117	0x0a	10
118	0x01	1
119	0xd9	-39
120	0x06	6
121	0xe8	-24
122	0x1d	29
123	0xfc	-4
124	0x19	25
125	0xba	-70
126	0xed	-19
127	0x27	39
128	0x7f	127
129	0x03	3
130	0x26	38
131	0xba	-70
132	0x11	17
133	0xfe	-2
134	0x31	49
135	0x34	52
136	0x0b	11
137	0xa8	-88
138	0xe2	-30
139	0x23	35
140	0xf1	-15
141	0x37	55
142	0x0e	14
143	0x28	40
144	0xed	-19
145	0xf3	-13
146	0x7f	127
147	0xaa	-86
148	0x24	36
149	0xe5	-27
150	0xd3	-45
151	0xe0	-32
152	0x36	54
153	0x7f	127
154	0x11	17
155	0xd1	-47
156	0x81	-127
157	0x01	1
158	0xf4	-12
159	0x4e	78
160	0x1c	28
161	0x97	-105
162	0xfa	-6
163	0x05	5
164	0xdf	-33
165	0x01	1
166	0xd3	-45
167	0xe9	-23
168	0xf6	-10
169	0x37	55
170	0x43	67
171	0x0f	15
172	0xef	-17
173	0x35	53
174	0x15	21
175	0x0e	14
176	0xf9	-7
177	0x81	-127
178	0xcd	-51
179	0xf6	-10
180	0xde	-34
181	0xdd	-35
182	0xb8	-72
183	0x73	115
184	0x30	48
185	0xc3	-61
186	0xc1	-63
187	0x9c	-100
188	0xdf	-33
189	0xdd	-35
190	0x3b	59
191	0xbb	-69
192	0x39	57
193	0x7f	127
194	0x0e	14
195	0x0b	11
196	0x3d	61
197	0xf8	-8
198	0x98	-104
199	0x33	51
200	0x90	-112
201	0x03	3
202	0xec	-20
203	0xe3	-29
204	0x7f	127
205	0x00	0
206	0xf3	-13
207	0x19	25
208	0xe8	-24
209	0x4b	75
210	0x1d	29
211	0xe0	-32
212	0x29	41
213	0xe4	-28
214	0x81	-127
215	0xae	-82
216	0xbf	-65
217	0xe1	-31
218	0x15	21
219	0x5f	95
220	0xe4	-28
221	0xd6	-42
222	0xba	-70
223	0xbc	-68
224	0x50	80
225	0xdf	-33
226	0x1a	26
227	0xc5	-59
228	0x7f	127
229	0x0f	15
230	0xd1	-47
231	0x81	-127
232	0x36	54
233	0xc3	-61
234	0x02	2
235	0xde	-34
236	0x7f	127
237	0x82	-126
238	0xff	-1
239	0x58	88
240	0x81	-127
241	0x81	-127
242	0x05	5
243	0xfa	-6
244	0xd3	-45
245	0x7f	127
246	0xea	-22
247	0xb9	-71
248	0xda	-38
249	0xfd	-3
250	0xd2	-46
251	0x47	71
252	0xed	-19
253	0xdb	-37
254	0x28	40
255	0x26	38
