tools/tflite/mnist_resnet_f.tflite (tflite, 93936 bytes, 10 tensors)

relu0/Relu;FusedBatchNormV3;ftr0/bias;ftr0/BiasAdd;ftr0/Conv2D f4 [12]
-0.6222687 0.51402193 0.42330357 0.14775866 -0.24667212 0.4108373 -0.24113691 0.14235878
0.7108059 -0.069024324 0.43457147 -0.510565
00000000: 004d 1fbf f196 033f 3fbb d83e 0c4e 173e
00000010: 9e97 7cbe 4459 d23e 98ec 76be 80c6 113e
00000020: 60f7 353f a05c 8dbd 2780 de3e 63b4 02bf

relu1/Relu;FusedBatchNormV3;ftr1/bias;ftr1/BiasAdd;ftr2/Conv2D;ftr1/Conv2D f4 [24]
0.3625418 -0.09506253 0.4859541 -0.22622852 0.37975314 0.282908 -0.1397678 0.22760223
-0.09026826 0.37109375 -0.26062214 0.44378263 0.102378555 -0.030033715 0.14351952 0.012579982
0.19588086 0.19514999 0.9041785 0.5552978 0.55237603 -0.15190019 0.050188746 0.037487015
00000000: 149f b93e 25b0 c2bd face f83e 73a8 67be
00000010: 016f c23e 51d9 903e 4a1f 0fbe 8f10 693e
00000020: 91de b8bd 0000 be3e 4470 85be 7a37 e33e
00000030: d9ab d13d 4409 f6bc c8f6 123e 451c 4e3c
00000040: fe94 483e 66d5 473e 3e78 673f ff27 0e3f
00000050: 8468 0d3f b98b 1bbe b792 4d3d fc8b 193d

FusedBatchNormV3;ftr2/bias;ftr2/BiasAdd f4 [24]
-1.1425107 0.5079329 -2.096947 -0.6173977 0.36051238 -0.6865225 0.81917703 0.50062144
-0.51758087 -0.36286047 -0.27291125 -1.3932111 -1.3611362 0.15291996 -0.9978426 -0.40409142
-0.40954164 0.1802463 -0.07698406 -0.27731103 -0.1831317 0.3373733 -0.8250561 0.94929695
00000000: ca3d 92bf e407 023f 6134 06c0 c70d 1ebf
00000010: 1495 b83e f0bf 2fbf 96b5 513f ba28 003f
00000020: 2e80 04bf d9c8 b9be 06bb 8bbe be54 b2bf
00000030: b639 aebf 0d97 1c3e 9d72 7fbf 12e5 cebe
00000040: 71af d1be 7c92 383e d2a9 9dbd b6fb 8dbe
00000050: e086 3bbe 31bc ac3e e036 53bf 2005 733f

ftr3/bias f4 [48]
-0.117040634 0.017669389 -0.008553357 -0.052477125 0.04386417 -0.06016232 -0.060390543 -0.0020823246
0.0246104 -0.0064223316 0.016615788 -0.017645042 -0.017469885 -0.048435498 0.017022701 0.043003272
-0.05214524 0.089406915 -0.008898401 -0.012071301 0.104982115 0.03844908 0.044653725 -0.13592608
0.06269399 -0.054660432 -0.03999745 0.10032878 0.0027063382 0.093584985 -0.043738488 -0.055619445
0.04019981 0.008752997 0.042669475 -0.019768348 -0.103183724 0.080902725 -0.026320446 0.030904694
-0.010846021 -0.04689667 0.04684952 0.07074313 -0.04393093 0.04437307 0.016580774 0.032958206
00000000: 00b3 efbd 65bf 903c 6123 0cbc 41f2 56bd
00000010: eaaa 333d c46c 76bd 135c 77bd 9c77 08bb
00000020: c09b c93c 6c72 d2bb d51d 883c 568c 90bc
00000030: 011d 8fbc 4d64 46bd 3173 8b3c 3324 303d
00000040: 3f96 55bd f91a b73d 99ca 11bc b5c6 45bc
00000050: dd00 d73d c87c 1d3d d3e6 363d 3530 0bbe
00000060: b565 803d 9ee3 5fbd 5ed4 23bd 2d79 cd3d
00000070: d25c 313b 7ca9 bf3d 2127 33bd 37d1 63bd
00000080: 8ea8 243d bb68 0f3c 30c6 2e3d 3bf1 a1bc
00000090: fd51 d3bd 54b0 a53d fa9d d7bc d72b fd3c
000000a0: 82b3 31bc b916 40bd 48e5 3f3d c6e1 903d
000000b0: ebf0 33bd 89c0 353d 67d4 873c 2fff 063d

ftr0/Conv2D f4 [12, 3, 3, 1]
-0.75544316 0.9227855 0.030534595 0.4139135 1.1184618 -1.6806184 -0.06321002 1.7495524
1.121682 0.40297619 0.37256017 -2.691325 1.2198023 0.037196685 -1.0966974 -0.08917259
-1.7429364 -0.3393984 -2.0415235 -1.7194369 -0.15905486 0.8563124 -0.074472964 -2.263328
0.8061876 0.95817155 0.058454696 -0.96624434 -1.7074134 -1.9398066 0.4791296 1.2778336
0.64606696 0.49648747 1.0493151 1.2072053 -0.14233421 -0.57936436 0.37880278 1.7329475
0.7667363 1.3697945 0.560057 -0.9498324 -1.1590621 -1.939112 -0.3081862 -0.16196686
0.07072382 0.9267936 2.4399142 -1.845521 -2.6437688 0.71981776 0.9789091 -2.5772781
-2.0380843 1.980212 0.7503604 -0.1792259 1.1640633 0.74493927 -0.7983162 2.5490158
-1.6349698 -0.583239 -1.3902957 -2.9254682 -0.006624578 -0.8797789 1.8847795 2.010765
-1.2563071 0.6437658 1.9191653 -0.31408522 -3.746433 -1.2032895 1.7800959 0.45276675
-1.1016253 0.33774558 2.4052708 1.3074318 -0.5854648 -0.2873279 1.1312878 -1.9252048
-0.06692443 -0.6570861 1.7125562 0.41960183 -0.80947924 -0.5618686 -1.4298705 -1.1688367
-2.0369022 -0.35983416 0.62425077 0.31730366 0.47531998 -0.526727 0.6370141 0.7806312
0.3434241 0.21605553 0.6838856 -0.5878461
00000000: b964 41bf ac3b 6c3f b023 fa3c 78ec d33e
00000010: c229 8f3f 811e d7bf 4174 81bd 55f1 df3f
00000020: 4793 8f3f e552 ce3e 35c0 be3e ab3e 2cc0
00000030: 7b22 9c3f 8d5b 183d 9560 8cbf 1ea0 b6bd
00000040: 8a18 dfbf a1c5 adbe 52a8 02c0 8216 dcbf
00000050: 47df 22be 4a37 5b3f 4885 98bd 5eda 10c0
00000060: 5062 4e3f bb4a 753f 316e 6f3d ca5b 77bf
00000070: 868c dabf 954b f8bf 7a50 f53e 0d90 a33f
00000080: a564 253f 9b33 fe3e f54f 863f b485 9a3f
00000090: 0fc0 11be 3951 14bf 70f2 c13e 39d1 dd3f
000000a0: d548 443f 6d55 af3f e55f 0f3f 3728 73bf
000000b0: 265c 94bf d234 f8bf 95ca 9dbe a4da 25be
000000c0: a6d7 903d 5842 6d3f 8e27 1c40 083a ecbf
000000d0: 8233 29c0 fa45 383f c999 7a3f 20f2 24c0
000000e0: f96f 02c0 9677 fd3f 9f17 403f ff86 37be
000000f0: 0700 953f 57b4 3e3f 735e 4cbf 1323 2340
00000100: b146 d1bf 274f 15bf 36f5 b1bf df3a 3bc0
00000110: fd12 d9bb 3139 61bf 7440 f13f 60b0 0040
00000120: acce a0bf d6cd 243f 35a7 f53f c7cf a0be
00000130: 8fc5 6fc0 6405 9abf 2fda e33f 0bd1 e73e
00000140: 0f02 8dbf fdec ac3e f5ef 1940 ed59 a73f
00000150: 05e1 15bf a41c 93be 0ace 903f 1c6d f6bf
00000160: ad0f 89bd cb36 28bf 0b35 db3f 0dd6 d63e
00000170: 083a 4fbf 9fd6 0fbf ff05 b7bf 719c 95bf
00000180: 9b5c 02c0 2f3c b8be e6ce 1f3f a075 a23e
00000190: 245d f33e 95d7 06bf 5b13 233f 72d7 473f
000001a0: 49d5 af3e a93d 5d3e 2013 2f3f 157d 16bf

ftr1/Conv2D f4 [24, 3, 3, 12]
-0.021247478 0.08476554 -0.15153277 0.07322904 -0.2046885 -0.13232574 -0.13299388 0.051809315
0.024925478 0.014081032 0.041304685 -0.034459587 -0.0071419524 0.020466529 -0.1105184 -0.04549671
-0.026527043 -0.047746755 -0.11647621 0.19207259 -0.2245095 0.01805681 -0.0031066674 -0.08611809
-0.010700414 -0.011746521 -0.10030851 -0.031649593 0.054598864 0.057995178 -0.01826459 0.07301954
-0.038214564 0.09313135 0.18376733 0.013066586 -0.16526471 -0.014285091 0.0389282 -0.1539604
-0.14421128 0.014536566 0.081767276 -0.34697428 0.111654915 0.07707026 -0.20522116 -0.07711676
-0.19693469 -0.00052124675 0.029973503 -0.1411444 0.058990397 0.22472242 -0.14487712 0.04290637
-0.1908971 -0.06138883 0.12107225 -0.002318475 -0.05179206 0.035376176 0.15578903 0.1008274
-0.018525735 0.009614065 -0.16444801 0.09353718 -0.05628888 0.02179937 0.1295907 -0.00407189
-0.19519854 -0.04516811 -0.051813833 -0.023941495 -0.067289166 0.04555051 -0.11876332 -0.069245875
0.11944914 -0.051361024 -0.13858344 -0.16363123 -0.027814345 0.0043702167 0.04621761 0.0059682117
0.008599793 -0.12839776 -0.0349121 -0.019858051 0.12650831 -0.20778209 0.12529583 -0.14887056
-0.06860743 -0.1250408 0.08718136 0.18567492 0.022574026 -0.11887539 -0.06089142 0.061583254
0.08407242 0.09906747 0.1371218 -0.06387079 0.05515341 -0.085476525 0.034203954 0.074687965
0.043680772 -0.07301842 0.008548711 0.066108845 0.0010000926 0.17610604 -0.017360564 0.012982462
-0.009958473 -0.18590234 0.04104578 0.044813026 -0.10413188 0.015785703 0.15335684 0.008262142
-0.09132603 0.10594906 0.10070309 -0.051983375 -0.022331875 -0.064078115 0.0008018585 -0.0535333
0.070098154 -0.07839117 0.12298949 0.09227501 -0.046160117 0.0660764 -0.10235055 0.040768344
0.030482322 -0.34107637 -0.025318842 -0.037531886 0.014794612 0.008263601 0.02289626 -0.110951066
-0.052228507 0.028380679 0.20472376 0.07923037 0.01508241 -0.19857517 0.1424173 0.1288943
-0.041610133 -0.011725832 0.09753214 0.064090565 -0.039837915 0.03380015 -0.12665108 -0.02202504
-0.012240896 -0.092498414 -0.050350264 0.08690314 0.010221948 0.047864705 0.15644702 0.21328983
-0.10251116 0.009044166 0.10829137 -0.030008128 0.01763509 -0.04825007 -0.09935589 0.1141596
0.037380055 0.019710524 -0.041347153 -0.082383 -0.028972762 0.012552278 0.01771206 -0.021630462
-0.018595954 0.04414856 -0.058439646 0.03312056 0.096842244 -0.13337685 -0.09466197 0.020113917
-0.11339674 -0.05571293 0.013986212 -0.02194277 -0.0855929 -0.044753816 0.15708011 0.002589997
-0.07715547 0.067815654 -0.0783447 0.15870343 -0.033546112 -0.015918303 0.0156181995 -0.03672842
-0.0017819166 0.08663402 -0.16501269 -0.096078396 -0.035424545 0.053646218 -0.06213566 0.0009070971
0.065145075 0.08878392 -0.08500329 0.08393025 -0.08395206 -0.04343663 0.021667255 -0.011636161
-0.0418909 -0.11477247 -0.09913336 0.104571715 0.10347528 -0.02599508 -0.03874463 -0.0006200607
0.0070353523 0.08120062 0.059956644 -0.11153567 -0.07909147 0.014206494 0.010196789 0.14426327
-0.09094038 -0.03522191 0.108410574 -0.08141849 0.035739146 0.06734152 -0.10121696 -0.15379213
00000000: 310f aebc 8e99 ad3d 682b 1bbe 1bf9 953d
00000010: dd99 51be 6680 07be 8c2f 08be 0136 543d
00000020: 8430 cc3c 21b4 663c 1a2f 293d 7f25 0dbd
00000030: 0a07 eabb 6ca9 a73c 7957 e2bd c25a 3abd
00000040: 3e4f d9bc 1a92 43bd 148b eebd adae 443e
00000050: d2e5 65be e0eb 933c 3b99 4bbb ae5e b0bd
00000060: ca50 2fbc 7b74 40bc 8c6e cdbd 01a3 01bd
00000070: 0fa3 5f3d 5a8c 6d3d 9f9f 95bc 458b 953d
00000080: e086 1cbd a6bb be3d 812d 3c3e 3c15 563c
00000090: 273b 29be 040c 6abc 2d73 1f3d cca7 1dbe
000000a0: 1fac 13be c72a 6e3c 9a75 a73d 9da6 b1be
000000b0: 55ab e43d 03d7 9d3d 7f25 52be 64ef 9dbd
000000c0: 3fa9 49be 47a4 08ba fe8a f53c 2888 10be
000000d0: ea9f 713d a21d 663e ab5a 14be 97be 2f3d
000000e0: 887a 43be db72 7bbd baf4 f73d 8ef1 17bb
000000f0: e923 54bd 9ce6 103d 2987 1f3e 997e ce3d
00000100: 48c3 97bc 5084 1d3c 0f65 28be 6c90 bf3d
00000110: 2b8f 66bd 9894 b23c 6db3 043e 7d6d 85bb
00000120: 20e2 47be 3202 39bd be3a 54bd f420 c4bc
00000130: e7ce 89bd 2c93 3a3d 2f3a f3bd c8d0 8dbd
00000140: c0a1 f43d f05f 52bd d1e8 0dbe f28e 27be
00000150: e9da e3bc 0934 8f3b ad4e 3d3d fd90 c33b
00000160: 25e6 0c3c b47a 03be fdff 0ebd 5aad a2bc
00000170: 658b 013e d4c4 54be 8d4d 003e 8671 18be
00000180: 0d82 8cbd b20a 00be 248c b23d 9121 3e3e
00000190: 2aed b83c f174 f3bd 4869 79bd b93e 7c3d
000001a0: 292e ac3d e3e3 ca3d a869 0c3e b0ce 82bd
000001b0: 8be8 613d 510e afbd 7219 0c3d 01f6 983d
000001c0: 9cea 323d ae8a 95bd e50f 0c3c 1364 873d
000001d0: 8a15 833a 2455 343e be37 8ebc 64b4 543c
000001e0: dd28 23bc 2f5d 3ebe 9f1f 283d dd8d 373d
000001f0: 1843 d5bd 0551 813c 9309 1d3e ef5d 073c
00000200: 2409 bbbd d2fb d83d 6c3d ce3d 85ec 54bd
00000210: 56f1 b6bc 633b 83bd d033 523a bc45 5bbd
00000220: 9f8f 8f3d 8d8b a0bd eae1 fb3d aefa bc3d
00000230: 6412 3dbd 1053 873d 2a9d d1bd b5fc 263d
00000240: 10b6 f93c 90a1 aebe 7669 cfbc 09bb 19bd
00000250: 1a65 723c 0e64 073c f090 bb3c 503a e3bd
00000260: 8fed 55bd 997e e83c 1ba3 513e 8843 a23d
00000270: 361c 773c 4a57 4bbe d7d5 113e defc 033e
00000280: 636f 2abd b41d 40bc eebe c73d ea41 833d
00000290: 152d 23bd 0772 0a3d d2b0 01be db6d b4bc
000002a0: 0a8e 48bc cf6f bdbd 143c 4ebd 46fa b13d
000002b0: f579 273c c80d 443d a633 203e a668 5a3e
000002c0: 5ff1 d1bd fb2d 143c dec7 dd3d 9bd3 f5bc
000002d0: 7777 903c dea1 45bd 1a7b cbbd 82cc e93d
000002e0: d41b 193d f777 a13c a25b 29bd 6bb8 a8bd
000002f0: 4958 edbc 12a8 4d3c e218 913c 5e32 b1bc
00000300: 8b56 98bc 1fd5 343d 695e 6fbd 6da9 073d
00000310: 3a55 c63d f193 08be 23de c1bd f1c5 a43c
00000320: 8d3c e8bd 3e33 64bd 6d26 653c 53c1 b3bc
00000330: 554b afbd c74f 37bd 9cd9 203e f0bc 293b
00000340: b003 9ebd efe2 8a3d 3073 a0bd 2783 223e
00000350: a667 09bd 1a67 82bc 7ae3 7f3c 8a70 16bd
00000360: 338f e9ba 2d6d b13d 16f9 28be c0c4 c4bd
00000370: 5419 11bd 23bc 5b3d f681 7ebd 42ca 6d3a
00000380: c86a 853d 58d4 b53d 3416 aebd 9fe3 ab3d
00000390: 0fef abbd 9cea 31bd 877f b13c 99a5 3ebc
000003a0: cb95 2bbd d40d ebbd 6e06 cbbd b229 d63d
000003b0: d9ea d33d a2f3 d4bc b0b2 1ebd 928b 22ba
000003c0: d088 e63b 834c a63d 1995 753d d06c e4bd
000003d0: b5fa a1bd 5bc2 683c 6f10 273c c0b9 133e
000003e0: f33e babd d944 10bd 5d06 de3d bdbe a6bd
000003f0: 3663 123d 5aea 893d d64a cfbd af7b 1dbe

ftr2/Conv2D f4 [24, 3, 3, 24]
-0.14089943 0.048388414 0.12895413 -0.02301001 -0.043388385 -0.049634527 -0.0101345 -0.16105969
-0.04543244 -0.028764749 -0.0912321 -0.040208504 -0.008921892 -0.07544557 0.084878445 0.028625991
-0.009689645 0.011758774 -0.0024685494 0.060692042 0.09249807 -0.05493342 -0.05245638 -0.008796167
0.03607821 -0.017312432 0.029546628 0.0102136 -0.023794511 -0.061111987 -0.008252491 -0.0292117
0.020252937 0.10094834 0.04950586 0.057307765 0.05754121 -0.12842894 -0.148365 0.09951953
0.17684208 0.00071574847 0.0801585 0.068419404 -0.025391828 -0.012377865 0.07225864 -0.04321058
0.027218426 0.0490823 -0.14680552 -0.15381138 0.096159264 0.07102899 -0.08446437 -0.021577029
0.08055862 -0.06550703 0.08909938 -0.08377752 -0.018848564 0.058080565 -0.17497459 -0.09117161
0.08501315 -0.013140503 -0.037819862 0.12152831 -0.11729577 -0.02798402 0.097159676 -0.10891071
0.08133231 0.07230203 0.07140944 0.10838181 0.04737879 0.051629573 0.14336428 0.1156495
0.04354388 -0.009139775 -0.0229293 0.11458891 0.103544295 5.8551457e-05 0.13811077 0.0645029
0.17801553 0.0008047826 -0.0090901675 0.0722275 -0.0115506835 -0.09573891 -0.14994691 0.05801676
0.14374936 -0.05294243 -0.037424978 -0.07137616 0.01641828 0.059025757 0.022724623 0.07878926
-0.054292213 0.062755525 0.17059264 0.0024267975 0.099265054 -0.11795441 -0.10520398 0.15160123
0.035799485 0.1428915 0.069333196 0.23267247 -0.072457746 0.13765867 0.14714581 0.067545265
0.09795053 0.10023525 0.08550754 0.060828544 -0.012455452 -0.062342845 -0.14183883 -0.05115113
-0.00899203 -0.01166999 0.07136442 0.0073499507 -0.0015911504 0.030975962 -0.09916044 0.0044556567
0.09524799 0.037705574 0.090416186 0.2039542 0.04433049 0.009911991 -0.11183365 -0.08450307
0.08661294 -0.09146084 -0.03459606 0.08789639 -0.15708312 0.08132597 0.06378044 -0.1726388
-0.012383514 0.087074935 0.06919253 0.0809843 0.19770017 -0.084438875 0.029617155 0.124287546
-0.042206742 -0.0054307873 -0.0005219593 0.032040663 0.002998072 0.13286002 -0.06279113 0.11334504
-0.008412648 -0.027686683 -0.0155107025 0.08095805 -0.06473461 0.011997299 -0.093023434 -0.05111789
0.03483472 -0.011979042 0.14988068 -0.11937287 0.27113006 0.009910848 0.06574211 0.1335413
-0.12831803 0.21674319 -0.04862187 0.114710465 -0.06307105 0.11234193 0.1305646 0.0089802835
0.061452772 0.041010752 -0.05213805 0.06520324 -0.0041366597 0.017540604 -0.12809566 -0.017602589
0.088246815 -0.033691075 -0.021992201 -0.111884184 0.08176341 -0.123440735 0.104464084 -0.06610035
0.088761024 0.010833782 0.1778118 0.023611723 0.03808133 0.08546692 -0.044456366 -0.08272978
0.10325008 0.07616057 -0.08189107 -0.10693261 0.100103766 0.013739797 -0.15211678 -0.04552686
-0.016515085 -0.008362681 -0.027375596 -0.064733714 -0.07720763 0.033206865 0.07777967 -0.027660271
0.13224109 -0.01611212 0.12536411 0.023605168 0.034084644 0.063920915 -0.036890205 -0.26958528
-0.0007494144 -0.07674659 -0.037307136 -0.075059116 0.07693022 -0.00048338663 -0.024942288 -0.019701362
-0.056801554 0.029108325 -0.032504443 -0.056905057 -0.028761785 0.11728897 0.117254004 -0.06990509
00000000: f147 10be ee32 463d 8d0c 043e 7d7f bcbc
00000010: 05b8 31bd 934d 4bbd 2d0b 26bc d5ec 24be
00000020: 5e17 3abd 0da4 ebbc e5d7 babd acb1 24bd
00000030: 212d 12bc 3583 9abd c0d4 ad3d 0e81 ea3c
00000040: 51c1 1ebc dfa7 403c 63c7 21bb 3898 783d
00000050: a16f bd3d de01 61bd 80dc 56bd cc1d 10bc
00000060: bfc6 133d cdd2 8dbc c50b f23c f156 273c
00000070: b5ec c2bc 9050 7abd 7535 07bc 604d efbc
00000080: 7de9 a53c 01be ce3d a8c6 4a3d 8cbb 6a3d
00000090: 55b0 6b3d e082 03be ffec 17be e5d0 cb3d
000000a0: 1716 353e 11a1 3b3a 242a a43d 791f 8c3d
000000b0: 8602 d0bc 87cc 4abc 56fc 933d 94fd 30bd
000000c0: 2df9 de3c 860a 493d 3054 16be bb80 1dbe
000000d0: 26ef c43d a677 913d a8fb acbd 4fc2 b0bc
000000e0: ebfb a43d 8d28 86bd bc79 b63d 8c93 abbd
000000f0: 4e68 9abc e3e5 6d3d 8a2c 33be 2eb8 babd
00000100: 601b ae3d 444b 57bc 00e9 1abd d6e3 f83d
00000110: c438 f0bd be3e e5bc a7fb c63d 940c dfbd
00000120: 8e91 a63d 1613 943d 1d3f 923d 48f7 dd3d
00000130: 4310 423d 8879 533d 16ce 123e a5d9 ec3d
00000140: 115b 323d ffbe 15bc 3ad6 bbbc 97ad ea3d
00000150: 080f d43d 2695 7538 e96c 0d3e 191a 843d
00000160: b449 363e 0cf8 523a edee 14bc 03ec 933d
00000170: 143f 3dbc c312 c4bd af8b 19be fba2 6d3d
00000180: 0833 133e 29da 58bd ef4a 19bd aa2d 92bd
00000190: a17f 863c fec4 713d fd28 ba3c 435c a13d
000001a0: 8361 5ebd f885 803d d6af 2e3e e80a 1f3b
000001b0: 7a4b cb3d 1592 f1bd 2f75 d7bd 5a3d 1b3e
000001c0: 7ba2 123d 2652 123e 90fe 8d3d b141 6e3e
000001d0: ba64 94bd 65f6 0c3e 64ad 163e 2c55 8a3d
000001e0: 4a9a c83d 2448 cd3d 941e af3d 5a27 793d
000001f0: f411 4cbc 365b 7fbd 333e 11be d983 51bd
00000200: 4f53 13bc 7c33 3fbc 8227 923d dbd7 f03b
00000210: 268e d0ba 4dc1 fd3c a114 cbbd c200 923b
00000220: 6111 c33d 2971 1a3d 1f2c b93d 5fd9 503e
00000230: e393 353d e765 223c 0a09 e5bd f20f adbd
00000240: 2062 b13d d24f bbbd 99b4 0dbd 0603 b43d
00000250: 66da 20be 3b8e a63d 529f 823d 3ac8 30be
00000260: 39e4 4abc 5854 b23d d0b4 8d3d 19db a53d
00000270: ea71 4a3e 4aee acbd ad9f f23c 788a fe3d
00000280: fae0 2cbd bff4 b1bb 18d4 08ba 123d 033d
00000290: 4d7b 443b 750c 083e a398 80bd 7221 e83d
000002a0: 34d5 09bc 2fcf e2bc 9a20 7ebc 56cd a53d
000002b0: 9493 84bd 5290 443c 1283 bebd fe60 51bd
000002c0: daae 0e3d be43 44bc 527a 193e c379 f4bd
000002d0: 8fd1 8a3e 1c61 223c cda3 863d 0dbf 083e
000002e0: cd65 03be edf1 5d3e ba27 47bd 52ed ea3d
000002f0: 652b 81bd 8713 e63d bab2 053e 0a22 133c
00000300: e7b5 7b3d e4fa 273d b58e 55bd 4789 853d
00000310: d18c 87bb 50b1 8f3c 822b 03be 4e33 90bc
00000320: bfba b43d a7ff 09bd fd28 b4bc 8923 e5bd
00000330: 9373 a73d 7fce fcbd 44f1 d53d 9f5f 87bd
00000340: 57c8 b53d 2d80 313c 4c14 363e 5f6d c13c
00000350: 2bfb 1b3d 4809 af3d e117 36bd 3b6e a9bd
00000360: c774 d33d 13fa 9b3d 81b6 a7bd 7cff dabd
00000370: 3403 cd3d e31c 613c 80c4 1bbe 5f7a 3abd
00000380: a54a 87bc a003 09bc c942 e0bc 1c93 84bd
00000390: 091f 9ebd ec03 083d f34a 9f3d cb97 e2bc
000003a0: 356a 073e 91fd 83bc 735f 003e a05f c13c
000003b0: 579c 0b3d f8e8 823d 2f1a 17bd 1507 8abe
000003c0: 5974 44ba 512d 9dbd 5ecf 18bd 98b8 99bd
000003d0: 978d 9d3d 0e6f fdb9 c553 ccbc c064 a1bc
000003e0: bfa8 68bd 9574 ee3c 6123 05bd 4715 69bd
000003f0: d69d ebbc 3335 f03d de22 f03d 662a 8fbd

ftr3/Conv2D f4 [48, 3, 3, 24]
-0.13575096 0.10428503 -0.15241967 -0.00018948203 0.004989702 0.13152647 -0.01961521 -0.007560824
0.11114951 0.12802601 0.082985856 -0.053446658 0.3271335 0.03702672 0.059466533 0.062361542
0.054484144 0.09505306 -0.061705064 -0.037984733 -0.041077707 -0.13465239 -0.26138902 -0.08228449
-0.024199288 0.03881123 -0.19295694 0.18507588 -0.2097375 0.16090491 -0.15389164 0.15513523
-0.07197617 -0.12856376 -0.09015803 0.12743181 0.033114325 0.15190908 0.12920032 -0.12663664
-0.07894381 0.15709871 0.1362528 -0.007997685 0.027578639 -0.037858605 -0.07256013 7.3869014e-05
-0.0116296355 0.18733142 -0.26081318 0.2693356 0.030325424 -0.012489761 -0.05341947 -0.0312485
-0.13725385 0.025245067 0.19820428 -0.114178784 0.089055225 0.060494985 0.03634076 0.014382757
0.096744396 -0.152087 -0.016449943 -0.07760178 0.006800185 -0.11103096 -0.14078087 -0.10188872
0.08618588 0.18651363 -0.00032441283 -0.075104624 -0.14135344 -0.039319173 0.068137124 -0.19317819
-0.017388357 0.034007616 -0.023169823 -0.026453631 0.08814591 0.06419878 -0.054542113 -0.20687462
0.04043078 -0.023952661 0.021622196 -0.06885819 -0.16314101 -0.23564553 0.17596434 0.052322615
-0.04383114 -0.04249853 0.104054905 0.06208146 -0.05102272 -0.036655344 -0.0814611 0.05410039
0.24667156 0.16449313 0.06613304 0.21710397 0.23449555 -0.014281985 0.055125836 -0.12223947
0.09065419 0.04327184 -0.24377309 -0.11429841 0.04253954 0.019590937 0.172222 0.0110578
-0.083468996 -0.039507847 0.23367025 0.062229868 -0.047093723 -0.023225198 0.10280141 -0.09522528
0.048153944 0.14660026 0.04634563 0.052570034 0.11604152 0.036755543 0.16977385 -0.04365698
0.0150329955 -0.23985976 0.015930006 -0.07156275 -0.16815743 -0.040418386 -0.00812043 0.018900264
0.2221773 -0.19464727 0.029534003 0.13765681 -0.1804723 0.028414497 -0.051884245 -0.12061722
0.17796823 -0.11006559 -0.07737073 -0.14745787 0.020981677 0.120933115 0.07010563 0.11578002
-0.0021866106 0.08506046 -0.0043360847 -0.055272747 0.045564834 -0.25697416 0.18506289 -0.22171503
-0.0489092 0.098218344 0.15230365 -0.036657568 -0.115189314 0.17588924 0.03365485 0.07288442
0.14632614 0.030250587 0.0036246544 -0.12285275 0.19665919 0.087630406 0.17177545 -0.10383239
-0.03873425 0.23339267 0.022148129 0.16521578 -0.15093552 -0.12057611 0.12572293 0.10139516
-0.08789388 -0.06531749 0.13262701 -0.055299595 -0.017251756 0.02124594 -0.12024948 0.14888136
0.074236125 0.15477468 0.048275862 0.050257295 0.14497913 0.18677972 0.060086742 0.07592126
0.04958938 0.0060750237 -0.054924063 0.15062572 0.014449465 0.074029595 0.088299476 -0.15926345
-0.20993832 0.036082074 0.25762355 0.010760162 0.034483146 -0.07613276 0.05533728 -0.011723505
-0.030650888 0.09859812 -0.12914662 -0.060842924 -0.005002701 -0.10994513 -0.2079978 0.16665427
-0.04065343 -0.09710612 0.023289803 0.054701388 0.038242117 0.13879205 -0.0026095542 -0.20137984
-0.13265194 -0.06843281 0.106137805 0.054451976 -0.25271899 -0.018927185 0.057425573 0.03909094
-0.1468199 0.1885355 -0.04749672 -0.106376246 -0.16937491 0.040518865 -0.083544984 0.17266342
00000000: 4d02 0bbe 6493 d53d e713 1cbe b2af 46b9
00000010: a780 a33b e0ae 063e 14b0 a0bc cac0 f7bb
00000020: 5ba2 e33d 4019 033e 7df4 a93d e2ea 5abd
00000030: 0b7e a73e 54a9 173d 2e93 733d d16e 7f3d
00000040: c42a 5f3d 2eab c23d 73be 7cbd e195 1bbd
00000050: 1941 28bd 51e2 09be c8d4 85be c584 a8bd
00000060: 963d c6bc 86f8 1e3d 8196 45be 8884 3d3e
00000070: 6dc5 56be 42c4 243e c595 1dbe c5db 1e3e
00000080: 3e68 93bd 38a6 03be c6a4 b8bd 7c7d 023e
00000090: e3a2 073d 0e8e 1b3e 174d 043e 09ad 01be
000000a0: 4bad a1bd 7cde 203e db85 0b3e b908 03bc
000000b0: 99ec e13c a011 1bbd 689a 94bd 20ea 9a38
000000c0: 3a8a 3ebc cfd3 3f3e 4e89 85be 5be6 893e
000000d0: 066d f83c dba1 4cbc 60ce 5abd dbfc ffbc
000000e0: 468c 0cbe bece ce3c 10f6 4a3e 91d6 e9bd
000000f0: 9662 b63d 97c9 773d 0cda 143d a8a5 6b3c
00000100: ed21 c63d b2bc 1bbe 08c2 86bc afed 9ebd
00000110: 16d4 de3b 3364 e3bd dc28 10be 09ab d0bd
00000120: 3982 b03d 6efd 3e3e f415 aab9 74d0 99bd
00000130: f5be 10be 240d 21bd 7a8b 8b3d 81d0 45be
00000140: 0772 8ebc 924b 0b3d a4ce bdbc 49b5 d8bc
00000150: d885 b43d a67a 833d 8d67 5fbd f1d6 53be
00000160: bf9a 253d 5f38 c4bc 0821 b13c 8605 8dbd
00000170: 700e 27be 104d 71be ff2f 343e 3d50 563d
00000180: 4888 33bd f012 2ebd bd1a d53d 2149 7e3d
00000190: 33fd 50bd ea23 16bd 14d5 a6bd 5f98 5d3d
000001a0: 7897 7c3e e370 283e c270 873d 8150 5e3e
000001b0: 9a1f 703e fdfe 69bc a1cb 613d b058 fabd
000001c0: e7a8 b93d d03d 313d a79f 79be 4915 eabd
000001d0: f13d 2e3d 2c7d a03c f75a 303e c62b 353c
000001e0: cbf1 aabd fbd2 21bd 4147 6f3e bfe4 7e3d
000001f0: 59e5 40bd c542 bebc 8c89 d23d 7905 c3bd
00000200: 123d 453d 611e 163e ead4 3d3d ad53 573d
00000210: 2da7 ed3d fb8c 163d 32d9 2d3e a9d1 32bd
00000220: f44c 763c cc9d 75be a57f 823c 7e8f 92bd
00000230: 7631 2cbe c08d 25bd 8d0b 05bc bad4 9a3c
00000240: 7282 633e 9d51 47be 4bf1 f13c e8f5 0c3e
00000250: bbcd 38be 85c5 e83c 9384 54bd 2906 f7bd
00000260: 4e3d 363e 116a e1bd 8c74 9ebd 32ff 16be
00000270: c4e1 ab3c c8ab f73d 8a93 8f3d 131e ed3d
00000280: 3d4d 0fbb 2e34 ae3d b715 8ebb ad65 62bd
00000290: 31a2 3a3d 1e92 83be 2081 3d3e 4409 63be
000002a0: 0355 48bd b326 c93d 7df5 1b3e 3f26 16bd
000002b0: 60e8 ebbd 4f1c 343e abd9 093d 6d44 953d
000002c0: 85d6 153e 14d0 f73c 9c8b 6d3b 399a fbbd
000002d0: 0761 493e 9277 b33d e7e5 2f3e 13a6 d4bd
000002e0: cea7 1ebd 7dfe 6e3e fe6f b53c 532e 293e
000002f0: d78e 1abe 9cf0 f6bd 83bd 003e 44a8 cf3d
00000300: b501 b4bd 2dc5 85bd 60cf 073e d481 62bd
00000310: 8e53 8dbc f70b ae3c 5c45 f6bd 5b74 183e
00000320: 1c09 983d 417d 1e3e e9bc 453d 98da 4d3d
00000330: 6975 143e 2f43 3f3e 841d 763d 9b7c 9b3d
00000340: 3c1e 4b3d fe10 c73b 0ef8 60bd a13d 1a3e
00000350: 73bd 6c3c d49c 973d 5bd6 b43d f515 23be
00000360: 12fa 56be ccca 133d 3ce7 833e 644b 303c
00000370: 333e 0d3d 7eeb 9bbd 58a9 623d f213 40bc
00000380: 9217 fbbc d0ed c93d 033f 04be 6e36 79bd
00000390: b3ed a3bb ea2a e1bd 60fd 54be 6ba7 2a3e
000003a0: 3684 26bd 93df c6bd 42ca be3c 900e 603d
000003b0: c4a3 1c3d 811f 0e3e 0e05 2bbb 8436 4ebe
000003c0: e9d5 07be 8026 8cbd c75e d93d 0909 5f3d
000003d0: 6264 81be 2f0d 9bbc 1437 6b3d d21d 203d
000003e0: f557 16be 730f 413e ec8b 42bd cadb d9bd
000003f0: 9e70 2dbe 1cf7 253d a219 abbd aece 303e

fc1/bias f4 [10]
-0.095736645 0.032975614 0.11101935 -0.08845704 0.008226798 0.04974579 -0.15477853 0.03163794
0.08518777 -0.038291
00000000: 9311 c4bd 7011 073d 1d5e e33d f728 b5bd
00000010: b1c9 063c 3ec2 4b3d 437e 1ebe c996 013d
00000020: ed76 ae3d 06d7 1cbd

fc1/MatMul f4 [10, 432]
0.026989006 0.089160234 -0.019781346 0.0043775463 -1.7339313e-05 0.21077043 -0.051454514 0.028839182
0.12999614 -0.023477238 -0.12413821 0.12821706 -0.09466355 -0.06853818 0.0011659261 0.1899401
-0.07120193 -0.37645465 0.0044004405 -0.17623411 -0.10834127 -0.030393014 -0.016728984 -0.1271255
-0.008415331 -0.0033495438 -0.0032757844 -0.101323694 0.008501174 -0.071654275 0.058362424 0.07446679
-0.058724765 -0.19962077 -0.19671695 -0.122637354 0.113320746 0.16581574 0.001231019 -0.010319897
-0.15465586 0.038574297 -0.022385452 0.018302798 -0.02842925 -0.08624186 -0.13014573 0.18737394
0.06328771 0.058656637 0.030753385 -0.049171153 -0.086737 0.061372466 -0.037610985 -0.12980811
-0.077305615 -0.24905972 0.18185937 -0.0064121652 0.1086245 -0.06974184 0.23303765 -0.06355762
-0.20945975 -0.23181139 -0.14317669 0.25522912 0.035829637 -0.123449415 0.0036977623 0.20257199
-0.062539965 0.23653993 0.032293864 -0.2302689 0.07262949 -0.086979665 -0.015332332 -0.08941801
-0.16947438 0.070520245 0.084352985 0.14987071 0.099274285 -0.10073964 -0.12869677 -0.10652817
0.11667183 -0.17034057 -0.100333214 0.062174 0.034276173 -0.17520179 0.081410944 -0.16840906
-0.066474065 -0.00210872 -0.05435912 0.1458849 -0.0387532 0.118042514 -0.06634924 -0.0345615
0.0034018 -0.08236735 -0.11761416 -0.0135772675 0.20393312 -0.22738527 0.18723185 0.051558636
0.011078083 0.19912219 0.18890849 -0.020889688 -0.06936689 -0.24935068 -0.28453904 -0.046585724
0.028336825 0.034685314 -0.044958346 0.11480745 0.0007237279 0.12335803 -0.1283613 -0.14798966
-0.06712371 0.046941698 0.2867407 0.079660386 0.20156386 0.26531485 0.00029717246 -0.060001276
-0.06193347 0.08933579 -0.024015727 -0.08610173 0.07654868 -0.19438305 0.11559943 0.041592225
-0.037686393 -0.11422281 -0.01838251 -0.03221991 0.04856316 0.028262783 -0.12659001 0.044829343
-0.18281962 -0.01668051 0.028670272 0.040009953 -0.10549924 0.032103807 0.1685851 0.066445515
-0.18902564 0.072188474 0.27409038 0.058200605 0.043925785 0.113084376 -0.003456616 -0.17400397
-0.020438543 -0.012980078 -0.2130134 0.13620245 0.058773402 -0.031838015 -0.044293128 0.056736544
-0.16655041 0.1250933 -0.13573319 0.19326094 -0.06661748 0.22345573 -0.15661158 0.24967687
-0.11218389 0.15043895 0.07718717 0.11079252 -0.2220352 0.0918541 0.038384903 0.12814233
0.06557109 0.08928326 -0.12373362 0.12321593 0.06994147 0.093982674 0.30116332 0.09495758
-0.042288058 0.110544816 0.0028345399 0.06451105 0.10078227 -0.019647151 -0.33475056 0.029374516
0.2630363 0.055786863 0.14001548 0.032972902 0.043856487 0.14514548 -0.0513304 0.25895214
0.13409665 0.045750562 -0.09195592 -0.29879314 0.10820431 -0.15632127 -0.1671834 0.06920535
0.056228206 -0.25270548 -0.116530254 -0.1199577 0.09280982 -0.04307547 0.111919485 0.048458267
-0.017583476 -0.16139436 0.0141432835 -0.25289723 0.17610395 0.046686247 -0.2494932 -0.28919172
0.28039 -0.11930302 -0.19725752 -0.065205924 -0.2020382 -0.17473435 0.016313456 -0.0013935263
-0.08476973 0.22673857 0.1012735 0.110937685 -0.0015521947 -0.039898332 0.049900252 -0.23919831
00000000: 0c18 dd3c a499 b63d 7d0c a2bc 8571 8f3b
00000010: e473 91b7 34d4 573e f8c1 52bd 2640 ec3c
00000020: b51d 053e 5653 c0bc 2d3c febd 554b 033e
00000030: f7de c1bd bf5d 8cbd fdd1 983a a87f 423e
00000040: 51d2 91bd aabe c0be 9231 903b b776 34be
00000050: 07e2 ddbd c5fa f8bc 390b 89bc 302d 02be
00000060: 75e0 09bc 0584 5bbb 8bae 56bb cc82 cfbd
00000070: 8248 0b3c 7abf 92bd 700d 6f3d 0b82 983d
00000080: 6189 70bd 6369 4cbe 2b70 49be 4b29 fbbd
00000090: b514 e83d 9acb 293e 255a a13a c914 29bc
000000a0: 1b5e 1ebe 1500 1e3d b261 b7bc c0ef 953c
000000b0: 75e4 e8bc 939f b0bd ec44 05be f4de 3f3e
000000c0: fd9c 813d f141 703d 86ee fb3c b167 49bd
000000d0: 2ba3 b1bd b261 7b3d fa0d 1abd 6bec 04be
000000e0: 6852 9ebd 8309 7fbe 5839 3a3e 241d d2bb
000000f0: 8676 de3d cfd4 8ebd 6ca1 6e3e 7f2a 82bd
00000100: 9e7c 56be f75f 6dbe e99c 12be 64ad 823e
00000110: 19c2 123d 0cd3 fcbd 2856 723b 086f 4f3e
00000120: f414 80bd 8637 723e 9246 043d 9ccb 6bbe
00000130: c5be 943d 6522 b2bd 7634 7bbc ca20 b7bd
00000140: b18a 2dbe eb6c 903d 42c1 ac3d b577 193e
00000150: 5150 cb3d 9650 cebd 16c9 03be 712b dabd
00000160: a4f1 ee3d c26d 2ebe 807b cdbd 2aaa 7e3d
00000170: 2c65 0c3d 1968 33be c8ba a63d 6d73 2cbe
00000180: 8e23 88bd 7332 0abb aba7 5ebd da62 153e
00000190: adbb 1ebd 46c0 f13d 1ce2 87bd 5c90 0dbd
000001a0: bcf0 5e3b 37b0 a8bd b1df f0bd 3073 5ebc
000001b0: d8d3 503e afd7 68be b5b9 3f3e 262f 533d
000001c0: d980 353c b0e6 4b3e 3a71 413e da20 abbc
000001d0: 3a10 8ebd c955 7fbe 1aaf 91be acd0 3ebd
000001e0: a122 e83c 3012 0e3d 3e26 38bd 2b20 eb3d
000001f0: 8fb8 3d3a 23a3 fc3d 2571 03be 9a8a 17be
00000200: 2878 89bd f045 403d adcf 923e fc24 a33d
00000210: c266 4e3e 59d7 873e d0cd 9b39 e6c3 75bd
00000220: f3ad 7dbd aff5 b63d a1bc c4bc 1b56 b0bd
00000230: 8ec5 9c3d 5a0c 47be 65bf ec3d 9c5c 2a3d
00000240: 0c5d 1abd a6ed e9bd eb96 96bc 06f9 03bd
00000250: 2aea 463d 5a87 e73c d0a0 01be f99e 373d
00000260: 1135 3bbe 91a5 88bc ebdd ea3c 7ae1 233d
00000270: fc0f d8bd 487f 033d 93a1 2c3e 9614 883d
00000280: f08f 41be 8dd7 933d 9355 8c3e c263 6e3d
00000290: 86eb 333d c898 e73d 6588 62bb 192e 32be
000002a0: bb6e a7bc 65aa 54bc 2f20 5abe a878 0b3e
000002b0: 61bc 703d 9468 02bd b66c 35bd 9464 683d
000002c0: 318c 2abe 7518 003e a4fd 0abe 32e6 453e
000002d0: bf6e 88bd 94d1 643e c95e 20be 4bab 7f3e
000002e0: abc0 e5bd ab0c 1a3e 4f14 9e3d 30e7 e23d
000002f0: 325d 63be 011e bc3d 7d39 1d3d be37 033e
00000300: 234a 863d 24da b63d 0d68 fdbd a258 fc3d
00000310: 793d 8f3d fd79 c03d 1432 9a3e 1f79 c23d
00000320: 3e36 2dbd 5265 e23d b0c3 393b 5f1e 843d
00000330: ef66 ce3d 10f3 a0bc 6d64 abbe d3a2 f03c
00000340: b2ac 863e c480 643d 3860 0f3e 980e 073d
00000350: dca2 333d 04a1 143e d33f 52bd 6095 843e
00000360: a250 093e f164 3b3d 6353 bcbd 6afb 98be
00000370: 399a dd3d af12 20be 2032 2bbe 89bb 8d3d
00000380: 8c4f 663d 9d62 81be 6aa7 eebd 62ac f5bd
00000390: 1313 be3d e76f 30bd 0b36 e53d 2d7c 463d
000003a0: 390b 90bc 9044 25be 3bb9 673c bf7b 81be
000003b0: 9854 343e 143a 3f3d 257b 7fbe f010 94be
000003c0: 478f 8f3e 2455 f4bd e0fd 49be af8a 85bd
000003d0: 1ae3 4ebe 90ed 32be cca3 853c fca6 b6ba
000003e0: c19b adbd 282e 683e 7b68 cf3d 4c33 e33d
000003f0: 0373 cbba 6f6c 23bd 3564 4c3d 67f0 74be
