tools/tflite/mnist_resnet_q.tflite (tflite, 30032 bytes, 5 tensors)

model_8/fc1/MatMul i1 [10, 432] scale=0.0034212293 zero_point=0
00000000: 081a fa01 003e f108 26f9 dc25 e4ec 0038
00000010: eb92 01cc e0f7 fbdb feff ffe2 02eb 1116
00000020: efc6 c7dc 2130 00fd d30b f905 f8e7 da37
00000030: 1211 09f2 e712 f5da e9b7 35fe 20ec 44ed
00000040: c3bc d64b 0adc 013b ee45 09bd 15e7 fce6
00000050: ce15 192c 1de3 dae1 22ce e312 0acd 18cf
00000060: edff f02b f523 edf6 01e8 defc 3cbe 370f
00000070: 033a 37fa ecb7 adf2 080a f322 0024 dad5
00000080: ec0e 5417 3b4e 00ee ee1a f9e7 16c7 220c
00000090: f5df fbf7 0e08 db0d cbfb 080c e109 3113
000000a0: c915 5011 0d21 ffcd fafc c228 11f7 f311
000000b0: cf25 d838 ed41 d249 df2c 1720 bf1b 0b25
000000c0: 131a dc24 141b 581c f420 0113 1dfa 9e09
000000d0: 4d10 290a 0d2a f14c 270d e5a9 20d2 cf14
000000e0: 10b6 dedd 1bf3 210e fbd1 04b6 330e b7ab
000000f0: 52dd c6ed c5cd 0500 e742 1e20 00f4 0fba
0.027369834 0.08895196 -0.020527376 0.0034212293 0.0 0.21211621 -0.05131844 0.027369834
0.13000672 -0.023948606 -0.12316425 0.12658548 -0.095794424 -0.06842458 0.0 0.19158885
-0.071845815 -0.37633523 0.0034212293 -0.17790392 -0.10947934 -0.030791063 -0.017106146 -0.12658548
-0.0068424586 -0.0034212293 -0.0034212293 -0.10263688 0.0068424586 -0.071845815 0.058160897 0.07526705
-0.058160897 -0.1984313 -0.19501007 -0.12316425 0.11290057 0.164219 0.0 -0.010263688
-0.15395533 0.037633523 -0.023948606 0.017106146 -0.027369834 -0.085530736 -0.13000672 0.18816762
0.061582126 0.058160897 0.030791063 -0.047897212 -0.085530736 0.061582126 -0.037633523 -0.13000672
-0.07868827 -0.24974973 0.18132515 -0.0068424586 0.10947934 -0.06842458 0.23264359 -0.06500336
-0.208695 -0.23264359 -0.14369163 0.25659218 0.03421229 -0.12316425 0.0034212293 0.20185253
-0.061582126 0.23606482 0.030791063 -0.22922236 0.071845815 -0.085530736 -0.013684917 -0.08895196
-0.17106147 0.071845815 0.085530736 0.1505341 0.09921565 -0.09921565 -0.13000672 -0.106058106
0.116321795 -0.17106147 -0.09921565 0.061582126 0.03421229 -0.17448269 0.0821095 -0.16764024
-0.06500336 -0.0034212293 -0.05473967 0.14711286 -0.037633523 0.11974303 -0.06500336 -0.03421229
0.0034212293 -0.0821095 -0.116321795 -0.013684917 0.20527376 -0.22580114 0.18816762 0.05131844
0.010263688 0.1984313 0.18816762 -0.020527376 -0.06842458 -0.24974973 -0.28396204 -0.047897212
0.027369834 0.03421229 -0.04447598 0.116321795 0.0 0.12316425 -0.13000672 -0.14711286
-0.06842458 0.047897212 0.28738326 0.07868827 0.20185253 0.2668559 0.0 -0.061582126
-0.061582126 0.08895196 -0.023948606 -0.085530736 0.07526705 -0.19501007 0.116321795 0.04105475
-0.037633523 -0.11290057 -0.017106146 -0.030791063 0.047897212 0.027369834 -0.12658548 0.04447598
-0.18132515 -0.017106146 0.027369834 0.04105475 -0.106058106 0.030791063 0.16764024 0.06500336
-0.18816762 0.071845815 0.27369833 0.058160897 0.04447598 0.11290057 -0.0034212293 -0.17448269
-0.020527376 -0.013684917 -0.21211621 0.13684916 0.058160897 -0.030791063 -0.04447598 0.058160897
-0.16764024 0.12658548 -0.13684916 0.19158885 -0.06500336 0.22237991 -0.15737654 0.24974973
-0.11290057 0.1505341 0.07868827 0.10947934 -0.22237991 0.09237319 0.037633523 0.12658548
0.06500336 0.08895196 -0.12316425 0.12316425 0.06842458 0.09237319 0.3010682 0.095794424
-0.04105475 0.10947934 0.0034212293 0.06500336 0.09921565 -0.020527376 -0.33528048 0.030791063
0.26343465 0.05473967 0.1402704 0.03421229 0.04447598 0.14369163 -0.05131844 0.26001343
0.13342795 0.04447598 -0.09237319 -0.29764694 0.10947934 -0.15737654 -0.16764024 0.06842458
0.05473967 -0.25317097 -0.116321795 -0.11974303 0.09237319 -0.04447598 0.11290057 0.047897212
-0.017106146 -0.16079777 0.013684917 -0.25317097 0.17448269 0.047897212 -0.24974973 -0.2908045
0.2805408 -0.11974303 -0.1984313 -0.06500336 -0.20185253 -0.17448269 0.017106146 0.0
-0.085530736 0.22580114 0.10263688 0.10947934 0.0 -0.04105475 0.05131844 -0.23948605

model_8/ftr3/Conv2D i1 [48, 3, 3, 24]
00000000: cb28 c500 0233 f8fd 2b32 20eb 7f0e 1718
00000010: 1525 e8f1 f0cc 9be0 f70f b548 af3e c43c
00000020: e4ce dd31 0d3b 32cf e13d 35fd 0bf1 e400
00000030: fb49 9b69 0cfb ebf4 cb0a 4dd4 2317 0e06
00000040: 26c5 fae2 03d5 c9d8 2148 00e3 c9f1 1ab5
00000050: f90d f7f6 2219 ebb0 10f7 08e5 c1a5 4414
00000060: eff0 2818 ecf2 e015 6040 1a54 5bfa 15d1
00000070: 2311 a1d4 1108 4304 e0f1 5b18 eef7 28db
00000080: 1339 1214 2d0e 42ef 06a3 06e4 bff0 fd07
00000090: 56b4 0b35 ba0b ecd1 45d5 e2c7 082f 1b2d
000000a0: ff21 feeb 129c 48aa ed26 3bf2 d344 0d1c
000000b0: 390c 01d0 4c22 43d8 f15b 0940 c5d1 3127
000000c0: dee7 33eb f908 d13a 1d3c 1314 3849 171d
000000d0: 1302 eb3a 061d 22c2 b30d 5e04 0de4 14fc
000000e0: f524 d1ea fed8 b43d f1dd 0914 0e33 ffb6
000000f0: d0e7 2714 a4f9 150e ca45 efd9 c20f e13f
-53 40 -59 0 2 51 -8 -3
43 50 32 -21 127 14 23 24
21 37 -24 -15 -16 -52 -101 -32
-9 15 -75 72 -81 62 -60 60
-28 -50 -35 49 13 59 50 -49
-31 61 53 -3 11 -15 -28 0
-5 73 -101 105 12 -5 -21 -12
-53 10 77 -44 35 23 14 6
38 -59 -6 -30 3 -43 -55 -40
33 72 0 -29 -55 -15 26 -75
-7 13 -9 -10 34 25 -21 -80
16 -9 8 -27 -63 -91 68 20
-17 -16 40 24 -20 -14 -32 21
96 64 26 84 91 -6 21 -47
35 17 -95 -44 17 8 67 4
-32 -15 91 24 -18 -9 40 -37
19 57 18 20 45 14 66 -17
6 -93 6 -28 -65 -16 -3 7
86 -76 11 53 -70 11 -20 -47
69 -43 -30 -57 8 47 27 45
-1 33 -2 -21 18 -100 72 -86
-19 38 59 -14 -45 68 13 28
57 12 1 -48 76 34 67 -40
-15 91 9 64 -59 -47 49 39
-34 -25 51 -21 -7 8 -47 58
29 60 19 20 56 73 23 29
19 2 -21 58 6 29 34 -62
-77 13 94 4 13 -28 20 -4
-11 36 -47 -22 -2 -40 -76 61
-15 -35 9 20 14 51 -1 -74
-48 -25 39 20 -92 -7 21 14
-54 69 -17 -39 -62 15 -31 63

model_8/ftr2/Conv2D i1 [24, 3, 3, 24]
00000000: be17 3cf5 ece9 fbb5 ebf3 d5ed fcdd 280d
00000010: fb06 ff1c 2be6 e7fc 11f8 0e05 f5e3 fcf2
00000020: 092f 171b 1bc4 bb2f 5300 2620 f4fa 22ec
00000030: 0d17 bbb8 2d21 d8f6 26e1 2ad9 f71b aed5
00000040: 28fa ee39 c9f3 2ecd 2622 2133 1618 4336
00000050: 14fc f536 3100 411e 5300 fc22 fbd3 ba1b
00000060: 43e7 eedf 081c 0b25 e71d 5001 2ec9 cf47
00000070: 1143 206d de40 4520 2e2f 281c fae3 bee8
00000080: fcfb 2103 ff0f d202 2d12 2a60 1505 ccd8
00000090: 29d5 f029 b626 1eaf fa29 2026 5dd8 0e3a
000000a0: ecfd 000f 013e e335 fcf3 f926 e206 d4e8
000000b0: 10fa 46c8 7f05 1f3f c466 e936 e235 3d04
000000c0: 1d13 e81f fe08 c4f8 29f0 f6cc 26c6 31e1
000000d0: 2a05 530b 1228 ebd9 3124 d9ce 2f06 b8eb
000000e0: f8fc f3e2 dc10 25f3 3ef8 3b0b 101e ef81
000000f0: 00dc eedd 2400 f4f7 e50e f1e5 f237 37df
-66 23 60 -11 -20 -23 -5 -75
-21 -13 -43 -19 -4 -35 40 13
-5 6 -1 28 43 -26 -25 -4
17 -8 14 5 -11 -29 -4 -14
9 47 23 27 27 -60 -69 47
83 0 38 32 -12 -6 34 -20
13 23 -69 -72 45 33 -40 -10
38 -31 42 -39 -9 27 -82 -43
40 -6 -18 57 -55 -13 46 -51
38 34 33 51 22 24 67 54
20 -4 -11 54 49 0 65 30
83 0 -4 34 -5 -45 -70 27
67 -25 -18 -33 8 28 11 37
-25 29 80 1 46 -55 -49 71
17 67 32 109 -34 64 69 32
46 47 40 28 -6 -29 -66 -24
-4 -5 33 3 -1 15 -46 2
45 18 42 96 21 5 -52 -40
41 -43 -16 41 -74 38 30 -81
-6 41 32 38 93 -40 14 58
-20 -3 0 15 1 62 -29 53
-4 -13 -7 38 -30 6 -44 -24
16 -6 70 -56 127 5 31 63
-60 102 -23 54 -30 53 61 4
29 19 -24 31 -2 8 -60 -8
41 -16 -10 -52 38 -58 49 -31
42 5 83 11 18 40 -21 -39
49 36 -39 -50 47 6 -72 -21
-8 -4 -13 -30 -36 16 37 -13
62 -8 59 11 16 30 -17 -127
0 -36 -18 -35 36 0 -12 -9
-27 14 -15 -27 -14 55 55 -33

model_8/ftr1/Conv2D i1 [24, 3, 3, 12]
00000000: f81f c91b b5d0 cf13 0905 0ff3 fd07 d8ef
00000010: f6ef d546 ae07 ffe0 fcfc dbf4 1415 f91b
00000020: f222 4305 c4fb 0ec8 cb05 1e81 291c b5e4
00000030: b800 0bcc 1652 cb10 baea 2cff ed0d 3925
00000040: f904 c422 eb08 2fff b9ef edf7 e711 d5e7
00000050: 2ced cdc4 f602 1102 03d1 f3f9 2eb4 2eca
00000060: e7d2 2044 08d4 ea17 1f24 32e9 15e0 0d1c
00000070: 10e5 0319 0042 fa05 fcbb 0f11 d906 3903
00000080: de27 25ed f8e8 00ec 1ae3 2e22 ef19 da0f
00000090: 0b81 f7f2 0603 09d7 ed0b 4c1e 06b6 3530
000000a0: f1fc 2418 f10d d1f8 fbde ed20 0412 3a4f
000000b0: da03 28f5 07ee db2b 0e07 f1e1 f505 07f8
000000c0: f910 ea0c 24ce dd07 d6eb 05f8 e0ef 3a01
000000d0: e319 e33b f4fa 06f2 ff26 b7d5 f018 e400
000000e0: 1d27 da25 dbed 0afb edcd d42e 2ef4 ef00
000000f0: 0324 1bcf dd06 0540 d8f0 30dc 101e d3bc
-8 31 -55 27 -75 -48 -49 19
9 5 15 -13 -3 7 -40 -17
-10 -17 -43 70 -82 7 -1 -32
-4 -4 -37 -12 20 21 -7 27
-14 34 67 5 -60 -5 14 -56
-53 5 30 -127 41 28 -75 -28
-72 0 11 -52 22 82 -53 16
-70 -22 44 -1 -19 13 57 37
-7 4 -60 34 -21 8 47 -1
-71 -17 -19 -9 -25 17 -43 -25
44 -19 -51 -60 -10 2 17 2
3 -47 -13 -7 46 -76 46 -54
-25 -46 32 68 8 -44 -22 23
31 36 50 -23 21 -32 13 28
16 -27 3 25 0 66 -6 5
-4 -69 15 17 -39 6 57 3
-34 39 37 -19 -8 -24 0 -20
26 -29 46 34 -17 25 -38 15
11 -127 -9 -14 6 3 9 -41
-19 11 76 30 6 -74 53 48
-15 -4 36 24 -15 13 -47 -8
-5 -34 -19 32 4 18 58 79
-38 3 40 -11 7 -18 -37 43
14 7 -15 -31 -11 5 7 -8
-7 16 -22 12 36 -50 -35 7
-42 -21 5 -8 -32 -17 58 1
-29 25 -29 59 -12 -6 6 -14
-1 38 -73 -43 -16 24 -28 0
29 39 -38 37 -37 -19 10 -5
-19 -51 -44 46 46 -12 -17 0
3 36 27 -49 -35 6 5 64
-40 -16 48 -36 16 30 -45 -68

model_8/ftr0/Conv2D i1 [12, 3, 3, 1]
00000000: c943 021e 5186 fb7f 5113 1281 3a02 ccfc
00000010: aef0 8da0 f730 fc81 2d36 03c1 9081 1f54
00000020: 2a21 454f f6d6 1c7f 3864 29ba aba3 f1f8
00000030: 032d 75a7 8123 3081 9c62 25f7 3925 d96f
00000040: b9e7 c481 00da 5257 d516 41f5 81d7 3c0f
00000050: db12 7f45 e1f1 3c9a fcdd 6b1a cedd a7b7
00000060: 81ea 2734 4daa 687f 3823 6fa0
-55 67 2 30 81 -122 -5 127
81 19 18 -127 58 2 -52 -4
-82 -16 -115 -96 -9 48 -4 -127
45 54 3 -63 -112 -127 31 84
42 33 69 79 -10 -42 28 127
56 100 41 -70 -85 -93 -15 -8
3 45 117 -89 -127 35 48 -127
-100 98 37 -9 57 37 -39 111
-71 -25 -60 -127 0 -38 82 87
-43 22 65 -11 -127 -41 60 15
-37 18 127 69 -31 -15 60 -102
-4 -35 107 26 -50 -35 -89 -73
-127 -22 39 52 77 -86 104 127
56 35 111 -96
