tools/tflite/vww96_q.tflite (tflite, 303440 bytes, 28 tensors)

model/conv2d/Conv2D i1 [8, 3, 3, 3]
00000000: ef03 ffed dff2 e5f1 fb12 fa00 0deb 03c0
00000010: b7ff 1221 1466 7f17 2513 020a 0e02 f2f1
00000020: 0709 0901 ddb7 fb35 7f19 e5c5 f805 1308
00000030: 00ed f903 0b05 16f7 f94e e7cd 18ea f537
00000040: f4d6 7fe6 9733 f8d2 2cf7 d642 f6c3 1305
00000050: ede7 f73f 811b 2dcf 4d65 a723 3489 0b49
00000060: 0a4f 60f2 0e54 f41e 5408 3074 2049 0d0e
00000070: 0dfe c89f fd4c 6315 ebe5 f5a6 81e2 2529
00000080: 0ef3 e8f6 dde5 f302 ec0f 1ed1 0f00 0af5
00000090: 3ea6 1b47 8137 05e3 161d bd23 24ad 2f16
000000a0: de0b 0f08 f5db e0eb ebf5 f751 7f3e 3d4a
000000b0: 371f 1f20 5f50 314b 3d28 0d06 0508 ebfa
000000c0: f2d4 00d2 b6fb 0731 1644 7f0e 2138 04f2
000000d0: d8fb fae3 fdef e201
-17 3 -1 -19 -33 -14 -27 -15
-5 18 -6 0 13 -21 3 -64
-73 -1 18 33 20 102 127 23
37 19 2 10 14 2 -14 -15
7 9 9 1 -35 -73 -5 53
127 25 -27 -59 -8 5 19 8
0 -19 -7 3 11 5 22 -9
-7 78 -25 -51 24 -22 -11 55
-12 -42 127 -26 -105 51 -8 -46
44 -9 -42 66 -10 -61 19 5
-19 -25 -9 63 -127 27 45 -49
77 101 -89 35 52 -119 11 73
10 79 96 -14 14 84 -12 30
84 8 48 116 32 73 13 14
13 -2 -56 -97 -3 76 99 21
-21 -27 -11 -90 -127 -30 37 41
14 -13 -24 -10 -35 -27 -13 2
-20 15 30 -47 15 0 10 -11
62 -90 27 71 -127 55 5 -29
22 29 -67 35 36 -83 47 22
-34 11 15 8 -11 -37 -32 -21
-21 -11 -9 81 127 62 61 74
55 31 31 32 95 80 49 75
61 40 13 6 5 8 -21 -6
-14 -44 0 -46 -74 -5 7 49
22 68 127 14 33 56 4 -14
-40 -5 -6 -29 -3 -17 -30 1

model/batch_normalization_1/FusedBatchNormV3;model/depthwise_conv2d/depthwise i1 [1, 3, 3, 8]
00000000: bb7f b311 05b0 0723 7f87 7f11 de7f 81d6
00000010: f0f7 d71d 11f6 0f09 f082 bc48 d509 3629
00000020: f874 7052 81fc 3a81 120d 2338 48fa 33e8
00000030: 11fd 2b81 1a07 170f de07 a200 0fe7 473d
00000040: f7fb f56a 0008 0912
-69 127 -77 17 5 -80 7 35
127 -121 127 17 -34 127 -127 -42
-16 -9 -41 29 17 -10 15 9
-16 -126 -68 72 -43 9 54 41
-8 116 112 82 -127 -4 58 -127
18 13 35 56 72 -6 51 -24
17 -3 43 -127 26 7 23 15
-34 7 -94 0 15 -25 71 61
-9 -5 -11 106 0 8 9 18

model/conv2d_1/Conv2D i1 [16, 1, 1, 8]
00000000: 047f 00ff 00fe 0102 f303 7f00 f208 0507
00000010: 7f00 ed04 4afa 05cc 816b fe00 f1fb ffe9
00000020: 1cf6 fc00 81fd 00ee 9be4 07ff 8109 0352
00000030: f503 8100 f90b 0005 0103 0b00 017f 0000
00000040: 0205 7f00 01f3 02fe e507 0100 7f02 022b
00000050: 8fd2 fefc 2004 ff7f f9f9 5000 037f 0303
00000060: 56fa feff fb03 007f 7207 1d00 7fe7 fbe1
00000070: 0000 1fff fd81 00ff 07f8 7f00 09d7 01f9
4 127 0 -1 0 -2 1 2
-13 3 127 0 -14 8 5 7
127 0 -19 4 74 -6 5 -52
-127 107 -2 0 -15 -5 -1 -23
28 -10 -4 0 -127 -3 0 -18
-101 -28 7 -1 -127 9 3 82
-11 3 -127 0 -7 11 0 5
1 3 11 0 1 127 0 0
2 5 127 0 1 -13 2 -2
-27 7 1 0 127 2 2 43
-113 -46 -2 -4 32 4 -1 127
-7 -7 80 0 3 127 3 3
86 -6 -2 -1 -5 3 0 127
114 7 29 0 127 -25 -5 -31
0 0 31 -1 -3 -127 0 -1
7 -8 127 0 9 -41 1 -7

model/batch_normalization_3/FusedBatchNormV3;model/depthwise_conv2d_1/depthwise i1 [1, 3, 3, 16]
00000000: e1ef dddf c5f3 3402 26cd d3dc 2ae2 f8f9
00000010: c781 beb9 90a1 502e 479c bef6 5849 10be
00000020: d007 c7cd c2a9 3f3c 2cc2 d21b 366a 12c0
00000030: bd8f a8bd a1ca 4b33 32ad b5b5 508b 3eb5
00000040: 81fa 8181 8181 7f7f 7f81 81cf 7fde 7981
00000050: 9c77 d1ac caaf 5675 54c0 c7dc 4440 52c6
00000060: dce5 b9d1 d5e7 2e0b 1bdf d281 1a81 47bc
00000070: a76f c2c0 ccd7 4664 3dd8 b78d 2bb3 7fbd
00000080: c7ff fbd0 f4f1 2e78 2a01 efc3 0e15 36fd
-31 -17 -35 -33 -59 -13 52 2
38 -51 -45 -36 42 -30 -8 -7
-57 -127 -66 -71 -112 -95 80 46
71 -100 -66 -10 88 73 16 -66
-48 7 -57 -51 -62 -87 63 60
44 -62 -46 27 54 106 18 -64
-67 -113 -88 -67 -95 -54 75 51
50 -83 -75 -75 80 -117 62 -75
-127 -6 -127 -127 -127 -127 127 127
127 -127 -127 -49 127 -34 121 -127
-100 119 -47 -84 -54 -81 86 117
84 -64 -57 -36 68 64 82 -58
-36 -27 -71 -47 -43 -25 46 11
27 -33 -46 -127 26 -127 71 -68
-89 111 -62 -64 -52 -41 70 100
61 -40 -73 -115 43 -77 127 -67
-57 -1 -5 -48 -12 -15 46 120
42 1 -17 -61 14 21 54 -3

model/conv2d_2/Conv2D i1 [32, 1, 1, 16]
00000000: 0dfc 7f4d 2d0c ffdc dc0f 3106 d8e2 cf28
00000010: 13f7 fe3e e532 f2ff 09cc 1d12 e481 f7f5
00000020: f004 0104 0120 7fd0 a116 f432 1304 15ef
00000030: b2fd 2281 dd7f 4821 0216 06c4 6cce 0ee2
00000040: 1e08 a31e 9e81 d8ef 00c4 ca0f 9b1f 0607
00000050: eb1b 07e6 f381 6435 3d88 e2d3 b610 f3e1
00000060: 050b f2fd eec2 0240 7f00 18db f3fe a10a
00000070: 020a 3c1e 4a9b 0e00 0089 e4fe 7f02 0c05
00000080: 03ff 3feb 1d81 d7c7 1736 f713 e615 0007
00000090: 0510 0cf9 f781 adfe 7f25 e6f8 e7f4 f8ee
000000a0: dc07 dfce e4e4 c5be fb14 f1d0 0d09 8135
000000b0: f705 0716 2c27 0df6 fb81 0af2 e90e 0107
000000c0: fafc 02ff 04f8 e7a6 12fa 0214 fc04 7fe9
000000d0: fbfc f517 0e59 b9f2 7ff1 0cff 1cf9 13f5
000000e0: dbf1 74ba a181 fd1a 783d 11ea ea1f edec
000000f0: 08f9 7f0a d813 1106 ec02 0901 f22e 060e
13 -4 127 77 45 12 -1 -36
-36 15 49 6 -40 -30 -49 40
19 -9 -2 62 -27 50 -14 -1
9 -52 29 18 -28 -127 -9 -11
-16 4 1 4 1 32 127 -48
-95 22 -12 50 19 4 21 -17
-78 -3 34 -127 -35 127 72 33
2 22 6 -60 108 -50 14 -30
30 8 -93 30 -98 -127 -40 -17
0 -60 -54 15 -101 31 6 7
-21 27 7 -26 -13 -127 100 53
61 -120 -30 -45 -74 16 -13 -31
5 11 -14 -3 -18 -62 2 64
127 0 24 -37 -13 -2 -95 10
2 10 60 30 74 -101 14 0
0 -119 -28 -2 127 2 12 5
3 -1 63 -21 29 -127 -41 -57
23 54 -9 19 -26 21 0 7
5 16 12 -7 -9 -127 -83 -2
127 37 -26 -8 -25 -12 -8 -18
-36 7 -33 -50 -28 -28 -59 -66
-5 20 -15 -48 13 9 -127 53
-9 5 7 22 44 39 13 -10
-5 -127 10 -14 -23 14 1 7
-6 -4 2 -1 4 -8 -25 -90
18 -6 2 20 -4 4 127 -23
-5 -4 -11 23 14 89 -71 -14
127 -15 12 -1 28 -7 19 -11
-37 -15 116 -70 -95 -127 -3 26
120 61 17 -22 -22 31 -19 -20
8 -7 127 10 -40 19 17 6
-20 2 9 1 -14 46 6 14

model/batch_normalization_5/FusedBatchNormV3;model/depthwise_conv2d_2/depthwise;model/depthwise_conv2d_3/depthwise i1 [1, 3, 3, 32]
00000000: f9cb 18ee 04ed 28f7 1204 e807 ef2a ebed
00000010: 000f f001 27f0 fdfe cce1 edf7 edf2 10ed
00000020: f99a defe b52b 065b cbfc 0225 cf66 0d95
00000030: ea81 d6c5 c6ea c13b ca7a 1bc2 c9d4 b0fd
00000040: f27b bf04 11f0 3945 1efe eb2a 0607 076e
00000050: 0c3d e9f0 02ff 0dd0 f5c2 44ea 090b ff09
00000060: dd24 1fec 05e2 814f 347f 0a9b 1ecb 3c08
00000070: 13ad 3cf0 d62e c5fb 33a9 11f7 2020 81f4
00000080: 7fd4 7f7f 817f b07f 819a 7f81 7f81 7fdc
00000090: 7fdc 7f81 817f 817f 7fe8 7f81 7f7f d07f
000000a0: f981 ed06 fdda 9e21 4fda 3393 eb08 f481
000000b0: 1189 f3d7 ee04 f384 c67f fef0 dbc8 e504
000000c0: 06ed c4fd fee9 f597 fa8b f527 f904 07fa
000000d0: df2f efff f4f9 1308 322f 0c03 25fc e504
000000e0: dc31 08fa ee1e 0e7f e86e e71f d61a f723
000000f0: b0bc edd4 04be 033c 1885 15e9 08ef ce0a
-7 -53 24 -18 4 -19 40 -9
18 4 -24 7 -17 42 -21 -19
0 15 -16 1 39 -16 -3 -2
-52 -31 -19 -9 -19 -14 16 -19
-7 -102 -34 -2 -75 43 6 91
-53 -4 2 37 -49 102 13 -107
-22 -127 -42 -59 -58 -22 -63 59
-54 122 27 -62 -55 -44 -80 -3
-14 123 -65 4 17 -16 57 69
30 -2 -21 42 6 7 7 110
12 61 -23 -16 2 -1 13 -48
-11 -62 68 -22 9 11 -1 9
-35 36 31 -20 5 -30 -127 79
52 127 10 -101 30 -53 60 8
19 -83 60 -16 -42 46 -59 -5
51 -87 17 -9 32 32 -127 -12
127 -44 127 127 -127 127 -80 127
-127 -102 127 -127 127 -127 127 -36
127 -36 127 -127 -127 127 -127 127
127 -24 127 -127 127 127 -48 127
-7 -127 -19 6 -3 -38 -98 33
79 -38 51 -109 -21 8 -12 -127
17 -119 -13 -41 -18 4 -13 -124
-58 127 -2 -16 -37 -56 -27 4
6 -19 -60 -3 -2 -23 -11 -105
-6 -117 -11 39 -7 4 7 -6
-33 47 -17 -1 -12 -7 19 8
50 47 12 3 37 -4 -27 4
-36 49 8 -6 -18 30 14 127
-24 110 -25 31 -42 26 -9 35
-80 -68 -19 -44 4 -66 3 60
24 -123 21 -23 8 -17 -50 10

model/conv2d_3/Conv2D i1 [32, 1, 1, 32]
00000000: 0927 050f fefd fd08 0204 0801 e821 1710
00000010: 0d16 3aee f7ee f6f8 fbf4 08ef 81f5 e3de
00000020: 0733 bf7f cfd5 500e e634 4b12 3108 c812
00000030: bc32 dc42 78a9 e6f6 af0c 19c1 f6f7 cbe0
00000040: d8ea 0315 c47f f308 1bf2 01eb e1f5 f8ec
00000050: 1706 eafa f605 c932 ef0e e6ee f104 f0f4
00000060: 3916 ffeb fb08 1f0b d636 c421 66ea 2af0
00000070: a2f7 e9fc 197f 19f7 75b6 18dc 8aae 1d10
00000080: 7ff7 1ee6 6982 030a 9908 1339 281d fff2
00000090: e2d9 1619 07f0 51db 1230 25d2 32f9 1709
000000a0: 1608 0640 e20d 14fa 0c12 0bf1 eb02 d212
000000b0: 1d15 10eb e01b 1104 21fc f50d 81eb 0bf2
000000c0: 322c f403 c819 e606 ee39 123d 0916 f3c8
000000d0: 81f9 d605 0453 0eff 6213 26fb 73fe 1706
000000e0: 83ed 167f 15c6 10fc f123 1c16 e206 0bcf
000000f0: befe 12fd 051f e1e1 f411 9bd7 02e3 46c9
9 39 5 15 -2 -3 -3 8
2 4 8 1 -24 33 23 16
13 22 58 -18 -9 -18 -10 -8
-5 -12 8 -17 -127 -11 -29 -34
7 51 -65 127 -49 -43 80 14
-26 52 75 18 49 8 -56 18
-68 50 -36 66 120 -87 -26 -10
-81 12 25 -63 -10 -9 -53 -32
-40 -22 3 21 -60 127 -13 8
27 -14 1 -21 -31 -11 -8 -20
23 6 -22 -6 -10 5 -55 50
-17 14 -26 -18 -15 4 -16 -12
57 22 -1 -21 -5 8 31 11
-42 54 -60 33 102 -22 42 -16
-94 -9 -23 -4 25 127 25 -9
117 -74 24 -36 -118 -82 29 16
127 -9 30 -26 105 -126 3 10
-103 8 19 57 40 29 -1 -14
-30 -39 22 25 7 -16 81 -37
18 48 37 -46 50 -7 23 9
22 8 6 64 -30 13 20 -6
12 18 11 -15 -21 2 -46 18
29 21 16 -21 -32 27 17 4
33 -4 -11 13 -127 -21 11 -14
50 44 -12 3 -56 25 -26 6
-18 57 18 61 9 22 -13 -56
-127 -7 -42 5 4 83 14 -1
98 19 38 -5 115 -2 23 6
-125 -19 22 127 21 -58 16 -4
-15 35 28 22 -30 6 11 -49
-66 -2 18 -3 5 31 -31 -31
-12 17 -101 -41 2 -29 70 -55

model/batch_normalization_7/FusedBatchNormV3;model/depthwise_conv2d_3/depthwise i1 [1, 3, 3, 32]
00000000: 2632 d559 e5b2 3ac6 2dd1 bfcd 58bb 1dd1
00000010: c033 2ac8 cd20 1f2f 2b51 2e32 49c1 b8fc
00000020: a455 b16f ae81 baab 429e 81b4 7fb9 4f98
00000030: b54d 58ab ad7f 434b 4b5e 675c 64ad 9f3d
00000040: c822 d442 c1b7 b7d7 20d6 bfdc 47f2 3dc5
00000050: c832 38e0 d129 312a 282a 3023 23e4 a845
00000060: 7f42 ab50 c5ac 7fb1 5bba 9ea8 dfb1 45b8
00000070: ac63 4db4 a394 5b3f 4e65 435a 4fb8 9445
00000080: fa7f 817f 818d 1981 7f81 8481 df81 7f81
00000090: 817f 7f81 8134 7f7f 7f7f 7f7f 7f81 817f
000000a0: 9446 bb51 c0c2 b0bb 3ebc d7ba c0bc 48bf
000000b0: a546 59bf bf65 5747 4c43 3b37 3ca7 9c58
000000c0: 4f22 e016 d8e5 44d7 3cdd c2d7 bbee 28e6
000000d0: c544 2ef1 cda5 3d23 262e 262e 25f4 a044
000000e0: 4a41 d82e cbd4 39be 52c2 d0bd a4b9 4cde
000000f0: a03e 41d3 c6c1 4b39 404d 2e2f 34c5 9c4f
38 50 -43 89 -27 -78 58 -58
45 -47 -65 -51 88 -69 29 -47
-64 51 42 -56 -51 32 31 47
43 81 46 50 73 -63 -72 -4
-92 85 -79 111 -82 -127 -70 -85
66 -98 -127 -76 127 -71 79 -104
-75 77 88 -85 -83 127 67 75
75 94 103 92 100 -83 -97 61
-56 34 -44 66 -63 -73 -73 -41
32 -42 -65 -36 71 -14 61 -59
-56 50 56 -32 -47 41 49 42
40 42 48 35 35 -28 -88 69
127 66 -85 80 -59 -84 127 -79
91 -70 -98 -88 -33 -79 69 -72
-84 99 77 -76 -93 -108 91 63
78 101 67 90 79 -72 -108 69
-6 127 -127 127 -127 -115 25 -127
127 -127 -124 -127 -33 -127 127 -127
-127 127 127 -127 -127 52 127 127
127 127 127 127 127 -127 -127 127
-108 70 -69 81 -64 -62 -80 -69
62 -68 -41 -70 -64 -68 72 -65
-91 70 89 -65 -65 101 87 71
76 67 59 55 60 -89 -100 88
79 34 -32 22 -40 -27 68 -41
60 -35 -62 -41 -69 -18 40 -26
-59 68 46 -15 -51 -91 61 35
38 46 38 46 37 -12 -96 68
74 65 -40 46 -53 -44 57 -66
82 -62 -48 -67 -92 -71 76 -34
-96 62 65 -45 -58 -63 75 57
64 77 46 47 52 -59 -100 79

model/conv2d_4/Conv2D i1 [64, 1, 1, 32]
00000000: e00e 666e e611 e6f9 c937 d63e 0b34 377f
00000010: 051f bd16 eded 0779 f209 fb38 ecf2 0edf
00000020: 1718 5bd9 5b03 21aa f1ff 06f3 df36 7fe3
00000030: b4f6 2484 2c55 e015 f1f1 e05c 91f1 ee37
00000040: 240a 09bd 12fb 7f31 0127 fe02 e0e7 fc0c
00000050: 1ff6 e801 cd54 f0ec 34f8 0fef e8e8 0108
00000060: f314 ffef f115 0207 f100 00f5 0314 fbfa
00000070: 2412 0bee ff03 dd00 06f7 000f 020c 7ff1
00000080: 0fa9 353d 10ec 0c7c fa04 eaf0 05eb 0cdc
00000090: ed12 002e 7f08 0802 3351 2d69 e3e2 f403
000000a0: 0311 f90c f809 0bfa ccff 00bd f1f3 ea05
000000b0: 0bfd e10d bd01 cff5 18fd 0c3d fe10 8e7f
000000c0: f4c0 d10e 270d ffe1 c3cd b0e6 17fc fa9e
000000d0: e920 7f02 3805 d604 f5f3 1f6f ea1e f60b
000000e0: 12f2 bef4 cefe 0fdb 15f1 dcf1 0e0f a7c3
000000f0: 00f3 7ff2 bd11 fdd2 d6fd f5b8 091c 0df6
-32 14 102 110 -26 17 -26 -7
-55 55 -42 62 11 52 55 127
5 31 -67 22 -19 -19 7 121
-14 9 -5 56 -20 -14 14 -33
23 24 91 -39 91 3 33 -86
-15 -1 6 -13 -33 54 127 -29
-76 -10 36 -124 44 85 -32 21
-15 -15 -32 92 -111 -15 -18 55
36 10 9 -67 18 -5 127 49
1 39 -2 2 -32 -25 -4 12
31 -10 -24 1 -51 84 -16 -20
52 -8 15 -17 -24 -24 1 8
-13 20 -1 -17 -15 21 2 7
-15 0 0 -11 3 20 -5 -6
36 18 11 -18 -1 3 -35 0
6 -9 0 15 2 12 127 -15
15 -87 53 61 16 -20 12 124
-6 4 -22 -16 5 -21 12 -36
-19 18 0 46 127 8 8 2
51 81 45 105 -29 -30 -12 3
3 17 -7 12 -8 9 11 -6
-52 -1 0 -67 -15 -13 -22 5
11 -3 -31 13 -67 1 -49 -11
24 -3 12 61 -2 16 -114 127
-12 -64 -47 14 39 13 -1 -31
-61 -51 -80 -26 23 -4 -6 -98
-23 32 127 2 56 5 -42 4
-11 -13 31 111 -22 30 -10 11
18 -14 -66 -12 -50 -2 15 -37
21 -15 -36 -15 14 15 -89 -61
0 -13 127 -14 -67 17 -3 -46
-42 -3 -11 -72 9 28 13 -10

model/batch_normalization_9/FusedBatchNormV3;model/depthwise_conv2d_4/depthwise;model/depthwise_conv2d_5/depthwise i1 [1, 3, 3, 64]
00000000: ffe8 ece4 180b fb15 ffef f0fc 04b7 052c
00000010: 2037 f3c6 f1e8 fc0e faed 186a f223 fc00
00000020: 22ed 03e8 1bfb e2f2 e6f3 dff6 c106 a9ea
00000030: e5c2 0a0c 85fa f121 e5eb 1ef0 fbf9 0044
00000040: 50be 81e6 65dc 22b0 7c0b 51e5 2f95 9862
00000050: 4382 2a81 1389 2338 d40f 7006 fb9c 0bb3
00000060: 70fe 1a9e 6920 1f0b d299 e7f4 81ab bd89
00000070: c918 3ce7 7f33 f3d3 811e 197f bc81 6fd1
00000080: f2ef f3e5 ea0f e511 81f2 e423 e22a 2006
00000090: e90e f410 f30f f5b2 05e8 9ade e71f f812
000000a0: c702 f7f5 d4fd 2ef0 031b 1802 0b10 c932
000000b0: 502a c90d 2fe4 1f03 d3ff f0d5 0fee f5eb
000000c0: 3fda e3ba 090e 26d2 5629 f3fa 7f15 e0c8
000000d0: a881 15e0 ebc6 fb18 df0f 5d12 1ac1 24ea
000000e0: 63d2 2c33 260d e4ff f7cb 3126 21f1 eab1
000000f0: ea81 a2f3 74f4 0076 a92b 1f7e a7c0 417f
-1 -24 -20 -28 24 11 -5 21
-1 -17 -16 -4 4 -73 5 44
32 55 -13 -58 -15 -24 -4 14
-6 -19 24 106 -14 35 -4 0
34 -19 3 -24 27 -5 -30 -14
-26 -13 -33 -10 -63 6 -87 -22
-27 -62 10 12 -123 -6 -15 33
-27 -21 30 -16 -5 -7 0 68
80 -66 -127 -26 101 -36 34 -80
124 11 81 -27 47 -107 -104 98
67 -126 42 -127 19 -119 35 56
-44 15 112 6 -5 -100 11 -77
112 -2 26 -98 105 32 31 11
-46 -103 -25 -12 -127 -85 -67 -119
-55 24 60 -25 127 51 -13 -45
-127 30 25 127 -68 -127 111 -47
-14 -17 -13 -27 -22 15 -27 17
-127 -14 -28 35 -30 42 32 6
-23 14 -12 16 -13 15 -11 -78
5 -24 -102 -34 -25 31 -8 18
-57 2 -9 -11 -44 -3 46 -16
3 27 24 2 11 16 -55 50
80 42 -55 13 47 -28 31 3
-45 -1 -16 -43 15 -18 -11 -21
63 -38 -29 -70 9 14 38 -46
86 41 -13 -6 127 21 -32 -56
-88 -127 21 -32 -21 -58 -5 24
-33 15 93 18 26 -63 36 -22
99 -46 44 51 38 13 -28 -1
-9 -53 49 38 33 -15 -22 -79
-22 -127 -94 -13 116 -12 0 118
-87 43 31 126 -89 -64 65 127

model/conv2d_5/Conv2D i1 [64, 1, 1, 64]
00000000: e3d2 00e4 fe11 f4ff 0708 f2fd ece1 eaf4
00000010: fbfc bdf5 232c 0cfe fefa 08f4 feef 19fe
00000020: f1f0 09f9 0a08 0bb0 020b e808 faf9 f606
00000030: f9f5 f8f5 ee7f ecfa f1f2 f8f9 f0ed 0606
00000040: fbe4 ef09 ec0b e518 32f9 1dd2 def4 ea30
00000050: c002 cb23 0104 dd07 f0d4 fcd4 1a16 fcfe
00000060: f102 f408 fd25 e1e1 dd14 f1dd d3dd f8de
00000070: 2bca 7ffd 35db 7018 c518 d20c fd04 cb1c
00000080: 0cf6 1d04 f116 f6ea 349b e512 fe0e fbe7
00000090: 13f2 00f0 223b e203 04fc f8cc d8fe 4001
000000a0: e315 a0fe e014 0dc3 f803 0f0f 02bc 0b06
000000b0: 11f6 07f5 de7f edf3 1134 f610 f8f0 c1ed
000000c0: 0609 caee 3207 1105 1afa f828 d408 da1d
000000d0: 2401 fedc aae2 fbd4 9d1d 1dd3 262b 8102
000000e0: 3f21 0341 0202 2d01 3be9 0739 32fb 0a1d
000000f0: 3516 1eec d5f4 19dc e216 f744 c10b 37fd
-29 -46 0 -28 -2 17 -12 -1
7 8 -14 -3 -20 -31 -22 -12
-5 -4 -67 -11 35 44 12 -2
-2 -6 8 -12 -2 -17 25 -2
-15 -16 9 -7 10 8 11 -80
2 11 -24 8 -6 -7 -10 6
-7 -11 -8 -11 -18 127 -20 -6
-15 -14 -8 -7 -16 -19 6 6
-5 -28 -17 9 -20 11 -27 24
50 -7 29 -46 -34 -12 -22 48
-64 2 -53 35 1 4 -35 7
-16 -44 -4 -44 26 22 -4 -2
-15 2 -12 8 -3 37 -31 -31
-35 20 -15 -35 -45 -35 -8 -34
43 -54 127 -3 53 -37 112 24
-59 24 -46 12 -3 4 -53 28
12 -10 29 4 -15 22 -10 -22
52 -101 -27 18 -2 14 -5 -25
19 -14 0 -16 34 59 -30 3
4 -4 -8 -52 -40 -2 64 1
-29 21 -96 -2 -32 20 13 -61
-8 3 15 15 2 -68 11 6
17 -10 7 -11 -34 127 -19 -13
17 52 -10 16 -8 -16 -63 -19
6 9 -54 -18 50 7 17 5
26 -6 -8 40 -44 8 -38 29
36 1 -2 -36 -86 -30 -5 -44
-99 29 29 -45 38 43 -127 2
63 33 3 65 2 2 45 1
59 -23 7 57 50 -5 10 29
53 22 30 -20 -43 -12 25 -36
-30 22 -9 68 -63 11 55 -3

model/batch_normalization_11/FusedBatchNormV3;model/depthwise_conv2d_5/depthwise i1 [1, 3, 3, 64]
00000000: 4c49 c0bb 59c5 b4c2 64bc 20eb 39f9 dad2
00000010: bc43 b689 58ad cc58 54cf ce18 5402 2432
00000020: 6898 69ce 3239 427f 4548 239d 2f33 cd45
00000030: ded1 bd34 322d c238 b6b6 3b56 2ddf 81c5
00000040: 5c7a b094 759d 88ab f481 41cf 63af a8a4
00000050: 9451 9d99 70a9 bc6e 7bbb a339 5705 3559
00000060: 75aa 75b4 515b 5265 606a 45a0 2f5d 6277
00000070: 8da7 a068 543e aa5f 8191 5cf1 67b3 85b0
00000080: 3132 c5c2 26bb c5db bcb5 36de 38a7 ded3
00000090: d932 d1e7 22c9 d426 40d5 d93a 2908 2329
000000a0: 26d9 35de 1f29 3227 3955 32c0 243c df51
000000b0: 8fd7 dd30 341e e229 c3c8 2d9a 4fc4 d7ca
000000c0: 555d ad8b 60ba aaad 7fa4 51a6 31cd d7d5
000000d0: b04c 9681 689d c25a 6fab d448 519f 425b
000000e0: 7f8b 68b1 4c44 5373 465e 4d8b 5045 9aeb
000000f0: 87a9 cc56 4f49 a03f 0eb7 5574 45c3 89bb
76 73 -64 -69 89 -59 -76 -62
100 -68 32 -21 57 -7 -38 -46
-68 67 -74 -119 88 -83 -52 88
84 -49 -50 24 84 2 36 50
104 -104 105 -50 50 57 66 127
69 72 35 -99 47 51 -51 69
-34 -47 -67 52 50 45 -62 56
-74 -74 59 86 45 -33 -127 -59
92 122 -80 -108 117 -99 -120 -85
-12 -127 65 -49 99 -81 -88 -92
-108 81 -99 -103 112 -87 -68 110
123 -69 -93 57 87 5 53 89
117 -86 117 -76 81 91 82 101
96 106 69 -96 47 93 98 119
-115 -89 -96 104 84 62 -86 95
-127 -111 92 -15 103 -77 -123 -80
49 50 -59 -62 38 -69 -59 -37
-68 -75 54 -34 56 -89 -34 -45
-39 50 -47 -25 34 -55 -44 38
64 -43 -39 58 41 8 35 41
38 -39 53 -34 31 41 50 39
57 85 50 -64 36 60 -33 81
-113 -41 -35 48 52 30 -30 41
-61 -56 45 -102 79 -60 -41 -54
85 93 -83 -117 96 -70 -86 -83
127 -92 81 -90 49 -51 -41 -43
-80 76 -106 -127 104 -99 -62 90
111 -85 -44 72 81 -97 66 91
127 -117 104 -79 76 68 83 115
70 94 77 -117 80 69 -102 -21
-121 -87 -52 86 79 73 -96 63
14 -73 85 116 69 -61 -119 -69

model/conv2d_6/Conv2D i1 [128, 1, 1, 64]
00000000: ff01 09e1 0e03 000f 04f2 fcf3 ff22 07d8
00000010: f1f3 fbe1 f003 12fb 0713 14f3 00fd d009
00000020: e705 fa02 fd7f d213 fa0e f7f0 260b 1a13
00000030: 04e8 00f7 fbec f10a 280a f6f6 1008 2cf4
00000040: e720 1e02 1612 31f4 eef7 23f9 1305 d1fe
00000050: 9d4f 29f6 0c7f 090b 0137 e57d 1a0e 32f8
00000060: ec04 1128 d844 0af1 40f4 5f0f fba3 1514
00000070: 01d1 e82b 1027 5cca e80b f008 d5f0 0521
00000080: fafd 00c7 33ee f100 ff1e fe2b e6fa ff17
00000090: 501e 1711 f9c9 08f0 012d 0bf7 fe03 d5e6
000000a0: 1ef0 ea01 6164 0f33 0401 e504 fb44 0f06
000000b0: f7c2 1508 0702 0d7f e33a 03f4 f203 f05e
000000c0: f6ff f7f8 0cec 0bdb ffe4 090f 05f0 dd15
000000d0: 3dfb 17ee 1a0b 08e3 defd fd08 2411 16e0
000000e0: e6d4 2919 fa2a 44fc ce28 3df3 17f9 fe15
000000f0: f80b 237f 0008 2702 15ec f20a fbf7 0af3
-1 1 9 -31 14 3 0 15
4 -14 -4 -13 -1 34 7 -40
-15 -13 -5 -31 -16 3 18 -5
7 19 20 -13 0 -3 -48 9
-25 5 -6 2 -3 127 -46 19
-6 14 -9 -16 38 11 26 19
4 -24 0 -9 -5 -20 -15 10
40 10 -10 -10 16 8 44 -12
-25 32 30 2 22 18 49 -12
-18 -9 35 -7 19 5 -47 -2
-99 79 41 -10 12 127 9 11
1 55 -27 125 26 14 50 -8
-20 4 17 40 -40 68 10 -15
64 -12 95 15 -5 -93 21 20
1 -47 -24 43 16 39 92 -54
-24 11 -16 8 -43 -16 5 33
-6 -3 0 -57 51 -18 -15 0
-1 30 -2 43 -26 -6 -1 23
80 30 23 17 -7 -55 8 -16
1 45 11 -9 -2 3 -43 -26
30 -16 -22 1 97 100 15 51
4 1 -27 4 -5 68 15 6
-9 -62 21 8 7 2 13 127
-29 58 3 -12 -14 3 -16 94
-10 -1 -9 -8 12 -20 11 -37
-1 -28 9 15 5 -16 -35 21
61 -5 23 -18 26 11 8 -29
-34 -3 -3 8 36 17 22 -32
-26 -44 41 25 -6 42 68 -4
-50 40 61 -13 23 -7 -2 21
-8 11 35 127 0 8 39 2
21 -20 -14 10 -5 -9 10 -13

model/batch_normalization_13/FusedBatchNormV3;model/depthwise_conv2d_6/depthwise;model/depthwise_conv2d_11/depthwise i1 [1, 3, 3, 128]
00000000: fdf1 f1fa f4f5 07ef 2cf3 0c04 0ef1 e5f6
00000010: fdfb 2c35 080e e9fb 0cb5 fdfa ffdb 1100
00000020: f0e2 000a f8f7 13d3 3bfe fe02 060f f014
00000030: fd02 10f8 08ff 00eb f22b ff08 feff 14f2
00000040: e3f9 04f7 0cfc f703 defe c27f f4f1 fbfe
00000050: 060f 06e7 fd04 fcf9 0607 fefe f305 f00c
00000060: f703 70ed 0cec 02fe 0c06 07fe 02dd f2e0
00000070: 08fc fce6 dafd e0cb 0dfe 0216 0d0a fa02
00000080: ed7f 01e9 dd2a 11fd 7136 e6bb 81df a8d8
00000090: fe1b 5384 fada ca13 eb7b 0b04 f3fb 1320
000000a0: 272f e3eb d102 ec28 ed2f feff ebfe 81d5
000000b0: d4bb b381 f50c e1b6 021f 0561 ede4 ec7f
000000c0: 14bf f505 14e2 1ab2 26f4 7cf9 edbc eef0
000000d0: e581 bfb1 fff1 c6fd d0fa 0af4 fe36 fc7f
000000e0: 0aa5 3b81 f9c1 e7f4 3df2 dbf0 e8e6 eace
000000f0: 810c 1472 31f4 24d8 d810 efdc 0bda b42d
-3 -15 -15 -6 -12 -11 7 -17
44 -13 12 4 14 -15 -27 -10
-3 -5 44 53 8 14 -23 -5
12 -75 -3 -6 -1 -37 17 0
-16 -30 0 10 -8 -9 19 -45
59 -2 -2 2 6 15 -16 20
-3 2 16 -8 8 -1 0 -21
-14 43 -1 8 -2 -1 20 -14
-29 -7 4 -9 12 -4 -9 3
-34 -2 -62 127 -12 -15 -5 -2
6 15 6 -25 -3 4 -4 -7
6 7 -2 -2 -13 5 -16 12
-9 3 112 -19 12 -20 2 -2
12 6 7 -2 2 -35 -14 -32
8 -4 -4 -26 -38 -3 -32 -53
13 -2 2 22 13 10 -6 2
-19 127 1 -23 -35 42 17 -3
113 54 -26 -69 -127 -33 -88 -40
-2 27 83 -124 -6 -38 -54 19
-21 123 11 4 -13 -5 19 32
39 47 -29 -21 -47 2 -20 40
-19 47 -2 -1 -21 -2 -127 -43
-44 -69 -77 -127 -11 12 -31 -74
2 31 5 97 -19 -28 -20 127
20 -65 -11 5 20 -30 26 -78
38 -12 124 -7 -19 -68 -18 -16
-27 -127 -65 -79 -1 -15 -58 -3
-48 -6 10 -12 -2 54 -4 127
10 -91 59 -127 -7 -63 -25 -12
61 -14 -37 -16 -24 -26 -22 -50
-127 12 20 114 49 -12 36 -40
-40 16 -17 -36 11 -38 -76 45

model/conv2d_7/Conv2D i1 [128, 1, 1, 128]
00000000: d5fd dd3b ed25 fb16 dbb8 29b8 06f2 e00e
00000010: d69d 0df0 faf4 f343 0904 db1b 7f12 4a1f
00000020: 27c1 e20a 07fb f506 f928 2c05 e726 e2fe
00000030: c91f 1035 f1ff 0e11 acd6 d1ea e5fb e2f5
00000040: 26f1 e0f8 252c c0bd e319 0bf3 0017 c7c1
00000050: 0dc1 f2ee f1fd 2f62 08ef f8b4 ecc1 d2eb
00000060: f2ea e4fd e30a ef48 f86e 53f6 071f f703
00000070: 171a fac3 faeb e409 49fb 13df f3d3 094a
00000080: b700 399c 0fd4 f2a5 12dc 22cb 0be9 c704
00000090: 3103 020a 39ec fb3e 130b 33f6 3605 e5d6
000000a0: 2043 fb33 162d 0ee1 14cf fd44 e900 e5fd
000000b0: c3ec 19e0 293e de34 13ef cafd ec1f 120a
000000c0: 20ef 3207 ed27 f6ed 314f c700 01cb fe27
000000d0: ebd3 fee6 d0e4 0d13 04fd 1505 24d6 f081
000000e0: 143f 1a2c 2f23 164e 0843 1f33 e6f3 93e1
000000f0: 00ec 58ef 2f3e ee49 a34e 002f 1412 19f7
-43 -3 -35 59 -19 37 -5 22
-37 -72 41 -72 6 -14 -32 14
-42 -99 13 -16 -6 -12 -13 67
9 4 -37 27 127 18 74 31
39 -63 -30 10 7 -5 -11 6
-7 40 44 5 -25 38 -30 -2
-55 31 16 53 -15 -1 14 17
-84 -42 -47 -22 -27 -5 -30 -11
38 -15 -32 -8 37 44 -64 -67
-29 25 11 -13 0 23 -57 -63
13 -63 -14 -18 -15 -3 47 98
8 -17 -8 -76 -20 -63 -46 -21
-14 -22 -28 -3 -29 10 -17 72
-8 110 83 -10 7 31 -9 3
23 26 -6 -61 -6 -21 -28 9
73 -5 19 -33 -13 -45 9 74
-73 0 57 -100 15 -44 -14 -91
18 -36 34 -53 11 -23 -57 4
49 3 2 10 57 -20 -5 62
19 11 51 -10 54 5 -27 -42
32 67 -5 51 22 45 14 -31
20 -49 -3 68 -23 0 -27 -3
-61 -20 25 -32 41 62 -34 52
19 -17 -54 -3 -20 31 18 10
32 -17 50 7 -19 39 -10 -19
49 79 -57 0 1 -53 -2 39
-21 -45 -2 -26 -48 -28 13 19
4 -3 21 5 36 -42 -16 -127
20 63 26 44 47 35 22 78
8 67 31 51 -26 -13 -109 -31
0 -20 88 -17 47 62 -18 73
-93 78 0 47 20 18 25 -9

model/batch_normalization_15/FusedBatchNormV3;model/depthwise_conv2d_7/depthwise;model/depthwise_conv2d_11/depthwise i1 [1, 3, 3, 128]
00000000: faf0 faff 20fc f20d 23e5 9ffb 2a04 e9f7
00000010: eff9 01f2 080a 0edc 18f9 1bf4 f0f4 fc14
00000020: fcf5 1fde 3af7 f7fa 171c e40f fdeb e0d6
00000030: f804 cba9 f6b4 fefd e5fe f8d7 09fb f6f2
00000040: ecf0 f6f1 db0f fc01 0b09 c0dc 0206 e2f0
00000050: ca13 f1e6 09f3 ae00 0616 1000 b40b f5f6
00000060: f505 04d5 24ec f100 01d9 be98 00e0 e60b
00000070: fcf4 0d04 e517 efff fefe f5b6 faff 0304
00000080: 8cd2 1cf5 733d dff1 fdc7 a225 3af5 7f34
00000090: b516 0acc 14d0 73c0 81a7 f1f3 f17f 06d7
000000a0: d30b e040 7f0d 7f1a 31e3 f081 ae98 ffef
000000b0: cfd9 dee9 030b 49ca 09ff 2d81 26ec e186
000000c0: 7ff6 d80e 160e ee7f 0881 0f32 7f7f 7f04
000000d0: 3334 c790 c6df d501 d07f d217 7f96 16f3
000000e0: b70a f292 7f61 fa64 b922 29e8 817f fd07
000000f0: e6f4 d9fb 47f1 130c 05eb e78d fcf2 c712
-6 -16 -6 -1 32 -4 -14 13
35 -27 -97 -5 42 4 -23 -9
-17 -7 1 -14 8 10 14 -36
24 -7 27 -12 -16 -12 -4 20
-4 -11 31 -34 58 -9 -9 -6
23 28 -28 15 -3 -21 -32 -42
-8 4 -53 -87 -10 -76 -2 -3
-27 -2 -8 -41 9 -5 -10 -14
-20 -16 -10 -15 -37 15 -4 1
11 9 -64 -36 2 6 -30 -16
-54 19 -15 -26 9 -13 -82 0
6 22 16 0 -76 11 -11 -10
-11 5 4 -43 36 -20 -15 0
1 -39 -66 -104 0 -32 -26 11
-4 -12 13 4 -27 23 -17 -1
-2 -2 -11 -74 -6 -1 3 4
-116 -46 28 -11 115 61 -33 -15
-3 -57 -94 37 58 -11 127 52
-75 22 10 -52 20 -48 115 -64
-127 -89 -15 -13 -15 127 6 -41
-45 11 -32 64 127 13 127 26
49 -29 -16 -127 -82 -104 -1 -17
-49 -39 -34 -23 3 11 73 -54
9 -1 45 -127 38 -20 -31 -122
127 -10 -40 14 22 14 -18 127
8 -127 15 50 127 127 127 4
51 52 -57 -112 -58 -33 -43 1
-48 127 -46 23 127 -106 22 -13
-73 10 -14 -110 127 97 -6 100
-71 34 41 -24 -127 127 -3 7
-26 -12 -39 -5 71 -15 19 12
5 -21 -25 -115 -4 -14 -57 18

model/conv2d_8/Conv2D i1 [128, 1, 1, 128]
00000000: bce3 ad1e fec5 072b ff16 10c7 1287 1210
00000010: 93e1 cdca 5ac7 edc7 f60f 4575 0efa 2a88
00000020: 37d9 dac0 f7ed 17f2 fa50 c4e8 e8f9 04b4
00000030: 4c78 07f1 1633 bafb 1c04 27be 7f22 e4f2
00000040: 03e5 c354 6901 2c57 01e2 e819 2ffa 0000
00000050: 0c38 0205 00b6 09e1 4709 40f7 de22 fdec
00000060: 22b7 ef40 d118 e2e8 e707 f232 f5b0 570e
00000070: 1fc7 f2b3 17be 481d 0cdf 22f6 f2ae dccc
00000080: 0202 ea05 13fa 24ec 22f9 f4fe ed12 00fd
00000090: cf27 d203 0907 0e1d f204 0efe 09bc 0f03
000000a0: e504 f5d6 ee02 c828 0b22 1c10 f01b d5e2
000000b0: 14d1 09fc 24d9 e50f fa13 15f7 d81b 022a
000000c0: fdfa 37f8 4415 0304 0efe 1d2d 0207 0508
000000d0: 0319 0f01 df23 e50a f22e fc0e 091e 0ff2
000000e0: 15de 2dfd 0ded 02f9 16fe fc02 24e5 fef0
000000f0: 81ff e927 f228 f432 03cc 1de5 edfa e9f1
-68 -29 -83 30 -2 -59 7 43
-1 22 16 -57 18 -121 18 16
-109 -31 -51 -54 90 -57 -19 -57
-10 15 69 117 14 -6 42 -120
55 -39 -38 -64 -9 -19 23 -14
-6 80 -60 -24 -24 -7 4 -76
76 120 7 -15 22 51 -70 -5
28 4 39 -66 127 34 -28 -14
3 -27 -61 84 105 1 44 87
1 -30 -24 25 47 -6 0 0
12 56 2 5 0 -74 9 -31
71 9 64 -9 -34 34 -3 -20
34 -73 -17 64 -47 24 -30 -24
-25 7 -14 50 -11 -80 87 14
31 -57 -14 -77 23 -66 72 29
12 -33 34 -10 -14 -82 -36 -52
2 2 -22 5 19 -6 36 -20
34 -7 -12 -2 -19 18 0 -3
-49 39 -46 3 9 7 14 29
-14 4 14 -2 9 -68 15 3
-27 4 -11 -42 -18 2 -56 40
11 34 28 16 -16 27 -43 -30
20 -47 9 -4 36 -39 -27 15
-6 19 21 -9 -40 27 2 42
-3 -6 55 -8 68 21 3 4
14 -2 29 45 2 7 5 8
3 25 15 1 -33 35 -27 10
-14 46 -4 14 9 30 15 -14
21 -34 45 -3 13 -19 2 -7
22 -2 -4 2 36 -27 -2 -16
-127 -1 -23 39 -14 40 -12 50
3 -52 29 -27 -19 -6 -23 -15

model/batch_normalization_17/FusedBatchNormV3;model/depthwise_conv2d_8/depthwise;model/depthwise_conv2d_11/depthwise i1 [1, 3, 3, 128]
00000000: f81b 35f0 f711 4d42 f6d4 fa12 188a dfea
00000010: f7f6 dccd 2622 21e8 4a04 fae5 baf4 f8fe
00000020: 1014 db7f f4f4 13d8 14e0 ed0a 1615 cfe2
00000030: e5fc 81f9 e9de e344 01df fca0 dbef 091a
00000040: 1bec e3fc f20a afce d2ed ec1f 041e f5ac
00000050: 0d12 eade fed5 0b12 02fd f453 fafe 02e9
00000060: bbdc e704 e734 e4aa 0dd7 e8eb 508b f9d4
00000070: 18f5 d5e3 f3fd ffe2 0ce6 20fb 24b6 ea2a
00000080: 7f02 28aa 14fc 3232 0aa1 dd23 f448 0b2a
00000090: ecf2 7fa7 1eef cdc5 3a7f 13d0 9200 f354
000000a0: 179c fe01 e2fe d1e8 f838 430d eb2c 130f
000000b0: f981 dbf7 e0db ac74 25c4 c18b cdd0 39bd
000000c0: 3f77 100c 3ef7 8f30 8107 ebdf 7f04 f416
000000d0: e744 30e5 29ef 83b4 c5db 1a57 e3d6 bbbc
000000e0: 46da 1bc3 7612 cd81 3fc1 02d3 7f81 005c
000000f0: 8183 03f4 c37f ebc2 defe c74b f2cf 2727
-8 27 53 -16 -9 17 77 66
-10 -44 -6 18 24 -118 -33 -22
-9 -10 -36 -51 38 34 33 -24
74 4 -6 -27 -70 -12 -8 -2
16 20 -37 127 -12 -12 19 -40
20 -32 -19 10 22 21 -49 -30
-27 -4 -127 -7 -23 -34 -29 68
1 -33 -4 -96 -37 -17 9 26
27 -20 -29 -4 -14 10 -81 -50
-46 -19 -20 31 4 30 -11 -84
13 18 -22 -34 -2 -43 11 18
2 -3 -12 83 -6 -2 2 -23
-69 -36 -25 4 -25 52 -28 -86
13 -41 -24 -21 80 -117 -7 -44
24 -11 -43 -29 -13 -3 -1 -30
12 -26 32 -5 36 -74 -22 42
127 2 40 -86 20 -4 50 50
10 -95 -35 35 -12 72 11 42
-20 -14 127 -89 30 -17 -51 -59
58 127 19 -48 -110 0 -13 84
23 -100 -2 1 -30 -2 -47 -24
-8 56 67 13 -21 44 19 15
-7 -127 -37 -9 -32 -37 -84 116
37 -60 -63 -117 -51 -48 57 -67
63 119 16 12 62 -9 -113 48
-127 7 -21 -33 127 4 -12 22
-25 68 48 -27 41 -17 -125 -76
-59 -37 26 87 -29 -42 -69 -68
70 -38 27 -61 118 18 -51 -127
63 -63 2 -45 127 -127 0 92
-127 -125 3 -12 -61 127 -21 -62
-34 -2 -57 75 -14 -49 39 39

model/conv2d_9/Conv2D i1 [128, 1, 1, 128]
00000000: d2e7 ee11 200a 3600 ea44 c24e 20d8 b435
00000010: 1811 32e5 270d 1bfe e563 061b ed2b e22e
00000020: c42b f2f2 d0ea e2d4 0ffe b5eb 0e4a 330f
00000030: d724 7405 fa4b 8157 ee01 2c01 0ae7 dafe
00000040: f758 d7ef 18a1 feef 2838 ed16 f713 d91b
00000050: bc7b 2d1c 41ff 38f2 f116 ebfe d785 cf71
00000060: 191a f896 1025 2aaf f823 2fc6 fcdc 1efe
00000070: 1854 f406 bafa 58f1 06e9 1dc9 c727 feff
00000080: edbf ee1c cdbc fffc b91e cb21 dde2 fdea
00000090: 7ffe 10e6 1613 1504 ffe9 b517 e43c dddd
000000a0: f5f1 33ed f2e7 fa0e d9df f415 4541 ddf0
000000b0: 0045 1713 0af8 f710 10e1 1009 ec20 3deb
000000c0: 1f07 4e0b c014 16eb e9d9 29e6 b7ea 3cfd
000000d0: f8f3 25cd 02fb f9fe ece5 eeee ded1 0220
000000e0: e401 1bf9 0f0b f5f6 120b 03ef 25cc 3afe
000000f0: 0bf6 ede1 0fec 191c 0817 ea08 1325 f3f7
-46 -25 -18 17 32 10 54 0
-22 68 -62 78 32 -40 -76 53
24 17 50 -27 39 13 27 -2
-27 99 6 27 -19 43 -30 46
-60 43 -14 -14 -48 -22 -30 -44
15 -2 -75 -21 14 74 51 15
-41 36 116 5 -6 75 -127 87
-18 1 44 1 10 -25 -38 -2
-9 88 -41 -17 24 -95 -2 -17
40 56 -19 22 -9 19 -39 27
-68 123 45 28 65 -1 56 -14
-15 22 -21 -2 -41 -123 -49 113
25 26 -8 -106 16 37 42 -81
-8 35 47 -58 -4 -36 30 -2
24 84 -12 6 -70 -6 88 -15
6 -23 29 -55 -57 39 -2 -1
-19 -65 -18 28 -51 -68 -1 -4
-71 30 -53 33 -35 -30 -3 -22
127 -2 16 -26 22 19 21 4
-1 -23 -75 23 -28 60 -35 -35
-11 -15 51 -19 -14 -25 -6 14
-39 -33 -12 21 69 65 -35 -16
0 69 23 19 10 -8 -9 16
16 -31 16 9 -20 32 61 -21
31 7 78 11 -64 20 22 -21
-23 -39 41 -26 -73 -22 60 -3
-8 -13 37 -51 2 -5 -7 -2
-20 -27 -18 -18 -34 -47 2 32
-28 1 27 -7 15 11 -11 -10
18 11 3 -17 37 -52 58 -2
11 -10 -19 -31 15 -20 25 28
8 23 -22 8 19 37 -13 -9

model/batch_normalization_19/FusedBatchNormV3;model/depthwise_conv2d_9/depthwise;model/depthwise_conv2d_11/depthwise i1 [1, 3, 3, 128]
00000000: b0df a71d 40bc 99de 5edd ecf0 d8f2 0cd0
00000010: edda 102c ead6 3233 dcef 05d7 1500 9a94
00000020: fd05 0602 44ef f4f5 18dd b8f7 2411 81cf
00000030: 2917 3807 c2ce 8134 fdf3 f679 bd30 ceeb
00000040: 25ce ffbc 2101 0b1d 0a21 e8eb dcd6 2a49
00000050: 1ede efe5 fee5 e5a6 2e1f f101 1e14 a831
00000060: 2377 dc50 d5c7 2f05 fa03 eff6 96fa f2ed
00000070: ed7f fbc9 e419 f8ce 2c4e ae9c a409 da0d
00000080: de24 8272 5caf bebe 72af 94fc ff7f 5c1d
00000090: 0481 1de3 29b4 3ee4 13b1 d985 f3b9 aaaf
000000a0: c215 127f 57d7 8a0e 41d1 caf3 b652 a0ba
000000b0: 7f02 7cef e9a7 b443 ff02 7f6e c8e8 3bf8
000000c0: f6e0 b6e1 89c3 21d5 a87f f01f e9b5 2d75
000000d0: 40c6 27cf ffc4 b7b7 7f51 1501 207f 19bf
000000e0: 3e7f e422 f581 d87f 9acf e3e6 c0f8 fb06
000000f0: dbe7 1312 1830 f70e 223c 00c8 b8df 81b7
-80 -33 -89 29 64 -68 -103 -34
94 -35 -20 -16 -40 -14 12 -48
-19 -38 16 44 -22 -42 50 51
-36 -17 5 -41 21 0 -102 -108
-3 5 6 2 68 -17 -12 -11
24 -35 -72 -9 36 17 -127 -49
41 23 56 7 -62 -50 -127 52
-3 -13 -10 121 -67 48 -50 -21
37 -50 -1 -68 33 1 11 29
10 33 -24 -21 -36 -42 42 73
30 -34 -17 -27 -2 -27 -27 -90
46 31 -15 1 30 20 -88 49
35 119 -36 80 -43 -57 47 5
-6 3 -17 -10 -106 -6 -14 -19
-19 127 -5 -55 -28 25 -8 -50
44 78 -82 -100 -92 9 -38 13
-34 36 -126 114 92 -81 -66 -66
114 -81 -108 -4 -1 127 92 29
4 -127 29 -29 41 -76 62 -28
19 -79 -39 -123 -13 -71 -86 -81
-62 21 18 127 87 -41 -118 14
65 -47 -54 -13 -74 82 -96 -70
127 2 124 -17 -23 -89 -76 67
-1 2 127 110 -56 -24 59 -8
-10 -32 -74 -31 -119 -61 33 -43
-88 127 -16 31 -23 -75 45 117
64 -58 39 -49 -1 -60 -73 -73
127 81 21 1 32 127 25 -65
62 127 -28 34 -11 -127 -40 127
-102 -49 -29 -26 -64 -8 -5 6
-37 -25 19 18 24 48 -9 14
34 60 0 -56 -72 -33 -127 -73

model/conv2d_10/Conv2D i1 [128, 1, 1, 128]
00000000: 0bd7 c315 f5e0 f407 cbf2 1d05 10cb f31d
00000010: fbe0 20f6 3806 1920 f5f9 271c e6e2 fe11
00000020: 13f4 f61b cc0a 16eb dc23 ebf4 000d f9e3
00000030: 2ce3 f516 280a fded 08ec 42f8 f1de f6ef
00000040: d208 dd19 05e1 1a0e 010e f4cb 12f2 7f29
00000050: d912 07e6 df10 f0fe 08f0 2902 e522 e9f8
00000060: dbe5 0210 ef10 ddf4 0dd9 e90c 3508 ebf9
00000070: f0f4 0f19 5106 15f4 061a 0e13 05ea 050f
00000080: 0dc9 fa12 0903 e934 07d1 c6d3 1725 112f
00000090: f0f0 f3cd 03d2 f212 f4b9 59c6 1828 0801
000000a0: c2f2 3038 030f 1700 2efd e6fd baf5 e7de
000000b0: ce02 0c2f ece4 16ea 040f e2cf f90e 0e2f
000000c0: aafb 1d0f 0608 37d5 f433 ffde 002c 24ff
000000d0: cf00 e8ef 1b09 ec0d fee1 1718 f0c8 fff1
000000e0: 35e1 fa01 ddf6 c7ea f510 dd35 d1e6 3509
000000f0: ea39 122a fa7f 06f5 33c7 4604 f1d4 e114
11 -41 -61 21 -11 -32 -12 7
-53 -14 29 5 16 -53 -13 29
-5 -32 32 -10 56 6 25 32
-11 -7 39 28 -26 -30 -2 17
19 -12 -10 27 -52 10 22 -21
-36 35 -21 -12 0 13 -7 -29
44 -29 -11 22 40 10 -3 -19
8 -20 66 -8 -15 -34 -10 -17
-46 8 -35 25 5 -31 26 14
1 14 -12 -53 18 -14 127 41
-39 18 7 -26 -33 16 -16 -2
8 -16 41 2 -27 34 -23 -8
-37 -27 2 16 -17 16 -35 -12
13 -39 -23 12 53 8 -21 -7
-16 -12 15 25 81 6 21 -12
6 26 14 19 5 -22 5 15
13 -55 -6 18 9 3 -23 52
7 -47 -58 -45 23 37 17 47
-16 -16 -13 -51 3 -46 -14 18
-12 -71 89 -58 24 40 8 1
-62 -14 48 56 3 15 23 0
46 -3 -26 -3 -70 -11 -25 -34
-50 2 12 47 -20 -28 22 -22
4 15 -30 -49 -7 14 14 47
-86 -5 29 15 6 8 55 -43
-12 51 -1 -34 0 44 36 -1
-49 0 -24 -17 27 9 -20 13
-2 -31 23 24 -16 -56 -1 -15
53 -31 -6 1 -35 -10 -57 -22
-11 16 -35 53 -47 -26 53 9
-22 57 18 42 -6 127 6 -11
51 -57 70 4 -15 -44 -31 20

model/batch_normalization_21/FusedBatchNormV3;model/depthwise_conv2d_10/depthwise;model/depthwise_conv2d_11/depthwise i1 [1, 3, 3, 128]
00000000: f25c 3efc 43a5 15fb 215e 3fa9 8157 e981
00000010: c6df 017f 3d3d e9e1 2623 231c 3af1 f2e2
00000020: fbb2 812e b797 eaf7 c8ef 1c18 fcba 73de
00000030: f202 027f 16ed 1bf3 bf81 6fbf 08b9 f84b
00000040: 2fdf 293b 7f98 ebc0 1f40 e5ab 42fc 16d6
00000050: 38b1 81c7 e905 9426 7f57 7fcb 61a5 eb26
00000060: 7f24 cbe2 c297 dad3 9308 f022 b6d1 7f1e
00000070: 5e2d 29b0 d927 c77f b341 7f01 7fea 53f9
00000080: d27f d305 68de 4281 377f 7fcf f55b bfb1
00000090: 10ec 6d17 7f7f bddf 8109 6027 f6f3 e5f3
000000a0: ffad 95f5 a3f5 a1e2 81b3 7f7f c3a8 30e6
000000b0: aaf7 edf4 4298 7221 a0a4 78bf 41d3 057f
000000c0: 62f4 1418 6281 1ee7 7f5c abc3 2c71 19d7
000000d0: 7f92 f1d5 a7b1 acef 74ed 16d3 458e 19bb
000000e0: 6b7f 2bec de85 e6e4 f838 3681 aac1 43df
000000f0: 737f 90e7 de7f 2275 c281 61f4 e1dd 7f2a
-14 92 62 -4 67 -91 21 -5
33 94 63 -87 -127 87 -23 -127
-58 -33 1 127 61 61 -23 -31
38 35 35 28 58 -15 -14 -30
-5 -78 -127 46 -73 -105 -22 -9
-56 -17 28 24 -4 -70 115 -34
-14 2 2 127 22 -19 27 -13
-65 -127 111 -65 8 -71 -8 75
47 -33 41 59 127 -104 -21 -64
31 64 -27 -85 66 -4 22 -42
56 -79 -127 -57 -23 5 -108 38
127 87 127 -53 97 -91 -21 38
127 36 -53 -30 -62 -105 -38 -45
-109 8 -16 34 -74 -47 127 30
94 45 41 -80 -39 39 -57 127
-77 65 127 1 127 -22 83 -7
-46 127 -45 5 104 -34 66 -127
55 127 127 -49 -11 91 -65 -79
16 -20 109 23 127 127 -67 -33
-127 9 96 39 -10 -13 -27 -13
-1 -83 -107 -11 -93 -11 -95 -30
-127 -77 127 127 -61 -88 48 -26
-86 -9 -19 -12 66 -104 114 33
-96 -92 120 -65 65 -45 5 127
98 -12 20 24 98 -127 30 -25
127 92 -85 -61 44 113 25 -41
127 -110 -15 -43 -89 -79 -84 -17
116 -19 22 -45 69 -114 25 -69
107 127 43 -20 -34 -123 -26 -28
-8 56 54 -127 -86 -63 67 -33
115 127 -112 -25 -34 127 34 117
-62 -127 97 -12 -31 -35 127 42

model/conv2d_11/Conv2D i1 [128, 1, 1, 128]
00000000: 08ed 1309 03dd 7ff9 f335 b50c cbe0 e934
00000010: e51f 53da d6fe e305 fef5 0914 2002 be35
00000020: f117 0c06 f7ca dec2 c0ff 5845 f01b 181d
00000030: eec7 0e29 e30c b6e3 330c fbff 5c01 f2f1
00000040: ea2a ebed 0706 3cb5 0cf3 cbff da2d eccd
00000050: 2d07 cfd1 d31a f5c5 1317 260a eb23 dc08
00000060: f904 f9f0 310e f9fb edff d4e9 fa09 4207
00000070: b1e2 f8d2 9221 11d3 fd05 14c6 eb15 1ff1
00000080: bc49 00e0 f233 1087 0a6b 3ca4 1064 540b
00000090: f0f3 dd3d 530f ff21 0020 2408 0ac5 10dc
000000a0: f6f1 fd01 d7c9 1e09 f1a8 fdd4 12ce ebf9
000000b0: 0d1e 053c a5cf 0628 f8fa 1f20 fb00 dfe8
000000c0: 3e05 d1e9 e605 f01d cab7 dcf6 05ef bf49
000000d0: 0a15 f63b e716 030c d51f 7fb5 f40e 4c62
000000e0: 47d7 26b9 13ce 0c25 fdb5 0cca c80b 0fe4
000000f0: 0f02 daf5 b1f1 c7d4 0fad bcf7 3ed3 d3c7
8 -19 19 9 3 -35 127 -7
-13 53 -75 12 -53 -32 -23 52
-27 31 83 -38 -42 -2 -29 5
-2 -11 9 20 32 2 -66 53
-15 23 12 6 -9 -54 -34 -62
-64 -1 88 69 -16 27 24 29
-18 -57 14 41 -29 12 -74 -29
51 12 -5 -1 92 1 -14 -15
-22 42 -21 -19 7 6 60 -75
12 -13 -53 -1 -38 45 -20 -51
45 7 -49 -47 -45 26 -11 -59
19 23 38 10 -21 35 -36 8
-7 4 -7 -16 49 14 -7 -5
-19 -1 -44 -23 -6 9 66 7
-79 -30 -8 -46 -110 33 17 -45
-3 5 20 -58 -21 21 31 -15
-68 73 0 -32 -14 51 16 -121
10 107 60 -92 16 100 84 11
-16 -13 -35 61 83 15 -1 33
0 32 36 8 10 -59 16 -36
-10 -15 -3 1 -41 -55 30 9
-15 -88 -3 -44 18 -50 -21 -7
13 30 5 60 -91 -49 6 40
-8 -6 31 32 -5 0 -33 -24
62 5 -47 -23 -26 5 -16 29
-54 -73 -36 -10 5 -17 -65 73
10 21 -10 59 -25 22 3 12
-43 31 127 -75 -12 14 76 98
71 -41 38 -71 19 -50 12 37
-3 -75 12 -54 -56 11 15 -28
15 2 -38 -11 -79 -15 -57 -44
15 -83 -68 -9 62 -45 -45 -57

model/batch_normalization_23/FusedBatchNormV3;model/depthwise_conv2d_11/depthwise i1 [1, 3, 3, 128]
00000000: 63c3 d3f8 c67f 3374 8149 4acc 813c 6c75
00000010: cc4c bdb4 2b38 44ad 989e 296e 9a43 e468
00000020: 6a62 f470 af33 2ca2 4e4a 9eb9 eb1a 7fa7
00000030: 4fb5 5675 74a0 df5b c7c1 955b f522 9c5b
00000040: 0f7a d226 930a 7f2e 4e40 7fd4 4de3 d240
00000050: 4bca 8cb4 2681 c881 0381 7c64 0381 1661
00000060: 814c a245 b3d4 4172 815b 9fce bd3b ec5e
00000070: 0e97 4de3 d1c0 b460 5d9b 7f8f 502a ee1a
00000080: 7f81 81d8 f374 347f b37f 74d2 874c 627f
00000090: b87f a281 4d3a 34b5 b99d 457f c443 8156
000000a0: 7f7f 0f76 a562 58ce 4244 8181 890c 78df
000000b0: 5ad5 7f7f 65d6 cc7f 817f 8173 ec36 817f
000000c0: 757f 3820 a4d0 622f 7c56 6cb9 3b15 a757
000000d0: 6fc1 81cb 58c1 e2f5 2dc2 7f7f cf99 337f
000000e0: 8318 817f be03 3168 8b61 cd8c a747 a77f
000000f0: 41a0 7fd7 024e 3b7f 7f99 71b2 7f4b e35b
99 -61 -45 -8 -58 127 51 116
-127 73 74 -52 -127 60 108 117
-52 76 -67 -76 43 56 68 -83
-104 -98 41 110 -102 67 -28 104
106 98 -12 112 -81 51 44 -94
78 74 -98 -71 -21 26 127 -89
79 -75 86 117 116 -96 -33 91
-57 -63 -107 91 -11 34 -100 91
15 122 -46 38 -109 10 127 46
78 64 127 -44 77 -29 -46 64
75 -54 -116 -76 38 -127 -56 -127
3 -127 124 100 3 -127 22 97
-127 76 -94 69 -77 -44 65 114
-127 91 -97 -50 -67 59 -20 94
14 -105 77 -29 -47 -64 -76 96
93 -101 127 -113 80 42 -18 26
127 -127 -127 -40 -13 116 52 127
-77 127 116 -46 -121 76 98 127
-72 127 -94 -127 77 58 52 -75
-71 -99 69 127 -60 67 -127 86
127 127 15 118 -91 98 88 -50
66 68 -127 -127 -119 12 120 -33
90 -43 127 127 101 -42 -52 127
-127 127 -127 115 -20 54 -127 127
117 127 56 32 -92 -48 98 47
124 86 108 -71 59 21 -89 87
111 -63 -127 -53 88 -63 -30 -11
45 -62 127 127 -49 -103 51 127
-125 24 -127 127 -66 3 49 104
-117 97 -51 -116 -89 71 -89 127
65 -96 127 -41 2 78 59 127
127 -103 113 -78 127 75 -29 91

model/conv2d_12/Conv2D i1 [256, 1, 1, 128]
00000000: 25c1 30b0 1697 0fea fe21 e8db eb31 b3d5
00000010: 0e0e 1b52 dc03 01fe 0cca 290c e8e8 7201
00000020: 1ed0 06d1 f2ef 62f3 ae1b dbfe 1519 321b
00000030: 3119 45b1 eb4e e3d7 050b 0feb 4a03 60be
00000040: bc05 2c02 dfb8 022e f5a3 81e8 6409 ac98
00000050: f06b 4b3f 03fd 1e35 f1a8 241a 28b1 1017
00000060: ff57 eb2d 0125 532c 48e6 3187 45ef fb3e
00000070: e5f9 0cf1 011d 2a32 d21e 34d1 6f10 1df3
00000080: 500b 2df9 4379 d0f3 e230 2732 df0a 2542
00000090: e6ac f8e5 812f 6426 fb15 0e08 e7f9 040c
000000a0: e402 d40e e729 b719 ff07 0c14 ef20 d127
000000b0: 8dfb 181c c72d 09be e015 fe42 ecf2 e26d
000000c0: dded 103d 95f5 6704 e346 1c1e e2fc e397
000000d0: 0dd5 0c0f 163a 2df0 1241 030a 1108 079d
000000e0: bb53 02e5 3711 183b 23f2 e614 001c c2d7
000000f0: 3bf8 342b bb14 d566 383a be0c 2230 65c6
37 -63 48 -80 22 -105 15 -22
-2 33 -24 -37 -21 49 -77 -43
14 14 27 82 -36 3 1 -2
12 -54 41 12 -24 -24 114 1
30 -48 6 -47 -14 -17 98 -13
-82 27 -37 -2 21 25 50 27
49 25 69 -79 -21 78 -29 -41
5 11 15 -21 74 3 96 -66
-68 5 44 2 -33 -72 2 46
-11 -93 -127 -24 100 9 -84 -104
-16 107 75 63 3 -3 30 53
-15 -88 36 26 40 -79 16 23
-1 87 -21 45 1 37 83 44
72 -26 49 -121 69 -17 -5 62
-27 -7 12 -15 1 29 42 50
-46 30 52 -47 111 16 29 -13
80 11 45 -7 67 121 -48 -13
-30 48 39 50 -33 10 37 66
-26 -84 -8 -27 -127 47 100 38
-5 21 14 8 -25 -7 4 12
-28 2 -44 14 -25 41 -73 25
-1 7 12 20 -17 32 -47 39
-115 -5 24 28 -57 45 9 -66
-32 21 -2 66 -20 -14 -30 109
-35 -19 16 61 -107 -11 103 4
-29 70 28 30 -30 -4 -29 -105
13 -43 12 15 22 58 45 -16
18 65 3 10 17 8 7 -99
-69 83 2 -27 55 17 24 59
35 -14 -26 20 0 28 -62 -41
59 -8 52 43 -69 20 -43 102
56 58 -66 12 34 48 101 -58

model/batch_normalization_25/FusedBatchNormV3;model/depthwise_conv2d_12/depthwise;model/conv2d_13/Conv2D i1 [1, 3, 3, 256]
00000000: f91d c49f e56b f11e b97f d3c0 1aac 8a2c
00000010: 48b4 7ccf 816f f2fd fac7 f72b f903 c1ed
00000020: 07ee e9d9 4db7 81b9 d923 31eb dabd 169a
00000030: 4bdf e2cf cdf7 f8fe d9e1 1ee7 d959 17f8
00000040: 7f29 15f9 e33b ddb9 02d9 df28 5901 7f0a
00000050: d0f3 b156 8121 f63d 81db b4f7 d8ff ce17
00000060: ea86 dcd9 ea2d f9b4 d54a 7fd7 72ee cfbd
00000070: 4536 d0df 2dbe f32b d5d4 1c81 3be8 81c2
00000080: 0636 eede 9f0a e4e4 d719 4df9 1f19 36ee
00000090: 16e5 d631 b2f0 0df0 10e1 8be1 05c7 0be0
000000a0: ba00 cbcb 3fb6 e418 b525 e902 68c6 d127
000000b0: d108 03a4 daf0 dc23 f2e7 78bd 8f15 e0ce
000000c0: e955 d13e c4b2 f776 c430 c713 3238 1c3d
000000d0: d2c2 e1e4 f3b4 28d1 daa7 a4e1 ecc2 24d8
000000e0: 0e8e 81da cac0 3efc 0181 e67f 16dd 01ad
000000f0: f2e0 c546 01eb afca f2d6 e7f7 cdec 0bcf
-7 29 -60 -97 -27 107 -15 30
-71 127 -45 -64 26 -84 -118 44
72 -76 124 -49 -127 111 -14 -3
-6 -57 -9 43 -7 3 -63 -19
7 -18 -23 -39 77 -73 -127 -71
-39 35 49 -21 -38 -67 22 -102
75 -33 -30 -49 -51 -9 -8 -2
-39 -31 30 -25 -39 89 23 -8
127 41 21 -7 -29 59 -35 -71
2 -39 -33 40 89 1 127 10
-48 -13 -79 86 -127 33 -10 61
-127 -37 -76 -9 -40 -1 -50 23
-22 -122 -36 -39 -22 45 -7 -76
-43 74 127 -41 114 -18 -49 -67
69 54 -48 -33 45 -66 -13 43
-43 -44 28 -127 59 -24 -127 -62
6 54 -18 -34 -97 10 -28 -28
-41 25 77 -7 31 25 54 -18
22 -27 -42 49 -78 -16 13 -16
16 -31 -117 -31 5 -57 11 -32
-70 0 -53 -53 63 -74 -28 24
-75 37 -23 2 104 -58 -47 39
-47 8 3 -92 -38 -16 -36 35
-14 -25 120 -67 -113 21 -32 -50
-23 85 -47 62 -60 -78 -9 118
-60 48 -57 19 50 56 28 61
-46 -62 -31 -28 -13 -76 40 -47
-38 -89 -92 -31 -20 -62 36 -40
14 -114 -127 -38 -54 -64 62 -4
1 -127 -26 127 22 -35 1 -83
-14 -32 -59 70 1 -21 -81 -54
-14 -42 -25 -9 -51 -20 11 -49

model/conv2d_13/Conv2D i1 [256, 1, 1, 256]
00000000: e4d8 ed0b fc10 ede1 f519 fe05 e7ee fd14
00000010: ef1e 1319 e501 0824 1dc4 0fff 3ef9 1dfc
00000020: 18ec f913 1314 deef 1cdd e412 f413 203c
00000030: 0aeb e3e4 02e7 1bfd ff11 0af4 e3f4 000a
00000040: f4ce f504 ff33 2f1f f3ef d105 02f0 11ec
00000050: e606 4dfa 070f f7ff d921 e7d4 18f5 c5fd
00000060: 130b d9f6 211c fbe2 fef9 f008 e310 f40a
00000070: f4b3 18d5 3ff7 d311 0f08 ed31 0311 eb52
00000080: d2ef f310 f714 350f fd0d 1ee4 cbdd ed3a
00000090: 340f ed28 07ff 2ff5 0c11 16f0 0321 effd
000000a0: 0014 0eea 1cdb e1fe 0e03 f80c 0f13 e605
000000b0: f909 e9ec 2a11 d50a f801 c8c0 ee1e fa00
000000c0: 1504 efed 3625 db0c d816 09d2 d602 1c0f
000000d0: 08f6 f3c2 e11e 0a01 5a05 e8e8 03fe c34f
000000e0: 09f2 13c4 36a8 f8e3 01ee f914 15ca 2011
000000f0: cc0f e1f9 02d0 0f0c d11e 1581 30c6 ee0c
-28 -40 -19 11 -4 16 -19 -31
-11 25 -2 5 -25 -18 -3 20
-17 30 19 25 -27 1 8 36
29 -60 15 -1 62 -7 29 -4
24 -20 -7 19 19 20 -34 -17
28 -35 -28 18 -12 19 32 60
10 -21 -29 -28 2 -25 27 -3
-1 17 10 -12 -29 -12 0 10
-12 -50 -11 4 -1 51 47 31
-13 -17 -47 5 2 -16 17 -20
-26 6 77 -6 7 15 -9 -1
-39 33 -25 -44 24 -11 -59 -3
19 11 -39 -10 33 28 -5 -30
-2 -7 -16 8 -29 16 -12 10
-12 -77 24 -43 63 -9 -45 17
15 8 -19 49 3 17 -21 82
-46 -17 -13 16 -9 20 53 15
-3 13 30 -28 -53 -35 -19 58
52 15 -19 40 7 -1 47 -11
12 17 22 -16 3 33 -17 -3
0 20 14 -22 28 -37 -31 -2
14 3 -8 12 15 19 -26 5
-7 9 -23 -20 42 17 -43 10
-8 1 -56 -64 -18 30 -6 0
21 4 -17 -19 54 37 -37 12
-40 22 9 -46 -42 2 28 15
8 -10 -13 -62 -31 30 10 1
90 5 -24 -24 3 -2 -61 79
9 -14 19 -60 54 -88 -8 -29
1 -18 -7 20 21 -54 32 17
-52 15 -31 -7 2 -48 15 12
-47 30 21 -127 48 -58 -18 12

model/head1/Conv2D i1 [2, 1, 1, 256]
00000000: 2d06 1349 bef9 44af b3f2 bc1d f30f d9d3
00000010: 04cb c71f 5f2b 034a 18f5 4123 e7d3 14de
00000020: 31c9 de69 e7ba cb43 e379 e402 d5e7 d2dd
00000030: 2316 131b b8ef 5138 2029 d411 19c3 fa3c
00000040: 29d0 fec4 e8fa d068 0e01 f9a8 06d7 4dce
00000050: d1fc c340 d155 41d5 ecd8 e0fd e1cc 2010
00000060: fbfa 33bc ea3a 29cf b831 23ce a9e8 c4ca
00000070: dfc8 d5d0 c0db fcc7 ad1e b10e 1844 e9de
00000080: f407 063d b5a8 fb68 9953 75d4 0fe2 3f0f
00000090: f700 04fb ead2 5fdc ebef d13c d729 afc0
000000a0: d5c6 bfc8 f536 2f3b d214 12d5 36d8 d856
000000b0: d9ee 2bee b95f 4e1f a422 07b2 26a6 d0ef
000000c0: 9b38 e6c4 c7d7 e0f3 97e7 69f6 de10 cdd5
000000d0: ddbe ef08 dbda 3a2a 2336 bbbb dfe1 7fe7
000000e0: 1fed 3119 c72f f56a 2331 3cd9 c7ad c7d1
000000f0: de2c ccda ced9 192b dbe8 f4d4 4b84 f1bf
45 6 19 73 -66 -7 68 -81
-77 -14 -68 29 -13 15 -39 -45
4 -53 -57 31 95 43 3 74
24 -11 65 35 -25 -45 20 -34
49 -55 -34 105 -25 -70 -53 67
-29 121 -28 2 -43 -25 -46 -35
35 22 19 27 -72 -17 81 56
32 41 -44 17 25 -61 -6 60
41 -48 -2 -60 -24 -6 -48 104
14 1 -7 -88 6 -41 77 -50
-47 -4 -61 64 -47 85 65 -43
-20 -40 -32 -3 -31 -52 32 16
-5 -6 51 -68 -22 58 41 -49
-72 49 35 -50 -87 -24 -60 -54
-33 -56 -43 -48 -64 -37 -4 -57
-83 30 -79 14 24 68 -23 -34
-12 7 6 61 -75 -88 -5 104
-103 83 117 -44 15 -30 63 15
-9 0 4 -5 -22 -46 95 -36
-21 -17 -47 60 -41 41 -81 -64
-43 -58 -65 -56 -11 54 47 59
-46 20 18 -43 54 -40 -40 86
-39 -18 43 -18 -71 95 78 31
-92 34 7 -78 38 -90 -48 -17
-101 56 -26 -60 -57 -41 -32 -13
-105 -25 105 -10 -34 16 -51 -43
-35 -66 -17 8 -37 -38 58 42
35 54 -69 -69 -33 -31 127 -25
31 -19 49 25 -57 47 -11 106
35 49 60 -39 -57 -83 -57 -47
-34 44 -52 -38 -50 -39 25 43
-37 -24 -12 -44 75 -124 -15 -65
