tools/tflite/vww96_f.tflite (tflite, 856424 bytes, 56 tensors)

FusedBatchNormV3 f4 [8]
000000 94 b9 83 3f 8c cf da 3f 6a 16 bf 3f 7b 3c b2 bf
       1.0291009 1.7094588 1.4928715 -1.3924707
000010 4e b0 88 40 09 9c 11 40 80 91 05 c0 83 2b d4 3f
       4.2715216 2.2751486 -2.0870056 1.6575779

FusedBatchNormV31 f4 [8]
000000 9f 4e 4b 40 78 d3 af 3d 99 bb 09 40 d4 2b 65 bf
       3.1766737 0.08585256 2.152075 -0.8952
000010 8c 87 84 40 2c f2 97 3f 3d aa 6d bf 6b 9f d7 3f
       4.1415462 1.187078 -0.9283789 1.6845526

FusedBatchNormV32 f4 [16]
000000 46 1a 27 bf ee 58 aa bf 4c ee 8a c0 2b d9 6f 40
       -0.65274465 -1.3308389 -4.341589 3.74763
000010 6c ae af 40 a0 35 9c 40 7f b3 c7 40 46 cd 70 c0
       5.4900417 4.881546 6.240661 -3.762529
000020 ba e3 88 c0 0d 6a 9d c0 50 84 19 40 f0 2a 87 c0
       -4.2777987 -4.9191957 2.3987007 -4.2239914
000030 7b a3 89 c0 8f 95 40 c0 24 6f 50 40 e9 79 6d c1
       -4.301206 -3.0091283 3.2567835 -14.842263

FusedBatchNormV33 f4 [16]
000000 e3 53 28 40 58 93 0b 40 ac 4e c1 40 bb d9 ae 40
       2.63012 2.1808681 6.0408535 5.4640784
000010 fb d6 a6 40 0a 65 26 41 f0 2c 34 3e 60 ea 38 3d
       5.2137427 10.399668 0.17595267 0.045145392
000020 48 13 b2 3e 33 07 b7 40 5c e6 11 40 71 89 ab 40
       0.34780335 5.719629 2.279685 5.3605275
000030 f0 eb 37 3e 01 83 f0 3f 4c 8e 00 be 79 5b b4 3f
       0.17961097 1.8789979 -0.12554282 1.4090415

FusedBatchNormV34 f4 [32]
000000 ba 4d b7 bf 38 01 73 40 08 1c 30 3e cc 0a cd 3f
       -1.4320595 3.7969494 0.17198193 1.601892
000010 a0 6a 7c 41 10 c1 00 41 06 10 94 40 92 64 13 be
       15.7760315 8.047134 4.626956 -0.14393833
000020 ff bb 2c 40 c4 ab 53 40 b8 00 14 41 bc 53 2c 40
       2.6989744 3.3073587 9.250175 2.6926107
000030 55 be e4 3e 14 5d 39 3f 30 ed 07 40 f0 fb 65 3e
       0.44676462 0.7240765 2.1238518 0.22459388
000040 d4 ff 3f 40 54 1c b7 3e 1b 98 bb 3e 65 09 52 c0
       2.9999895 0.357638 0.36639485 -3.2818234
000050 20 ba 26 3f 1a 09 9c 40 98 d8 a5 40 a8 7d 49 be
       0.65127754 4.876111 5.1826897 -0.1967684
000060 0c c6 f4 3e 2c 26 a1 40 5c 90 98 40 f4 35 80 c0
       0.47807348 5.0359097 4.767622 -4.006586
000070 f6 d1 d6 3f 29 84 b5 3f 04 6d 43 40 69 cf 9b c0
       1.6782825 1.4180957 3.0535288 -4.8690686

FusedBatchNormV35 f4 [32]
000000 24 37 e9 3f e6 aa e9 40 a0 b5 28 bf 0c fa ac 3f
       1.8219953 7.3021116 -0.6590214 1.3513808
000010 14 ff 55 40 de 35 1c bf 55 09 00 40 d0 52 71 bd
       3.3436937 -0.61019695 2.0005696 -0.058916867
000020 48 5e 3d 3e 80 d4 cd be b8 08 25 3e 9e 5f 46 40
       0.18492997 -0.40201187 0.16116607 3.099586
000030 94 55 b8 3d a2 ff 89 3e 83 72 88 bf b9 4a a6 40
       0.09000698 0.26952845 -1.0659946 5.1966214
000040 fb 0d 12 3f 8a de a0 40 a4 98 43 be cd 24 05 40
       0.5705258 5.0271654 -0.19101197 2.0803711
000050 a0 53 0c 40 76 85 1e 3f 49 f4 68 40 8f 78 e7 3d
       2.192604 0.61922395 3.63991 0.113022916
000060 8e 50 de 3e 46 04 1e 3e ff 39 13 c0 7b 1f 03 40
       0.43420833 0.15431318 -2.3004148 2.0487964
000070 d3 05 89 3f 0d 97 e1 3e 64 ce b0 40 1c fc c4 bf
       1.0704902 0.44060555 5.525194 -1.5389438

FusedBatchNormV36 f4 [32]
000000 1e dc 1c 40 64 6c 23 bf 13 79 30 40 7b e9 ae be
       2.450935 -0.63837266 2.7573898 -0.34162506
000010 72 9d 43 c0 34 84 4b bf da 0f 4a bf 44 11 c6 3f
       -3.0564847 -0.794986 -0.7893044 1.5474019
000020 a0 53 bf 3f 2e e0 8c bf 8b b8 81 3f c4 65 0f 40
       1.4947395 -1.1005914 1.0134443 2.2405863
000030 72 a4 eb 3f 9e 24 62 40 c0 88 5d bf 19 3b a3 3f
       1.840956 3.533485 -0.8653679 1.275241
000040 92 01 51 40 80 3b 89 bb 12 d3 8a 40 08 bc 4a 40
       3.2657208 -0.004188001 4.3382654 3.1677265
000050 ee 48 76 3f 64 e2 36 bf 6b 26 91 bf 02 fe 91 3f
       0.9620503 -0.71439195 -1.1339849 1.1405642
000060 e6 ef af 3f de 66 de 3f 9d eb c6 3f a6 67 af 3f
       1.3745086 1.7375143 1.5540653 1.3703506
000070 b8 49 83 be 64 96 3b bf ea d4 d2 3e 4c d5 d8 3e
       -0.2564218 -0.7327635 0.41178066 0.42350233

FusedBatchNormV37 f4 [32]
000000 4a 21 81 be 50 ba 1a be a8 84 b3 40 00 67 52 3d
       -0.2522071 -0.15110135 5.6099434 0.05136776
000010 26 5b 72 40 75 67 bc 40 3a fc 08 bf b3 94 6a 40
       3.7868133 5.887629 -0.5350987 3.6653259
000020 74 a5 b3 bf 05 37 b4 40 fe 9b a6 40 70 5d cc 40
       -1.4034867 5.6317163 5.206542 6.386406
000030 14 83 df 3d 6a f6 5e 40 20 d7 30 3d 01 cf 55 40
       0.10913673 3.48379 0.04317391 3.3407595
000040 88 b3 db 3f b6 d6 bb 3e 78 5b 26 bf 18 c3 61 40
       1.7164164 0.3668725 -0.6498332 3.5275326
000050 95 48 f8 40 a2 49 34 bf 28 e0 8f 3e 40 61 70 bd
       7.75886 -0.70424855 0.28100705 -0.058686495
000060 80 35 68 3d d0 cc c8 3d d0 96 a9 bd b8 e8 64 bf
       0.056691647 0.0980469 -0.08280718 -0.894176
000070 40 8f 23 3e 4e e2 97 40 26 47 27 40 7a fb 94 bd
       0.15972614 4.746375 2.6137176 -0.07274528

FusedBatchNormV38 f4 [64]
000000 a6 72 60 c0 90 0b c0 3d 2a 33 d3 bf bb db 3d c0
       -3.5069976 0.09377205 -1.6499989 -2.9665363
000010 7c d3 8c c0 7f e9 93 40 bf cb 2b 40 b1 ce 09 41
       -4.400816 4.622253 2.6843107 8.612962
000020 bf b0 a6 bf 96 78 31 c0 d9 b0 27 c0 d4 a0 f1 3e
       -1.3022689 -2.772985 -2.620169 0.47193015
000030 e1 5f 24 40 c5 cb 32 40 8c d5 ab 3e 80 42 5f 40
       2.568352 2.793687 0.3356136 3.4884338
000040 e2 47 75 40 84 70 bc 40 3f 09 64 bf 55 71 dd bf
       3.8325124 5.888735 -0.8907661 -1.7300211
000050 23 f2 14 40 70 7b 71 be b8 ef 57 40 a2 97 61 3f
       2.3272789 -0.23582244 3.3740063 0.88122
000060 d4 2d 54 bf 28 23 b0 3f 14 cd 24 bf a2 ce 43 c0
       -0.8288243 1.3760729 -0.64375424 -3.0594869
000070 ec 67 02 c0 f0 38 e9 be 67 ef 83 3f ca 7d 4d 40
       -2.037593 -0.45551252 1.0307435 3.2108026
000080 66 f1 8e 40 ba 3e 2d 3f d4 f8 1b c0 25 cc 1e 40
       4.4669676 0.6767384 -2.4370623 2.48121
000090 ae a3 77 40 ba f5 c8 be 39 58 d8 3f ae cd a8 3f
       3.8693652 -0.39249974 1.6901923 1.3187768
0000a0 c9 e2 91 3f 44 a7 8f 3f 64 47 b2 3f de 12 3d 40
       1.1397334 1.122292 1.3928037 2.9542766
0000b0 62 22 6a 3f 70 4e d3 3d 54 20 81 40 74 95 d9 40
       0.91458714 0.10317695 4.0351963 6.799494
0000c0 8e e0 f6 bf 8d 6c 05 40 d2 35 fc 3f 86 e7 6e 40
       -1.9287279 2.0847504 1.9703925 3.732881
0000d0 26 dd cf 3f 60 75 c9 3f b7 d7 23 40 1a 4b 4b 40
       1.6239364 1.5738945 2.5600412 3.1764588
0000e0 5c b5 3f c0 19 9a cd be 04 19 d8 bf 64 dd 79 40
       -2.9954443 -0.4015663 -1.6882634 3.9041376
0000f0 a0 cb 8c 3e 64 94 f9 40 34 83 e8 bf da 26 4d 40
       0.27499104 7.799364 -1.816504 3.2054963

FusedBatchNormV39 f4 [64]
000000 e0 2c 48 3e 8c 76 79 40 22 ee 1e 40 f4 ec 18 40
       0.19548368 3.8978605 2.4832845 2.3894625
000010 47 2f 95 bf e2 bc 2e 40 a0 1f ef bf 30 4f a1 40
       -1.1655053 2.7302785 -1.8681526 5.0409164
000020 d1 dc 60 3e 04 4c 27 be 24 9b 83 be 6d f6 85 be
       0.21959235 -0.16337591 -0.257043 -0.2616457
000030 d0 e8 8e 3d 48 4f c5 3f 20 07 8d 40 86 89 68 3e
       0.06977999 1.541482 4.4071198 0.22708711
000040 16 4a 66 40 d2 65 3c 3e 5c 39 0a 3e be ca 62 40
       3.5982718 0.18398216 0.13498443 3.5436244
000050 ca ad 81 bd 5c 67 69 be b2 75 2f 3f 67 34 26 3e
       -0.06331976 -0.22793335 0.68538964 0.16230927
000060 be b8 ac 40 d2 b4 a8 bf c8 00 1a 3e a8 0e 83 3e
       5.3975515 -1.3180182 0.1503936 0.2559712
000070 e6 a0 ad bf a3 4d 7e 40 90 5a 76 3f 73 e9 a4 40
       -1.3564727 3.9734886 0.9623194 5.153497
000080 a0 3e 9f bd 6a 51 67 be b8 94 c9 bf 2a cf 5d be
       -0.07775617 -0.22589651 -1.574851 -0.21661058
000090 00 2a 23 3d 1d 47 8c be 01 79 87 3e 06 e2 ea 3f
       0.039834976 -0.27398005 0.26459506 1.8350227
0000a0 a4 48 68 40 20 73 c9 40 b4 f1 68 bf 00 45 53 bc
       3.6294336 6.2953033 -0.9099381 -0.012894869
0000b0 2c f0 8a 3d 54 5b 70 40 ce 32 8b 40 e9 f0 a9 40
       0.067840904 3.7555742 4.3499517 5.310658
0000c0 e4 51 30 be 22 3e e2 bd 6a b9 31 3e c5 51 a7 3f
       -0.17218739 -0.11047007 0.17355886 1.3071829
0000d0 6c f6 85 3f be 6b 80 3f 7d 49 68 40 40 d6 45 3d
       1.0465827 1.003288 3.6294854 0.048300028
0000e0 e9 d3 12 40 88 e0 9e bd 70 b2 71 3d 5e 0c 60 3e
       2.294184 -0.0775767 0.059008062 0.21879718
0000f0 1a 21 6b 40 58 c1 9a 40 ad 83 55 bf c0 ba 29 be
       3.6738954 4.8361015 -0.83404046 -0.16575146

FusedBatchNormV310 f4 [64]
000000 88 d9 bd 3f bf a6 88 3f 59 1c de 3f 4e cb 4a 40
       1.483201 1.0675887 1.7352401 3.1686587
000010 e0 7f a2 bd 7c f1 3d 40 fc 6e 0a c0 70 aa 56 40
       -0.079345465 2.967864 -2.163024 3.3541527
000020 20 ac 39 be 42 a8 0f 40 5c f0 71 3f 9e 34 3c 3f
       -0.18132067 2.2446446 0.94507384 0.7351779
000030 1b a5 a8 3f e4 74 a5 3e 40 d0 42 bd e6 2f d1 bf
       1.3175386 0.32315743 -0.047561884 -1.6342742
000040 57 05 49 40 e2 35 12 c0 fb d0 e2 bf 38 fb 4e 3f
       3.140951 -2.2845387 -1.7720026 0.8085208
000050 51 4e 2a 40 5e cf 9b 40 3e ba 59 40 23 4d 8e 3e
       2.66103 4.8690634 3.4019923 0.27793226
000060 08 8e 53 bf 2c f9 eb 3f 8d 8a 16 40 b1 d3 d7 bd
       -0.826386 1.8435416 2.3522065 -0.10538424
000070 58 73 08 c0 3b d1 39 40 65 01 24 40 16 25 91 c0
       -2.13204 2.9033954 2.562585 -4.535777
000080 94 59 bf c0 9a 67 b1 3f 86 93 ef bf f0 36 8e be
       -5.979685 1.3859742 -1.8716896 -0.2777629
000090 ff 49 0a 40 10 a1 f4 bd 15 ff 13 bf 6e 97 12 3f
       2.1607664 -0.11944783 -0.578111 0.57262313
0000a0 da af 27 be 5a 35 06 40 82 81 7d 40 d6 db 88 3f
       -0.16375676 2.0970063 3.9610295 1.0692089
0000b0 4f ea bf bf eb 6f 5e 40 9e 80 dc 3f 48 69 c6 be
       -1.499338 3.475581 1.7226751 -0.38752198
0000c0 17 06 d5 bf 96 7a 81 40 5e 25 c9 40 5a 27 43 bf
       -1.6642483 4.046214 6.2858114 -0.7623192
0000d0 d9 c9 7a bf 5d f0 33 c0 50 c3 eb 3d 3c b0 81 40
       -0.97964245 -2.8115456 0.11511862 4.052763
0000e0 64 7f 5e 40 4e 93 bb 3f c1 44 1f 3f dc c9 c8 3f
       3.4765253 1.4654329 0.62214285 1.5686603
0000f0 41 3b 6b 3f ae 0d 48 3f fc bb 06 40 e2 92 13 c0
       0.9188729 0.78145874 2.1052237 -2.30584

FusedBatchNormV311 f4 [64]
000000 98 77 c0 3d b0 86 6d 3e fd 62 98 40 0a ab be 40
       0.09397811 0.2319591 4.7620835 5.958379
000010 d0 61 55 3d 65 81 c8 40 cd a2 36 40 81 d5 49 40
       0.052095234 6.265795 2.8536866 3.1536562
000020 fc 75 19 bf 78 a0 29 40 f2 85 b9 be e6 3d 99 40
       -0.59945655 2.6504192 -0.36235005 4.788806
000030 c0 b5 77 3d 89 80 60 40 9e b9 68 40 ec a5 b7 40
       0.060476065 3.5078452 3.6363292 5.739004
000040 a9 60 fc 40 b0 a3 3d bd 9e 12 93 40 3f 9c 92 40
       7.8867993 -0.046298683 4.5960226 4.581573
000050 00 e2 e9 bc 56 60 81 40 1c 8a 96 40 08 7f 23 3e
       -0.028550148 4.0430098 4.704359 0.15966427
000060 00 1a 8a 3d 8e b7 fc 40 b6 45 2a 40 20 7b a1 3d
       0.0674324 7.8974066 2.6605048 0.07884812
000070 00 7f 6d 3c 5b 63 c4 40 16 a8 95 bf 00 a9 9b 3b
       0.014495611 6.1371284 -1.1691921 0.004750371
000080 1c ea 52 3e 28 63 2d 40 bb bb 45 3f 43 a4 86 40
       0.20597118 2.709177 0.7723958 4.2075515
000090 80 39 b2 bd 10 b2 9b be b0 59 3b bd c0 5b 28 3d
       -0.087023735 -0.30409288 -0.04573983 0.041103125
0000a0 10 b7 56 3e 6c 13 64 3e 80 a1 57 3c f9 f0 1a 40
       0.2096827 0.22273034 0.013161063 2.4209578
0000b0 80 b7 2e bd d8 14 cb 3d 40 8f cf bf ce be 42 be
       -0.042655468 0.09916085 -1.6215591 -0.19018099
0000c0 20 e0 3f 40 ee 5a d9 40 fc 49 b3 40 60 f5 57 3d
       2.9980545 6.79235 5.6027813 0.052724242
0000d0 b0 82 9c 3d e0 44 5a 3d 70 d3 b7 40 2c c9 be 3e
       0.07642114 0.05328834 5.7445602 0.37262857
0000e0 d2 ce 79 40 14 7d 95 40 10 49 0d 3e 0c d1 a4 be
       3.9032483 4.6715183 0.13797402 -0.3219074
0000f0 f0 6c 75 3d 47 01 b1 40 22 8f 07 41 bc 7c 82 40
       0.059918344 5.531406 8.472445 4.0777264

FusedBatchNormV312 f4 [128]
000000 53 b8 22 3f aa b4 ed bf ce af 90 bf 68 a9 e8 bf
       0.63562506 -1.8570759 -1.1303651 -1.8176699
000010 88 ff d3 3d ba 6a f6 3f 34 4f 9f 3f 97 3b 71 bf
       0.10351473 1.925132 1.2446046 -0.9423155
000020 c8 bc c2 bf 53 12 24 3f c9 b5 d1 3f e8 75 42 40
       -1.5213861 0.6409046 1.6383601 3.0384464
000030 f3 90 f6 40 18 24 2c 40 27 3e 7f 3f 96 88 74 bf
       7.705194 2.689703 0.9970421 -0.95520914
000040 d0 d6 fa 3d 66 4c 8f bf 5c b7 96 bd 64 8b 6e 40
       0.122480035 -1.119519 -0.07359192 3.7272577
000050 c2 2f d4 3f c0 81 79 40 06 41 c0 3f 00 eb 22 40
       1.6577075 3.8985443 1.5019844 2.5455933
000060 1e be fd 3f 51 b9 1d c0 44 19 5d 40 1e bc 39 40
       1.9823644 -2.4644358 3.454667 2.9021068
000070 00 cf f4 3f e7 67 88 40 3d 38 87 c0 3c 8b d7 40
       1.9125671 4.2626834 -4.225615 6.7357464
000080 1c e5 51 3f 6e 56 6e 3f 2d 02 52 bf 38 a9 c4 3f
       0.8199022 0.9310063 -0.8203457 1.5364141
000090 3e bc 27 40 99 77 47 3f 0a 91 5e 40 73 22 97 3f
       2.6208644 0.77916867 3.4776025 1.1807388
0000a0 44 07 5b 3f 28 ea 80 3f 9f 27 53 3f 00 86 1d 3b
       0.8555796 1.0071459 0.8248233 0.002403617
0000b0 c9 8b d2 3f 92 64 0c c0 de c7 47 3f 38 de 0c 40
       1.6448909 -2.1936383 0.7803935 2.2010632
0000c0 6f 99 8b 40 80 19 b7 3c b2 86 4a 40 2d 5a 7e 40
       4.3624797 0.022351027 3.1644711 3.974254
0000d0 5e 11 ed 40 9c 55 df be ba d6 44 40 d4 5c 5c 40
       7.40837 -0.43620002 3.0756059 3.4431658
0000e0 d8 77 ac bf c8 01 50 bf ce 9d 1b 3f 02 84 cb 3f
       -1.3474073 -0.8125272 0.60787666 1.589966
0000f0 71 35 25 40 84 1d 63 c0 84 0a aa be da f3 e6 3f
       2.5813868 -3.5486765 -0.33211148 1.8043168
000100 26 a2 ca bf c1 f4 88 40 8b 1d b3 3f 63 a8 10 40
       -1.5830734 4.279877 1.3993391 2.2602775
000110 c9 dd 0e 40 e4 f8 32 40 5e 7d 25 40 e6 60 3d bf
       2.2322867 2.796441 2.5857768 -0.7397598
000120 5b 2c 85 3f 60 ac 18 3d 9a 24 65 3f 53 d5 16 bf
       1.0404161 0.037273765 0.89508975 -0.58919257
000130 54 b5 16 40 76 95 11 40 7b c1 31 c0 9f 4e 45 40
       2.3548174 2.2747474 -2.777434 3.0829237
000140 48 8a 15 3f a9 53 22 c0 46 aa 6f 40 c4 64 ff bf
       0.58414125 -2.5363562 3.7447677 -1.9952626
000150 7a 69 4c 40 90 22 56 3f 02 49 d6 3f d4 49 61 40
       3.1939378 0.8364649 1.674103 3.520131
000160 e7 98 02 40 c5 4d b2 3f d9 58 18 40 06 c9 8f 3f
       2.0405824 1.3929983 2.3804228 1.1233222
000170 4e 46 95 40 32 27 4e 40 c4 f6 2e 40 b3 8e 49 40
       4.664832 3.2211423 2.7338114 3.1493347
000180 01 5a b3 3f c6 d8 23 c0 d6 a5 39 40 db 2b d0 3f
       1.4011842 -2.5601058 2.9007468 1.6263384
000190 28 d7 27 40 59 e3 ca 3f b5 04 af 3f e1 70 50 3f
       2.622507 1.5850631 1.3673311 0.8142224
0001a0 86 12 72 bf c0 fb a8 3f eb 69 13 40 28 b8 f8 3f
       -0.94559515 1.3201828 2.3033397 1.94312
0001b0 be 79 57 bf b3 30 ac 40 ba 19 f4 3f 7e 2f e5 3f
       -0.8417014 5.3809447 1.9070351 1.7905118
0001c0 90 da 40 be f2 01 b8 bf 96 1e e8 3f 21 f9 d8 bf
       -0.18833375 -1.4375594 1.8134334 -1.6951028
0001d0 ec 1f 2a 40 1e 83 1f 3f 97 77 55 c0 68 65 52 40
       2.6581984 0.62309444 -3.3354242 3.2874393
0001e0 f0 19 4d 40 c5 2c 05 40 a7 a3 0f 3f a9 78 3f 40
       3.204708 2.0808575 0.5610909 2.9917395
0001f0 e2 c1 e5 3f c8 9b e7 bd 90 df 5b bf 28 c7 54 40
       1.7949793 -0.1130901 -0.85888004 3.3246555

FusedBatchNormV313 f4 [128]
000000 00 88 19 39 00 f0 54 b9 88 90 12 bd 00 d8 99 bb
       0.00014641881 -0.00020307302 -0.035782367 -0.0046949387
000010 1c 9e 5c 3e 94 65 b0 3e 70 f9 06 bf 51 ba 63 40
       0.21544689 0.34452498 -0.5272436 3.5582469
000020 76 e8 6a 3f ec 83 01 3f 17 d4 51 40 b0 a6 39 40
       0.9176096 0.5059192 3.27857 2.9007988
000030 ce 66 0f 40 62 e9 90 be 16 d5 d7 3d 18 fd 19 40
       2.2406497 -0.28303057 0.1053869 2.4060726
000040 d9 45 8c 3e a8 42 d8 be b0 a0 0b 3d d3 32 21 40
       0.2739704 -0.42238355 0.03408879 2.518727
000050 b0 ad 56 be f6 d5 31 40 28 c1 1f be 35 81 67 40
       -0.20964694 2.7786841 -0.15601027 3.6172612
000060 bc 9a 95 3f 7e 6b dd be ec d7 5a be e0 69 68 3f
       1.1687846 -0.43246073 -0.2137143 0.9078655
000070 f0 ae 53 3f 3a b9 81 be 0b 09 a7 3f 08 93 14 40
       0.8268881 -0.2533663 1.3049635 2.321474
000080 f0 8c ab be d0 8a de bd 14 46 5b be 0a 52 65 40
       -0.33505964 -0.1086632 -0.21413451 3.5831323
000090 78 90 a7 3d e8 3b 07 3e 42 66 83 bf 5b 02 3b bf
       0.08181852 0.13206446 -1.0265582 -0.7305047
0000a0 2c 6c 18 3f 70 0d bd 3e fc 28 43 be fa 3a 4f 3e
       0.5954006 0.36924314 -0.19058603 0.20237342
0000b0 9e 0a a7 3e bb 21 80 40 4e db 1f be c0 af 22 40
       0.32625288 4.0041175 -0.15611002 2.541977
0000c0 e1 be 84 3f 66 61 96 40 d6 d3 8f 3f 54 c4 88 40
       1.0370752 4.6993895 1.1236522 4.273966
0000d0 f4 b5 72 3d b6 8f 2d 3e 58 1f fb 3e c8 5f 0a 40
       0.059255555 0.16949353 0.4904735 2.162096
0000e0 83 04 a0 be 6a 5f 01 40 3b 99 55 40 8b fb b1 3e
       -0.31253442 2.0214486 3.3374774 0.34762225
0000f0 50 a1 b5 bd c0 31 2d 3d 94 b0 68 40 e0 4e 75 3e
       -0.088686585 0.042283773 3.6357775 0.2395587
000100 80 16 47 bb 5c 25 26 40 e0 54 a6 3f b4 a6 7f bf
       -0.0030378401 2.5960302 1.2994652 -0.99863744
000110 da 0e 87 40 37 24 25 3e 70 16 64 3e 36 07 54 3f
       4.220563 0.16127096 0.22274184 0.82823503
000120 5d 7f 18 3f a0 66 41 bd 40 24 6f 3e 9c 64 66 be
       0.5956934 -0.04721701 0.23353672 -0.22499317
000130 5a bd 6b 40 eb c4 d1 3f e8 bf 56 bf 9d ac b5 3f
       3.683432 1.638822 -0.83886576 1.4193302
000140 fe 94 bd 3f 40 ff b0 bb 9f e5 13 40 3a 67 2d 40
       1.4811094 -0.005401522 2.31089 2.7094254
000150 7c 86 88 3f a4 26 05 be e7 03 a7 3e a2 cc 10 be
       1.0666041 -0.13003021 0.32620165 -0.14140561
000160 9b 8a ea 40 02 22 37 40 45 64 4b 40 18 da 17 3f
       7.3294196 2.8614507 3.177995 0.5931716
000170 23 5a fd be 8d 76 ac 3d 21 02 2e 3e 90 a3 45 bf
       -0.4948283 0.08421049 0.16993 -0.772027
000180 dd 0e 7c 40 31 d1 66 3f f0 63 1c 3e 7e d3 85 40
       3.9384072 0.9016295 0.15272498 4.182067
000190 b5 e4 32 40 21 30 7d 40 c4 16 97 40 27 b9 9f 40
       2.7952092 3.9560626 4.721529 4.9913516
0001a0 0c d5 e1 be f2 8e 6c 3f cf d1 a9 40 d2 4f 08 3e
       -0.44107854 0.9240562 5.3068614 0.13311699
0001b0 88 5e 83 40 c2 6c 1a 40 53 58 83 be 06 39 63 40
       4.1052895 2.412888 -0.25653324 3.5503554
0001c0 60 a1 73 bd ab 1c 46 40 72 70 ff be ff a9 fd bd
       -0.05948007 3.0954998 -0.49890476 -0.1238594
0001d0 26 57 25 3f ac 7b 1d 3f 3d 24 2c bf e4 b9 f3 3f
       0.645861 0.61516833 -0.67242795 1.9041104
0001e0 a0 92 c4 3d 89 96 0d bf 3b 83 e6 bf e8 21 8b 40
       0.09598279 -0.55307823 -1.8008798 4.347889
0001f0 20 0a c7 3c ab 9c 96 be 50 a3 ea bc 34 ab 6d 40
       0.02429682 -0.29416403 -0.028642327 3.7135744

FusedBatchNormV314 f4 [128]
000000 18 ef e2 be ac b8 09 3e 80 39 79 3d f2 7e 5b 3f
       -0.4432304 0.13449353 0.060845852 0.8574058
000010 10 3f 05 bf ca 41 8f 3f 97 1e 2b 3f f4 ef 67 bf
       -0.5204935 1.1191952 0.6684355 -0.90600514
000020 94 f9 ce c0 60 8d 4f be c8 6a 1e c0 d6 8c 17 40
       -6.467966 -0.20268774 -2.4752674 2.367971
000030 54 98 ef be fa fa 0f 3f b4 12 22 be a6 fa 63 bf
       -0.46795905 0.56242335 -0.15827447 -0.89054334
000040 d2 a8 60 40 34 96 be bf 0c 28 b3 bf 87 ca 0f 40
       3.510304 -1.4889588 -1.3996596 2.2467363
000050 1e 59 0e c0 a2 6b 80 bf 94 39 72 c0 20 d2 06 40
       -2.2241893 -1.0032847 -3.7847643 2.106575
000060 66 bc bb bf 03 6d 0c 3f e6 d0 2f bf ee e1 69 40
       -1.466687 0.5485384 -0.6867813 3.6544147
000070 98 b9 e7 3f c4 80 67 be 70 a7 3c 40 22 fc 04 40
       1.8103514 -0.22607714 2.9477196 2.077889
000080 f8 7e 26 3f 41 73 4e c0 9b ad 9a c0 c8 2a 71 40
       0.6503749 -3.2257845 -4.833692 3.7682362
000090 20 3e d9 3f f8 68 21 3f 13 44 c2 3f 0c f8 94 3f
       1.6972084 0.63050795 1.5177025 1.1638198
0000a0 d2 8a 84 bf 48 89 06 40 7c ce 64 bf 20 94 b8 3d
       -1.0354865 2.102129 -0.8937757 0.090126276
0000b0 10 94 fc 3d cc 5f 92 bf 9a 57 dd 3f b5 92 e9 3e
       0.12332928 -1.1435485 1.7292359 0.4561974
0000c0 cc 14 a4 3f 24 72 1a 40 04 b2 5a bf ab 9a 3f 40
       1.2818847 2.4132166 -0.8542788 2.9938152
0000d0 02 1e 12 bf 98 03 33 40 fa 0f 9e 3e eb 3f 0c 40
       -0.5707704 2.7970943 0.30871564 2.1914012
0000e0 60 dc 15 40 56 18 02 40 3a 67 10 3f 6d 94 0f 40
       2.3415756 2.0327353 0.5640751 2.2434342
0000f0 53 d1 0a 40 cd bb 85 40 b4 be 21 40 1b 6a 24 40
       2.1690261 4.179175 2.5272646 2.5689762
000100 38 8e 83 3f ea 89 6e 3f 20 9b f2 bf 85 93 3a 3f
       1.0277777 0.9317919 -1.895359 0.72881347
000110 e0 82 76 3e 3a a1 65 3e 49 35 3a 40 7c e7 26 3f
       0.24073362 0.22424784 2.9095023 0.6519697
000120 b2 1a 84 40 4f 8c e3 3f 8e 7f 6b 3f c1 44 df 3f
       4.1282587 1.7777194 0.9199151 1.7442857
000130 83 fb 1a 40 00 26 b9 3f 22 61 f8 bf 32 fa c0 3f
       2.421601 1.4464722 -1.9404643 1.5076354
000140 c8 63 36 3d b3 7d 05 40 9c 27 3b 40 d4 2a 92 3f
       0.044528753 2.085797 2.9242926 1.141932
000150 fa 49 ea 3f bc 0a 48 40 80 0c 8b 3d d0 7f 69 bf
       1.8303826 3.1256552 0.067894936 -0.9121065
000160 83 ad 9c 3f 76 8a a5 bf a8 27 32 be 82 2a 9b bf
       1.2240452 -1.293288 -0.1739794 -1.2122347
000170 68 20 6a 40 00 d5 b9 3b 57 ec d1 bf 18 8d 3f c0
       3.658228 0.0056711435 -1.640025 -2.9929867
000180 12 8c 65 3f 5c c2 e2 bf 72 b0 c2 3f e9 57 c7 3f
       0.89666855 -1.7715564 1.5210097 1.5573703
000190 b0 fd 91 bd 7b 11 8d 3f 80 22 30 3f 24 58 28 3f
       -0.07128465 1.102096 0.6880264 0.6575949
0001a0 1e d1 f8 3f 21 1e 75 bf 6b 47 06 3f ee b6 1a c0
       1.9438818 -0.957491 0.52452725 -2.4174151
0001b0 2a d5 c4 3d 84 0c 38 bf 49 0e e9 3e de 27 84 3f
       0.0961097 -0.718941 0.4551871 1.0324667
0001c0 2b 4d a3 40 be 97 67 3f 6a 66 1e c0 e2 b1 d2 bf
       5.10317 0.90465915 -2.4750009 -1.6460536
0001d0 a1 f8 33 40 7f 24 3a bf cb 13 d2 3f 6a 83 9e 3f
       2.81205 -0.7271194 1.641229 1.2383854
0001e0 eb 0d 36 bf b2 d9 a3 40 e3 f0 e7 3e 80 3e 64 3c
       -0.7111499 5.120324 0.4530097 0.013930917
0001f0 e1 2c c1 3f 94 90 bf 3f 69 9a fe 3f e2 05 bd bf
       1.5091821 1.4965997 1.9890872 -1.476742

FusedBatchNormV315 f4 [128]
000000 19 65 40 40 3c 16 85 bf 6d 1c 1f bf 63 20 90 40
       3.0061705 -1.039741 -0.6215275 4.5039535
000010 df 34 3c 40 d0 26 fd bd 18 9f 02 3f b4 92 3b 3f
       2.940727 -0.123609185 0.5102401 0.73270726
000020 b5 93 89 40 7c 7d ef 3f 8c d3 2d 40 0a 1e 8e bf
       4.2992806 1.871017 2.7160368 -1.1102917
000030 10 e8 3a 40 ba a0 9c 40 e6 b2 ee 3f 5f 83 97 bf
       2.920414 4.89462 1.8648345 -1.1836966
000040 ed f2 1a be ca ad 9f 3e ee f6 0e bf ce f9 20 3f
       -0.15131731 0.31187278 -0.55845535 0.6288117
000050 e2 59 75 bf 4a 39 4b 40 b2 a9 5d bf e5 8f 04 40
       -0.95840275 3.1753716 -0.8658706 2.0712826
000060 d8 a5 09 40 fa 60 43 40 d0 98 c7 bd 80 f9 d2 bd
       2.1507473 3.052794 -0.097459435 -0.103014946
000070 5c e6 91 be c0 9d 5a 3d 40 ee 37 bc 1b 51 39 40
       -0.28496063 0.0533731 -0.011226237 2.8955753
000080 14 68 4d 3e 8d 88 c8 3e 72 c5 c7 be f8 38 77 3f
       0.20059234 0.3916668 -0.39017826 0.965713
000090 e4 f6 96 3e db 0b d7 bf 74 86 2f 3e e0 79 1a bd
       0.29485238 -1.6800493 0.17141134 -0.037713885
0000a0 17 65 90 bf a2 35 6c bf 4c ba 14 40 6f 85 1e 40
       -1.128085 -0.9226934 2.3238707 2.4768941
0000b0 6a 61 eb 3e 39 d1 12 40 bb 3e ae 3f 90 26 b1 3e
       0.4597276 2.29402 1.3612894 0.34599733
0000c0 af d5 7b 40 d0 56 9f 3f 80 73 37 40 0f df 3f 40
       3.9349172 1.2448368 2.8664246 2.9979894
0000d0 c6 3f 14 3f 7f 89 2a 40 d0 a3 8f bd fa ec 2f bf
       0.5790981 2.664642 -0.07013667 -0.6872097
0000e0 90 a5 b0 40 30 e1 57 3d 20 36 16 40 56 c0 08 40
       5.5202103 0.05270499 2.3470535 2.1367393
0000f0 00 f0 ca bd 52 07 8a 3f b8 83 27 40 bd f2 a3 40
       -0.099090576 1.0783484 2.6174145 5.123381
000100 62 e1 8b 3e a3 49 b3 be 26 19 8c 3e ea c9 4b bf
       0.2732039 -0.35017118 0.27362937 -0.7960497
000110 e4 7b 80 3f 84 69 16 c0 ac 0c 90 40 90 73 08 bf
       1.0037808 -2.3501902 4.501547 -0.53301334
000120 86 50 2b 40 e6 77 16 40 18 d7 20 3d 66 4b c5 bf
       2.6767898 2.351068 0.03926763 -1.5413635
000130 1c 27 86 3e 57 96 2c bf e1 55 00 bf 08 1f 80 3e
       0.26201713 -0.674169 -0.5013104 0.25023675
000140 00 ba ac 3f 74 2c 07 3f 37 8b 1a 3f 40 2a 40 40
       1.3494263 0.52802205 0.60368675 3.0025787
000150 d0 24 5c 3e 78 51 af 3e a7 ee 34 40 60 91 b2 bc
       0.21498418 0.34241843 2.8270662 -0.021797836
000160 1c 74 dd 3d 89 61 3e bf 50 0a 3c 40 88 f7 45 be
       0.10813162 -0.74367577 2.9381294 -0.19332707
000170 1d 63 9f 3f 88 54 2c 40 f2 c9 63 40 bc ed a3 3f
       1.2452122 2.6926594 3.5592008 1.2806926
000180 78 57 fc 3d 76 40 9a bd f0 0d 85 be a4 52 9c 3e
       0.12321371 -0.07531826 -0.25987196 0.305318
000190 4c 26 3b 3e 30 e0 08 3d 84 42 6e 3f 70 f6 c6 bd
       0.18276328 0.033416927 0.93070245 -0.09714973
0001a0 3e 17 23 bf ee a7 88 3f 18 8e 37 bf 05 ae 0b 40
       -0.6370734 1.0676248 -0.7170119 2.1824963
0001b0 42 57 27 40 e0 c0 8b be e2 d9 09 bf 40 b1 d0 bc
       2.6147008 -0.2729559 -0.5384809 -0.025475144
0001c0 04 9d 37 3f 98 1f 2f 3e 60 0f 6d bd 02 9a 41 40
       0.7172396 0.17101896 -0.05787599 3.025025
0001d0 28 5b d8 3d f3 97 e1 be 0c 9c ae 3e 5a 0f 0f bf
       0.10564262 -0.4406124 0.3410343 -0.558828
0001e0 c0 02 67 be 00 44 1d be 06 37 b2 be 9a e8 1b 40
       -0.22559643 -0.15357971 -0.34807605 2.4360719
0001f0 d0 ce 8b bd 61 a4 8d 40 07 26 67 3f b8 40 8b bd
       -0.06826556 4.426316 0.902924 -0.067994535

FusedBatchNormV316 f4 [128]
000000 a7 46 87 3f 94 cb af 3f c8 5f 9a be d4 99 97 3f
       1.0568436 1.3734002 -0.301512 1.184382
000010 4d 3b bb 3f e9 b4 cb 3e 77 7a 07 3f 6c a2 0a 40
       1.4627472 0.3978646 0.5292124 2.1661634
000020 c3 92 95 40 95 6f 32 40 1c 28 b8 3f 60 1a 39 bd
       4.6741652 2.7880604 1.438724 -0.04519117
000030 46 77 c5 3f 1e 9e 3c bf 6e 27 98 bf 4c 1a e0 3f
       1.5427024 -0.7367877 -1.1887033 1.7508025
000040 9c 66 83 3f 46 cb b5 3f 80 79 ad 3f 2f e4 98 3f
       1.0265689 1.4202659 1.3552704 1.1944636
000050 7c 31 0e bf 8a 85 67 3f 64 e2 5d c0 0c 97 08 40
       -0.5554426 0.9043814 -3.4669428 2.1342192
000060 a0 03 66 3d cd 5d 3c 40 2c be 46 3f ca 0b 11 c0
       0.0561558 2.9432251 0.7763393 -2.2663445
000070 68 4a d1 3e 84 ca b8 3f 64 fe b8 bf 48 68 28 be
       0.4087708 1.4436803 -1.4452634 -0.1644603
000080 4e 2e 1d bf 65 96 b3 bf e0 3a 00 c0 9c 03 ab 3f
       -0.6139878 -1.4030272 -2.0035934 1.3360476
000090 02 2a 05 3f 89 00 86 bf 86 4b e8 3e cc 25 35 be
       0.52017224 -1.0468913 0.4537012 -0.176902
0000a0 37 0d 3f bf 49 81 aa 3f 0b cd 19 3f 2a a9 74 3f
       -0.7462954 1.3320705 0.60078496 0.95570624
0000b0 eb 8d 42 40 db 2e 27 40 f4 ed 5b bf 78 49 1e bf
       3.039912 2.6122348 -0.8590996 -0.61830854
0000c0 40 cd 03 c0 d7 83 c6 3f 33 b3 19 40 6c f8 e1 3f
       -2.0594025 1.5508984 2.4015625 1.7653937
0000d0 f4 df 9f 3f 86 58 65 bf 80 e7 6c 3b 68 fa 8f be
       1.249022 -0.895882 0.0036148727 -0.28120732
0000e0 8c 58 cb 3f cc 31 f9 bf 98 8f d9 3f 3a 08 85 bf
       1.5886397 -1.9468322 1.6996946 -1.0393136
0000f0 2a cc d8 3e 64 da 17 c0 96 18 74 bf 29 a8 e9 be
       0.42343265 -2.3727045 -0.95350015 -0.4563611
000100 a7 4c e4 3f 9c 8f 2d bf 92 83 27 3f a0 1a fb bf
       1.7835892 -0.67797256 0.65435135 -1.96175
000110 00 29 38 bf d4 9c bd bf 2c c5 0c 3f be 5f bc 3e
       -0.7193756 -1.4813485 0.5498836 0.36791795
000120 c6 96 79 3f c7 46 2d bf 50 bf 45 c0 36 3a ce 3f
       0.97495687 -0.6768612 -3.0898018 1.6111515
000130 83 b6 64 40 ad 90 ed bf b6 b5 8a 3e 4e fc 82 3f
       3.5736396 -1.8559777 0.2709176 1.0233247
000140 4f 38 fd 3f 56 30 c0 bf 44 ee 8a bf 72 24 0d 40
       1.9782809 -1.5014751 -1.0853963 2.2053494
000150 64 b2 9e 3f d0 23 b6 3e b4 42 39 40 7e 7c fe be
       1.239819 0.35574198 2.8946962 -0.49704355
000160 05 c6 ab 3e ff 9e 5e 3f 82 7e 25 40 00 29 d1 3d
       0.33549514 0.8696136 2.5858464 0.10212898
000170 38 f2 23 3e a2 cd 87 3e 97 91 bb 3f 43 6b d0 3f
       0.16010368 0.26524073 1.4653805 1.6282734
000180 11 60 05 40 2d 25 0b c0 3e d1 f9 3f 4c c3 6b be
       2.0839884 -2.174144 1.9516981 -0.23023719
000190 95 24 5f bf dc 12 f3 3f c1 bc 49 bf 62 0e 08 40
       -0.87165195 1.899013 -0.7880364 2.1258779
0001a0 a0 ff 8c bc 46 34 de bf d9 b5 4a 3f 46 0c b3 3f
       -0.017211735 -1.7359703 0.7918373 1.398812
0001b0 e8 4e d7 bf bc fd 96 bf d0 71 18 be 1f b0 bf bf
       -1.6820955 -1.1796184 -0.14887166 -1.4975623
0001c0 a0 98 06 bd b6 07 96 bf e2 09 66 3f 0e 27 70 bf
       -0.0328604 -1.1721103 0.8985883 -0.9380959
0001d0 a1 2c 1f 3f 09 60 e9 3f 18 0e 1b bf 80 4e eb 3f
       0.62177473 1.8232433 -0.6056838 1.8383331
0001e0 11 9e 0e 3f a8 f8 89 40 c9 8d 48 bf a1 84 34 bf
       0.5570994 4.3116035 -0.78341347 -0.70514876
0001f0 e4 93 94 3e 8c cf 48 40 fe 4a 2b bf dc 24 d5 3e
       0.29019082 3.1376677 -0.66911304 0.41629684

FusedBatchNormV317 f4 [128]
000000 ae 1c c1 3e a4 4b 90 3f 9e 76 56 be 5a 15 32 40
       0.37717193 1.1273084 -0.20943686 2.7825532
000010 5d b7 a1 bf cb df 29 c0 d0 5b b4 bd d0 5b 55 3e
       -1.2634083 -2.6542842 -0.08806574 0.20835805
000020 bc de 05 c0 96 90 a2 bd 4b 2e 9d bf 20 aa 8d 3c
       -2.0917196 -0.07937734 -1.2279752 0.017293036
000030 98 e9 4c 40 63 77 53 40 31 67 86 3e 60 5c 78 3e
       3.2017574 3.3041618 0.26250604 0.24253988
000040 22 8c 87 bf 2c 0d a3 bd d9 88 f9 be 46 54 9d 3f
       -1.058964 -0.07961497 -0.4873722 1.2291343
000050 e6 bc ae be 6c 62 4c 40 41 8c 32 bf e8 d3 13 40
       -0.34128493 3.1935072 -0.6974526 2.3098087
000060 f2 dc ba 3e 84 b8 4b 3e 60 ed db 3d da 09 d4 be
       0.36496693 0.19894606 0.10738635 -0.41413766
000070 f8 1c 1e 40 9e cb ee be 2c cf cd 3e d6 12 d3 be
       2.470518 -0.46639723 0.40197122 -0.41225308
000080 50 9a 1d be 78 32 e2 3f 5c 3f 9e bd 50 00 a4 3f
       -0.15390897 1.7671652 -0.077269286 1.2812595
000090 1e 92 52 bf a8 e3 0c be e0 3e e8 3d f4 9f 07 40
       -0.8225421 -0.13758719 0.113401175 2.1191378
0000a0 d8 98 e3 3e 45 13 33 c0 3a 41 44 3f e0 b7 25 be
       0.44452548 -2.798051 0.7666203 -0.16183424
0000b0 af 86 d0 be 96 a9 37 3e 60 b0 01 3d 1c 2f 75 40
       -0.40727755 0.17935786 0.031662345 3.8310003
0000c0 1a 01 36 be 8b 05 ab bf 9e 62 eb 3f 10 d3 e1 3d
       -0.17773858 -1.3361067 1.838947 0.11026585
0000d0 28 e6 f4 3f bc f3 65 be dd 81 17 40 28 7b dc bf
       1.9132738 -0.22456259 2.3673012 -1.7225084
0000e0 38 a9 3d bf 8a 65 27 3e 13 b2 44 40 94 27 e4 3f
       -0.7408633 0.16347328 3.0733688 1.7824578
0000f0 67 c0 06 3e 9e 3d 14 3e 0c c6 cb 3e 2e 0d b4 3f
       0.13159333 0.1447663 0.39799535 1.4066522
000100 e0 63 34 3e 8c d1 6f be b2 c2 a7 be e8 c8 fe bd
       0.17616224 -0.2341978 -0.32765728 -0.124406636
000110 b0 bc 8e 3f 80 92 90 bf c4 fa 17 40 e8 5a cb be
       1.1151333 -1.1294708 2.3746805 -0.39717793
000120 7c a5 0c 40 59 1a 46 40 ec 24 30 40 04 e1 cc 3e
       2.1976004 3.0953581 2.7522535 0.40015423
000130 ff a4 ac bf 5e 9d 1c bf ca de bd 3e 9b bb 1a 40
       -1.3487853 -0.61177623 0.37084037 2.4177005
000140 68 54 ce 3d c6 12 a9 be 29 86 22 bf c3 cd 44 40
       0.10074693 -0.33022135 -0.6348596 3.0750587
000150 68 df 2a 40 b2 27 0c 40 8a 54 7e 40 f0 1d 4c be
       2.6698856 2.1899228 3.9739099 -0.19933295
000160 4e 6e f3 3f e2 38 95 3e bc 92 03 be 3c 33 30 3e
       1.9018037 0.2914496 -0.12848943 0.17207044
000170 e4 89 5e be 70 37 09 bf 46 3d 69 40 d8 ac 25 40
       -0.21732289 -0.53600216 3.6443648 2.5886745
000180 70 e4 2c bf 32 01 0d bf e6 2c ae 3e 22 10 1a 40
       -0.6753607 -0.5507995 0.3401863 2.4072347
000190 c6 4e de be 95 42 e4 be e4 2b 48 3f 96 60 17 40
       -0.43419474 -0.44582048 0.7819197 2.3652701
0001a0 b2 b5 29 be 1a 89 04 40 b8 f2 a2 bd cc e7 93 be
       -0.16573218 2.070868 -0.07956451 -0.28887784
0001b0 28 10 8b bd f9 5e 16 40 d6 db 07 bf 89 bd 17 be
       -0.06790191 2.3495467 -0.5306982 -0.14818396
0001c0 34 d7 ef 3f 80 54 44 bc 8a 4d 1a bf d1 0b 10 bf
       1.873755 -0.011983037 -0.60274565 -0.5626803
0001d0 44 e4 28 40 da 4b e9 be 34 cb 59 be e0 bf 1d 40
       2.6389322 -0.45565683 -0.21268922 2.4648361
0001e0 68 2c 41 40 92 ee 14 3f 34 93 0b be c0 e5 71 3d
       3.0183353 0.5817653 -0.13630372 0.059056997
0001f0 4d 75 3c 40 b7 a4 0c 40 f9 c4 01 40 46 30 45 40
       2.9446595 2.1975534 2.0276473 3.0810714

FusedBatchNormV318 f4 [128]
000000 54 2b 81 be b5 06 83 3f cd 1e 51 3f 00 e9 ff bd
       -0.2522837 1.0236422 0.81687623 -0.12495613
000010 ca d6 83 bf e6 1e 9a bf 1a 20 b1 3e 50 2e ed bc
       -1.0299923 -1.204068 0.34594804 -0.028952748
000020 7f 78 61 bf d6 e8 69 3f a4 11 e6 3e ce 16 e0 3f
       -0.8807449 0.91370904 0.44935334 1.750696
000030 6c e2 f4 3f 91 c9 34 3f 1c ff 73 be fb 2f e3 3f
       1.9131598 0.70620066 -0.23827785 1.7749017
000040 8c 1a 03 40 ed c9 03 40 bd 28 de 3f 62 b9 aa 3f
       2.0484953 2.0591996 1.7356182 1.3337824
000050 bf 6b 9e 3f 26 78 60 bf 3d 1a 70 3f c0 46 2f 40
       1.2376631 -0.8768333 0.93790036 2.7386932
000060 c6 1c d3 3f c0 31 3e bf 6d 60 cf 3f 1c b4 7e 40
       1.6493156 -0.7429466 1.6201302 3.979743
000070 48 da cf bf a7 05 83 3f ee f1 35 bf 38 6d 0f 3f
       -1.6238489 1.02361 -0.7107228 0.5602603
000080 b2 7f 20 3f a2 a1 9a 3f d3 9d 91 3f 1d 8b ad bf
       0.6269485 1.2080576 1.1376289 -1.3558079
000090 98 b8 9e 3f a0 91 80 3f ea d3 e3 3f ee ed d1 3f
       1.2400084 1.0044441 1.7799046 1.6400735
0000a0 ee b5 35 bf 68 e9 8e 3f e9 cb b6 3e 4a 07 80 bf
       -0.7098073 1.116498 0.35702446 -1.0002224
0000b0 08 84 5c 3e 44 82 f9 3f 88 93 13 40 e4 e1 d7 be
       0.21534741 1.9492879 2.3058796 -0.42164528
0000c0 ba cc 86 be b4 22 cc 3e bc d8 f7 bf 96 61 a6 bf
       -0.2632807 0.39870226 -1.9363017 -1.2998531
0000d0 c6 68 88 3e af b8 7f 3e db 2d 82 bf c6 ef 2c bf
       0.26642436 0.24972795 -1.0170244 -0.67553365
0000e0 52 ff 8b bf ee 89 37 bf e4 a7 4f 3e 98 02 3b bf
       -1.0937293 -0.7169484 0.20278889 -0.7305083
0000f0 ad 4f 1e 40 1a f4 29 3f 79 93 07 3f 3d 78 be 3d
       2.473613 0.66388094 0.529594 0.093002774
000100 ba 3a 5f bf cb cd 12 3f f8 e6 f9 bd 47 78 90 3f
       -0.87198985 0.57345265 -0.12202257 1.1286706
000110 38 d1 8b bd ba 75 80 3f 8c f8 46 3f fc 68 a1 3f
       -0.06827015 1.0035927 0.77723 1.2610164
000120 31 cc aa 3f 0e f3 f6 be a5 d5 37 3f e2 02 3f 3f
       1.3343564 -0.4823231 0.7181037 0.74613774
000130 4a 37 09 40 88 02 e9 3f d4 0f 08 3f be d3 a6 bf
       2.1439996 1.8203897 0.5314915 -1.3033369
000140 2c a6 26 3f 5a d5 d0 3f c3 d4 04 40 26 11 9c 3f
       0.6509731 1.631511 2.075486 1.2192733
000150 01 03 15 c0 ac ca b4 3f 7f 94 91 3f 53 47 bf bf
       -2.3283083 1.412435 1.1373442 -1.4943641
000160 8c b0 89 3f 1b ef f5 bf 82 7e a9 3f a0 bc 4b 3e
       1.0757003 -1.9213594 1.3241732 0.19896173
000170 66 3b c7 bd 2f 69 bd 3f e8 82 8f 3f 16 d3 f0 bf
       -0.09728126 1.4797724 1.1211824 -1.8814418
000180 77 36 ed 3e 3f d6 17 3f e8 7e db bf 9e a4 55 3f
       0.46330616 0.5931129 -1.7148104 0.8345431
000190 cb d9 e6 bf b8 5b ab 3f d3 82 0c 3e e6 a6 20 40
       -1.8035215 1.3387365 0.1372178 2.5101867
0001a0 72 78 c5 3e 0f 5e 7e 3f e1 a1 3c 40 84 51 31 40
       0.38568455 0.9936227 2.9473803 2.7706003
0001b0 56 8f 85 3f 8a 2e a4 bf e4 ba e0 3f c8 02 9e be
       1.0434368 -1.2826703 1.7557034 -0.30861497
0001c0 93 e6 e6 be 44 47 27 40 78 7c 19 40 8a 55 cd 3f
       -0.4509779 2.6137247 2.398222 1.604173
0001d0 23 76 0b 40 e0 29 03 40 0b ec 6a bf 15 d8 15 40
       2.1790855 2.0494308 -0.91766423 2.3413136
0001e0 ac ec a8 3f 0a b7 85 bf b3 13 4f 3f d9 a3 67 3f
       1.3197227 -1.0446484 0.80889434 0.90484387
0001f0 8f 88 94 3f d3 32 90 bf 6f bf 88 3e 22 d9 10 c0
       1.1604174 -1.126551 0.26708552 -2.2632527

FusedBatchNormV319 f4 [128]
000000 bc 86 e1 3f a6 44 37 be f2 0d 38 40 00 bd a7 be
       1.7619243 -0.17897281 2.8758512 -0.32761383
000010 a0 f0 81 bc d4 c7 13 40 3a 1c 0f 40 32 bc c9 be
       -0.01586181 2.3090715 2.2360978 -0.39401394
000020 38 c8 f2 bd 98 f8 2f 40 e8 d3 08 40 5c 37 1c bf
       -0.11854595 2.749548 2.1379337 -0.6102197
000030 d0 4f 3d 40 bf 38 77 3e 00 cc 16 3d f8 e7 3e 3f
       2.9579964 0.2414274 0.036815643 0.74572706
000040 8c d2 aa 3e 4c a6 67 3e 42 39 50 40 e4 a6 4c 40
       0.3336376 0.22622031 3.2534947 3.1976862
000050 60 30 ef 3d 12 79 22 40 90 98 ac be 32 fe b7 be
       0.11679149 2.5386395 -0.33710146 -0.35936123
000060 8c 6d a6 3e b0 33 c5 3e 10 41 bb bd 2a 2e 4b 40
       0.32505453 0.38515997 -0.09143269 3.1746926
000070 e4 44 5b 3e 8a 78 eb 3f 02 f9 f4 3f 14 9f 18 40
       0.21412998 1.8396161 1.9138491 2.3847094
000080 26 99 34 40 8e ff 84 3e 20 e5 72 bd 6a 67 2e 3f
       2.8218474 0.25976223 -0.059300542 0.6812655
000090 e8 ec a1 3e 60 60 27 3d 72 92 31 40 00 39 c4 bc
       0.31626058 0.040863395 2.7745633 -0.023952961
0000a0 0a 55 dd 3e 6c cc 24 bf 4a f0 06 40 0c a0 0a 3e
       0.43228942 -0.64374423 2.108416 0.13537616
0000b0 18 6f ab be a8 68 26 3e 80 7b f9 3f d0 21 a4 3d
       -0.33483195 0.1625086 1.9490814 0.08014262
0000c0 00 27 67 3c aa 0c 44 40 08 9a 81 be 4a 19 49 bf
       0.014108419 3.063273 -0.2531283 -0.78554213
0000d0 a4 2d 91 bd 33 19 ec 3f 0c 65 36 40 ac 0e 87 3d
       -0.070887834 1.844519 2.8499174 0.06594595
0000e0 4a 0b 39 bf 30 4f a6 3e 28 26 c4 3d ad 36 ad be
       -0.7228285 0.3248229 0.0957759 -0.33830777
0000f0 c7 8c 1a 40 e8 e2 6c be 81 92 6d bf 30 0d 9a bd
       2.4148424 -0.23133433 -0.9280167 -0.075220466
000100 b2 e6 dc be a4 e3 bc bd 78 51 8c bd 59 3e e8 3f
       -0.43144757 -0.092231065 -0.068514764 1.8144027
000110 ac 71 86 3d 46 9e 06 40 44 9e 9b 3f f5 36 3e bf
       0.0656465 2.1034102 1.2157674 -0.7430261
000120 24 8c 6a 40 54 82 ed 3d 4e cc 42 be c7 76 2f 40
       3.6648035 0.11597124 -0.19023249 2.7416246
000130 92 71 90 be a8 d5 94 bd 80 40 90 bb a8 8c 34 3e
       -0.28211647 -0.07267314 -0.0044022202 0.17631781
000140 98 12 1e 40 34 9f 32 40 62 8c a6 be dc 16 6f 3f
       2.4698849 2.790967 -0.3252898 0.93394256
000150 1b 8b 86 be 4a ba f1 3f ca ac bc 3e 98 f1 db 3f
       -0.26278004 1.8884976 0.36850578 1.7183104
000160 09 04 9e bf c4 e5 0f bf f0 3b dc bd 98 3f e2 be
       -1.2344981 -0.5620997 -0.1075362 -0.44189143
000170 10 57 9a bd 10 1d 3f bf 2a 52 37 40 9c 14 07 be
       -0.07536137 -0.7465372 2.86439 -0.13191456
000180 60 0d f3 bc a4 50 23 3e a9 cd 69 be 00 4c f2 39
       -0.029669464 0.1594873 -0.2283236 0.0004621446
000190 02 dc a5 3e 09 1d 00 40 80 9a d9 3d 70 2f 42 bd
       0.32394415 2.0017722 0.10625172 -0.04740852
0001a0 34 72 2a 40 7c 12 3d be d9 1f 01 40 d7 d1 2f 40
       2.6632204 -0.18464082 2.0175688 2.7471826
0001b0 1c c8 0d 40 d8 28 bd bd 00 b6 ff bb b8 0a 64 be
       2.2153387 -0.09236306 -0.0078036785 -0.22269714
0001c0 38 2c bf bd 46 4d 92 bf 80 26 99 3e 80 3d b4 bd
       -0.09334606 -1.1429832 0.29912186 -0.08800793
0001d0 fe e2 24 3e 02 09 a9 3f d2 08 5a be be e8 88 40
       0.16102216 1.3205874 -0.21292427 4.278411
0001e0 6a c5 74 40 9d 91 06 bf fa a4 dc 3f b4 da 06 40
       3.8245492 -0.5256594 1.7237847 2.1070986
0001f0 35 0d c3 3f d4 46 31 be da 72 05 40 21 f4 40 3f
       1.5238405 -0.17312175 2.085135 0.7537251

FusedBatchNormV320 f4 [128]
000000 6c 14 00 3f c7 c7 a5 3f a6 18 a8 bf 14 60 55 3f
       0.5003116 1.2951592 -1.3132522 0.8334973
000010 22 84 cd 3e 70 79 8b 3d f2 be b6 3e da aa 8c 3e
       0.40139872 0.06810272 0.35692555 0.274741
000020 49 a7 69 bf e7 d9 53 3f ce f5 f7 3f d2 fa a7 3f
       -0.9127088 0.8275437 1.9371889 1.3123419
000030 ba 25 82 bf b2 07 68 be d7 58 78 3f af 7a 84 3f
       -1.0167763 -0.22659186 0.9701056 1.034994
000040 95 fa b4 bf a2 af 3a 40 40 ec 3f bd 49 32 f0 3f
       -1.4138972 2.9169698 -0.046856165 1.8765346
000050 92 8c e8 3e 18 b6 14 be 3e 5d 5b bf 10 6d 35 bf
       0.45419747 -0.14522588 -0.8568915 -0.7086954
000060 94 57 0e 3f 7b 18 0b 40 cd e9 cc bf c0 cd c2 bd
       0.55602384 2.1733692 -1.600885 -0.095119
000070 34 d5 48 bf 97 43 22 c0 df c9 10 40 36 9b 93 3d
       -0.7845032 -2.5353754 2.2623212 0.072073385
000080 95 fa 04 c0 40 79 64 40 9a 34 54 3f 02 91 b4 3f
       -2.0777943 3.5699005 0.82892764 1.4106753
000090 5c e2 c7 3f 3c 8f f9 3e 2d 0d 76 3f 4a 64 c0 be
       1.5615954 0.48742092 0.96113855 -0.37576514
0000a0 9e cf d6 bf 28 7a dc 3e 07 ba 9e bf 29 4d db be
       -1.678211 0.43061948 -1.2400521 -0.42832306
0000b0 ef ff 03 40 01 10 1c 3f d5 b2 8c bf ee 50 9c 3f
       2.062496 0.6096192 -1.0992075 1.2212198
0000c0 5c aa c3 bf c6 73 51 bf f4 e6 25 bf 82 28 96 bf
       -1.5286365 -0.8181728 -0.6480553 -1.1731112
0000d0 3d e5 b9 bf 68 8d 03 40 dd ad 94 be 6a 12 05 40
       -1.4523083 2.0555058 -0.29038897 2.079249
0000e0 74 8f 03 40 b3 51 71 3f c6 7b 59 3e 98 45 c4 be
       2.0556307 0.9426529 0.21238622 -0.38334346
0000f0 f6 77 01 40 a0 ae 43 bd a6 f4 6b 3e 7f 3f 1e 3f
       2.0229468 -0.047773957 0.23042545 0.6181564
000100 74 86 52 3f 30 07 b4 bf eb 38 5d 3f e3 b3 a7 3f
       0.8223641 -1.4064693 0.86414975 1.3101772
000110 01 3d 96 bf 3b 60 20 3f ec 6c 94 bf e8 6b a7 be
       -1.1737367 0.62646836 -1.159574 -0.32699513
000120 bd 13 a0 3f a0 6d 88 3c f2 6e 43 40 20 39 f2 3d
       1.2506024 0.016653836 3.0536466 0.11827302
000130 c9 92 80 bf 8c 51 1b bf e2 7c 1e bf f2 f0 a3 3f
       -1.0044795 -0.60671306 -0.61909306 1.2807906
000140 de 28 37 40 5f 2e 31 bf 3d fc ae 3f 8f 32 3a 3f
       2.8618693 -0.6921138 1.3670727 0.72733396
000150 32 6f 0e bf c6 71 93 3f 7d c2 7b 3f d8 1d ca bf
       -0.5563842 1.1519096 0.9834364 -1.5790358
000160 c1 65 db bf 72 e4 11 3f 5b 3b c0 3f a2 6d c5 be
       -1.7140428 0.56989205 1.5018114 -0.38560206
000170 f4 65 80 bf ce 68 57 3f cf 27 01 bf 97 f7 13 bf
       -1.0031114 0.84144294 -0.5045137 -0.5779967
000180 64 6e a9 3f 57 f4 c5 bf 48 8a 87 bd 9a d1 9e 3f
       1.3236814 -1.5465192 -0.06618172 1.2407715
000190 9c 11 3d 40 14 3b 82 bf e8 3d cc 3f 50 40 76 3f
       2.9541998 -1.0174279 1.5956392 0.96191883
0001a0 90 31 93 bf 0c 2e 29 bf 5a bc ac 3e 40 56 90 3f
       -1.14995 -0.66085887 0.3373745 1.1276321
0001b0 3a e2 2c 3f 70 3f 0c bf d1 db e2 3f a8 65 ae 3f
       0.67532694 -0.547843 1.7723333 1.3624773
0001c0 50 70 cb bc 70 48 49 c0 d6 8a cd be 12 c5 ee 3f
       -0.024833828 -3.1450462 -0.40144986 1.8653891
0001d0 76 ff f9 3f eb b6 25 bf 3f d1 a7 3f 63 12 f5 bf
       1.9531085 -0.64732236 1.3110732 -1.9146236
0001e0 64 4e c3 3f 56 d4 92 be 60 11 f3 3c 62 6a b1 3f
       1.5258298 -0.28677624 0.029671371 1.386059
0001f0 e6 6a 5b 3f 25 f7 80 3f 4f e9 21 3f 90 5e 7c 3e
       0.8570999 1.0075423 0.63246626 0.24645448

FusedBatchNormV321 f4 [128]
000000 e4 80 1c be 2e dd b3 3e 64 c6 94 be 94 a5 5d 40
       -0.15283543 0.35129684 -0.2905761 3.463231
000010 00 d2 b3 bb a6 dd 18 40 04 c7 aa bd 32 fe 13 bf
       -0.0054876804 2.3885283 -0.083387405 -0.57809746
000020 f3 52 8a bf 24 9d 46 bd 8e e0 a1 be 01 b7 04 40
       -1.0806564 -0.048489705 -0.31616634 2.0736697
000030 51 a1 11 be dc 91 13 bf 0d c1 4a 40 3c a2 20 40
       -0.14221694 -0.5764444 3.168033 2.509902
000040 c0 9f ce bd 45 f3 72 bf 60 2e 82 3d 78 4a f5 3d
       -0.10089064 -0.9490245 0.063565016 0.119770944
000050 ca a1 33 3e b4 14 9b be 3e b5 26 40 24 8c c7 be
       0.17542186 -0.30289233 2.6048121 -0.38974106
000060 2c b6 df 3e 72 92 63 bf 88 d1 6c 3d 1e 32 d4 be
       0.43693674 -0.8889533 0.057817012 -0.41444486
000070 60 48 04 40 b0 5f b3 bd be 35 eb 3e 88 d7 48 be
       2.0669174 -0.08758485 0.4593944 -0.19613469
000080 34 ce 3a be 14 98 6e 40 b7 6f 2b 40 3f 26 48 bf
       -0.18242723 3.728032 2.6786935 -0.7818336
000090 14 e1 0d 40 d1 36 2a 40 b0 8c 23 40 b8 a5 bd bd
       2.2168627 2.6595957 2.555462 -0.09260124
0000a0 6e 82 2d 40 a4 92 01 3e fc 69 9d bd a8 53 fb bd
       2.7110858 0.12653595 -0.076862305 -0.122718155
0000b0 d8 59 61 40 83 cc 5e 40 70 93 26 3d 78 89 fd 3d
       3.5211086 3.4812324 0.04066795 0.12379736
0000c0 d0 52 f4 be ec 07 b0 be 26 6f 30 40 bf d3 ab be
       -0.4771943 -0.34381044 2.756784 -0.33559987
0000d0 a0 7b 0e bf 15 50 20 40 ac 96 0f be 28 e3 81 3e
       -0.55657387 2.5048878 -0.1402232 0.2536862
0000e0 28 16 2a 40 de 2b 35 40 0c 01 82 be 81 75 37 40
       2.6576023 2.8308024 -0.25391424 2.8665469
0000f0 e4 bc 42 be 45 d1 34 40 a6 86 86 be 62 cf 81 bf
       -0.19017369 2.8252728 -0.26274604 -1.0141413
000100 04 fe 48 3e ae bf 85 3e cc 76 4b 40 96 55 9a 3e
       0.1962815 0.26122802 3.1791258 0.30143422
000110 b0 5d b8 3d 84 99 38 40 74 a2 0e be ac 9c d8 be
       0.090022445 2.8843699 -0.13929158 -0.4230703
000120 ee ec a3 3f 98 10 e3 bd 9d fb 5d bf c6 72 25 40
       1.280668 -0.110871494 -0.86712056 2.5851302
000130 78 00 c2 3d b4 10 b1 3d 80 f7 3a bb 1b 6a ab be
       0.09472746 0.08645764 -0.002852887 -0.3347939
000140 7a 83 5d 3f 58 0f ef 3f 07 41 08 40 a0 e5 89 3c
       0.8652874 1.8676558 2.128969 0.016833127
000150 70 fb f1 bd 08 df 07 be 8d 29 1c 40 00 72 ec 3c
       -0.11815536 -0.13268673 2.440036 0.028862953
000160 00 af 7f bb a0 85 17 3d 8e 09 3d bf 00 d8 27 3c
       -0.003901422 0.03699267 -0.73842704 0.0102443695
000170 a0 76 c3 bd 94 1d 6e 40 34 5e 35 40 78 36 4f bd
       -0.0954411 3.7205553 2.8338747 -0.050589055
000180 e6 c8 94 be 7b 41 e4 3e 9a 69 b3 3e 0a f7 f4 3f
       -0.29059523 0.44581208 0.35041505 1.913789
000190 e0 ca 4c 40 00 69 f2 3f 69 c7 1a bf f0 c9 21 40
       3.1998825 1.8938293 -0.60460526 2.5279503
0001a0 08 20 8d bd c2 5a 21 bf 72 e0 b2 be ce cc 84 40
       -0.06890875 -0.6302911 -0.34936863 4.1500006
0001b0 38 5f 2c 40 a8 e3 2a bf c0 85 4c 3d 4d 4f 80 40
       2.6933117 -0.66753626 0.04993224 4.0096803
0001c0 f0 39 b8 3d 3c b7 46 be e6 63 4e 40 f6 09 1a 40
       0.08995426 -0.19405836 3.2248473 2.406858
0001d0 04 b7 f2 3e 3e 74 36 bf e6 b6 36 3f 98 fe 82 3e
       0.47405255 -0.7127112 0.7137283 0.25584865
0001e0 21 7c 48 40 a0 15 24 bd fc 73 1e be 04 d0 47 40
       3.1325762 -0.040059686 -0.15473932 3.1220713
0001f0 9c 9c 1b 3f 52 a4 41 40 c0 7c 82 3d 80 97 bf 3e
       0.6078584 3.0256543 0.063714504 0.37420273

FusedBatchNormV322 f4 [128]
000000 7b 2c aa 3f fc da 22 40 06 46 7c 3f 6e 34 84 3e
       1.3294824 2.5446157 0.9854435 0.2582125
000010 be 02 1f 3f 1d c7 e5 3f 3c e0 3a c0 5e 0a 89 be
       0.6211356 1.795139 -2.9199362 -0.26765722
000020 0c fe 11 3f 07 24 59 be 5d 89 2e c0 a0 30 98 3f
       0.5702827 -0.2120515 -2.727134 1.1889839
000030 00 4b 20 be 96 34 f0 bf 81 eb 65 bf cf d0 3e c0
       -0.1565361 -1.8766048 -0.89812475 -2.9814947
000040 75 a4 ca bf 0c a8 23 be 90 3d 44 40 90 ce 81 3f
       -1.5831438 -0.15982074 3.0662575 1.0141163
000050 44 83 e5 3e f0 52 a7 3d 77 eb 6f 3f e8 2f b8 3f
       0.4482671 0.08170116 0.93718666 1.438962
000060 09 d3 e4 3f a8 34 32 3f a8 d0 64 3e 7d 8b 84 3f
       1.7876903 0.696116 0.22345221 1.0355068
000070 5a 75 38 3f 44 46 da bd a0 01 3e 3e 3c 49 87 bf
       0.72054064 -0.10657933 0.18555307 -1.0569224
000080 ae 26 0d bf 99 f3 80 3f b6 fd e7 3e 79 6e 83 be
       -0.55137146 1.007434 0.45310754 -0.2567022
000090 54 77 81 be b1 3d 95 bf 64 0f ec 3e f0 45 e5 bd
       -0.25286353 -1.1659452 0.46105492 -0.1119498
0000a0 f9 aa 9c bf c2 d1 01 bf 2c 47 94 be 34 30 03 bf
       -1.2239677 -0.5071069 -0.2896055 -0.5124543
0000b0 67 1c dc 3f 27 35 98 bf 46 02 b2 bf 4c fd 11 40
       1.7196168 -1.1891221 -1.3906944 2.281085
0000c0 90 15 7a bf f5 df 1b 3f ba 40 46 3f 73 4f e9 bf
       -0.9768915 0.60888606 0.77442515 -1.8227371
0000d0 8f 3f 0f c0 45 a8 f7 bf 28 e1 9f be 1d e0 16 40
       -2.2382543 -1.9348227 -0.31226468 2.3574288
0000e0 8c f5 db 3e 9c 4d 16 40 ed ed d7 3e bd ed 07 c0
       0.42960775 2.348487 0.4217371 -2.1238854
0000f0 80 3e b8 3b 79 50 95 bf 82 d4 c5 3f c0 42 4f 3c
       0.005622685 -1.1665183 1.5455477 0.012650192
000100 52 de 9f 3f e4 8d f6 3e 74 6a 1d 40 c9 60 03 c0
       1.2489722 0.4815513 2.4596224 -2.0527823
000110 71 db 8b bf 3f ef de 3f 5c 7e c0 3e 60 c5 93 3f
       -1.0926343 1.7416762 0.37596405 1.1544609
000120 2e 3f 95 be fe 82 90 3f 57 e8 a9 3f 5d a2 13 40
       -0.29149765 1.1289976 1.327403 2.3067849
000130 00 cc 6e 3b 1f 12 3e bf ec cb dc be 88 e2 03 40
       0.0036437511 -0.742464 -0.4312433 2.0607014
000140 b4 c6 b8 be 1c 7b b4 3f a8 be e5 be 36 59 f6 3e
       -0.36089098 1.410007 -0.44872022 0.48114938
000150 72 0c b2 bf 64 85 ed 3f 1c 1e 06 bf 37 21 c3 3f
       -1.3910048 1.8556333 -0.52389693 1.5244511
000160 0a f2 80 3d 0e 19 87 3f 23 f9 4f bf 8c 81 36 40
       0.06296165 1.0554521 -0.8123953 2.851657
000170 b9 7f bf 3e 56 49 1a 3f 70 23 0f 3f 57 e8 fe be
       0.37402132 0.6026815 0.5591345 -0.49786636
000180 00 9f 58 3c 8e c5 ce 3f 2a 9a fc 3f 97 14 80 3f
       0.013221502 1.6154039 1.9734547 1.0006284
000190 fc 03 d8 3e e0 52 49 c0 7c 65 93 be 72 92 40 bf
       0.4219054 -3.1456833 -0.28788364 -0.7522346
0001a0 ac 18 c8 3e 21 92 59 3f 83 c1 99 3f 50 d2 36 40
       0.39081323 0.849886 1.201218 2.8565865
0001b0 f0 71 32 c0 8a 64 32 be de b7 26 bf 78 d2 99 be
       -2.7882042 -0.17421165 -0.6512431 -0.30043387
0001c0 52 75 c7 bf 60 31 75 be 8e f0 7f 3e 21 80 81 3f
       -1.5582678 -0.23944616 0.24994108 1.0117227
0001d0 fc ab d3 be 8c f8 9a 40 f2 c0 9a bf 7f 5b c2 be
       -0.4134215 4.84284 -1.2090132 -0.3796043
0001e0 9d 15 8b 40 88 45 a9 3f 8c 9f 51 bf c4 0e e2 3e
       4.3463883 1.3224344 -0.81884074 0.4415189
0001f0 7c cb 9a bf 10 17 23 3d 95 2d 87 3e 60 67 1a bc
       -1.2093349 0.039816916 0.26401964 -0.009424061
